model_m5ALL_new_6000_804.pth (torch, 96069 bytes, 3 tensors)

linear1.weight f4 [108, 216]
00000000: ddb6 2ebb 9b67 4ebb c2c7 50bc 29e6 0ebc
00000010: ec86 d0bb ba15 30bc 54de 5ebc 76d9 253c
00000020: 70e8 edbb 6116 433b 98bc 5a3b c45a ac3b
00000030: d432 4a3c 494f 5f3c 51db 5fbc c835 60bb
00000040: 3124 dbba 243c 913b b359 1e3c d961 76bd
00000050: 4f1e 0cbc ee5f 4a3c a553 833a 234b 223b
00000060: b801 ac3b ec50 81bc 4c54 78bb baa7 00bc
00000070: 185a 4abc 872f 3dbc 92d0 ffbb 3ce6 1e3c
00000080: 7d3a 813b c38a 483c c714 24bb d948 00bb
00000090: b093 9bbc 13ea 9c3a 7200 ddba db1c f13a
000000a0: 58f3 9e3c c597 8d3c 9995 ecbb 1b79 293c
000000b0: 0e72 b9bb 7848 753b 45f4 1cbc 9d42 4f3c
000000c0: f158 5f3c b795 e83b 3c6b 47bc cce7 2ab8
000000d0: 3726 1e3c 7c81 7abc 6aac 91bd 2a08 403a
000000e0: 2530 c03a c27e 3f3b 73ce fdbb 9fc2 8e3b
000000f0: 6f59 94bb 9185 b33b 1e24 ab3c 0fd8 39bc
00000100: 0415 94bd bea0 80bd ea8c 85bd 3272 91bc
00000110: a349 5bbd a655 74bd dd92 23bc c2c8 80bd
00000120: 3070 e439 78fe ffba 9c37 43bb 600c 51bb
00000130: 42c8 8ebc bf36 d0bb 23fc 66bc 760b a0ba
00000140: acd0 33bc 0e41 b73b df6b aa3b e865 8bbc
00000150: c24e 5dbb 6383 153b f3e0 30bc 3503 b1bb
00000160: b3d8 503c e79b 6fbc 6253 63bc e068 613b
00000170: 64a0 bc3b a176 843b 4bbb be3b e70a 863c
00000180: c01f b43b d1dd 1e39 5c3a 393b 98bf 9cbb
00000190: 3713 963a 4ca0 51bb a73b 373c 7c85 08bc
000001a0: e442 4e3c b3f4 79bb 6abe 62bc c117 69ba
000001b0: 7f47 133c 86a0 8fba 3a0f 963c 52bb b43b
000001c0: b675 3c3b 58af 0d3b a78e 0c3c 19f1 4c3b
000001d0: 4508 77bb e385 253c 46b7 53bc 00e6 0cbc
000001e0: e4f0 11bb d470 35bb a776 a93c a905 2b3b
000001f0: 3257 06bc 7e8f 96bb 9cf2 86bc 5748 85bc
00000200: 6b56 67bc 8079 3f3c 7c00 9e3b a3f3 4ebc
00000210: b9e4 beba 9ba2 383c 05a1 9d3a 6fb3 0c3c
00000220: 3b28 54bb 1da9 57bb 07bb 8b3b 4db9 bfbb
00000230: fbf0 2abb 6c59 e1ba 7d59 cbbc f5f9 0d3c
00000240: ff11 9e3b 788c 0fbc 22ad 32bd 9f4f 07bc
00000250: 8483 dfbb 6715 8f3c 75ea 6e3c 560a 3abc
00000260: f0b3 05bc d293 683b 594f b8bb 362b 9f3b
00000270: f417 8d3b c9c1 24bc c5a4 84ba 4d3b 37bc
00000280: 58c9 99bd cc9e 94bd 8cb5 88bc 21e6 3ebc
00000290: e98f 53bd 3234 65bd b595 79bd cb00 a2bd
000002a0: fbfb 14bc 427a 413a db8a 55bc 7a1e 23bc
000002b0: 7774 7a3a b001 0f3c cdac 9e39 fe04 9cbc
000002c0: 92d4 adba 7ca8 e9b9 57db 653c 9f07 663c
000002d0: 6256 fa3b d0f1 98bb e498 c03b 7f2c 87bb
000002e0: a526 0d3c 9448 8ebb 7443 8d3b b904 f93b
000002f0: 10b6 d53b aa53 dabb e189 8fbb d7f8 04bc
00000300: 38e1 a3bd 7c1d a5bd 00d4 95bc 43ba 9ebd
00000310: 3d73 70bd 6ebd 7fbc 15de daba b6e6 83bd
00000320: 92f2 e8bb 331d 4abc 0dff d43b ea01 1abc
00000330: b2ef c1bc 2196 a23b ada0 43bc 9f44 113c
00000340: 9d16 a1be 6486 9dbe 65af c4be 9199 c2be
00000350: 4c51 9dbe f896 aebe eec2 c3be d76d aabe
00000360: 6060 17bc 2395 573c 51e2 eabb f8f6 133c
00000370: 1bc1 4439 586c 233c 18ec b0ba 08c4 32bc
00000380: 0835 193b 253c a3ba 5549 a8b9 49ad a8bc
00000390: 64cb 0f3b 2f6b 38bc b12f 293c 9238 1dbc
000003a0: 4f4b dfbc 02f9 c3bb abf5 c73b e10e 373b
000003b0: 5ee2 2d3c 7801 003c 08e2 393b 9829 0dbc
000003c0: 51f9 623c e380 113a 0a32 dd3a 0b30 a738
000003d0: d64b 50bb 1922 23bc c343 bf3c be75 0ebb
000003e0: 0d93 09bc cd5a 58bc b5ef ff3b 21b3 09bc
000003f0: e364 21bc 9add 6fbc f445 17bb a108 d13b
-0.0026659288 -0.003149486 -0.0127429385 -0.008721867 -0.00636374 -0.0107473675 -0.013602812 0.0101226475
-0.0072603747 0.0029767978 0.003337657 0.0052598435 0.01234122 0.013629743 -0.013663129 -0.0034211744
-0.001671916 0.004432218 0.009664941 -0.06015191 -0.008552148 0.012351973 0.0010019435 0.0024764023
0.0052492283 -0.015785657 -0.0037892042 -0.007852489 -0.012350582 -0.011546976 -0.007806846 0.009698447
0.00394374 0.012240115 -0.0025036798 -0.001957467 -0.018991321 0.0011971615 -0.0016861095 0.001839544
0.019403145 0.017284283 -0.007219982 0.010343815 -0.0056593483 0.0037427228 -0.009579723 0.012650159
0.013632045 0.0070979255 -0.012171563 -4.0747036e-05 0.009652666 -0.015289661 -0.071129635 0.0007325435
0.0014662786 0.002921984 -0.007745558 0.0043566967 -0.004527263 0.005478569 0.020891245 -0.011343016
-0.07230571 -0.06280659 -0.06521018 -0.017754648 -0.053537022 -0.059651993 -0.009983745 -0.062882915
0.00043571135 -0.0019530794 -0.0029787784 -0.0031898245 -0.017429475 -0.0063541825 -0.0140982 -0.0012210447
-0.010975044 0.005592472 0.0052008475 -0.017016366 -0.0033768867 0.0022813908 -0.01079582 -0.0054019936
0.012746978 -0.014624572 -0.0138748605 0.0034394786 0.0057564247 0.004042462 0.005820667 0.01636262
0.005496949 0.00015150687 0.0028263545 -0.004783582 0.0011449818 -0.0031986414 0.011183656 -0.008332606
0.01258919 -0.0038140237 -0.013839344 -0.0008891784 0.008989214 -0.0010957874 0.018317807 0.0055154944
0.0028756685 0.0021619406 0.008578933 0.0031271635 -0.0037694138 0.010102722 -0.012922114 -0.008599758
-0.0022268826 -0.002768566 0.02068646 0.0026095903 -0.0081995 -0.0045947423 -0.016473107 -0.016269846
-0.014119725 0.011686683 0.004821835 -0.01263133 -0.0014564014 0.011269237 0.0012026137 0.008587702
-0.0032372612 -0.0032907196 0.0042642388 -0.005850947 -0.0026083577 -0.0017192787 -0.024822945 0.008665551
0.0048239226 -0.008761518 -0.043622144 -0.008258729 -0.006821098 0.01746626 0.014582266 -0.011355003
-0.008160576 0.0035488498 -0.0056246934 0.004857446 0.004305834 -0.010055968 -0.0010119906 -0.011183572
-0.075091064 -0.072568506 -0.01668813 -0.011651547 -0.051650915 -0.05595798 -0.060933787 -0.079103075
-0.00909328 0.00073805836 -0.013033594 -0.009955997 0.0009554098 0.00872843 0.00030264855 -0.01904535
-0.0013262203 -0.00044566754 0.0140293455 0.014039903 0.007639692 -0.004667498 0.005877601 -0.0041251774
0.008615171 -0.004342148 0.0043110196 0.00759944 0.0065219477 -0.0066628056 -0.00438045 -0.008115969
-0.080019414 -0.08062264 -0.018289566 -0.0775037 -0.05870365 -0.015609128 -0.0016698266 -0.06440489
-0.0071089948 -0.012336063 0.006500131 -0.00939987 -0.023673866 0.0049617444 -0.011940164 0.008866458
-0.31462565 -0.30766594 -0.38415065 -0.38007787 -0.30726087 -0.34099555 -0.38234657 -0.33286926
-0.009239286 0.013158116 -0.0071680923 0.00903105 0.00018763954 0.009974562 -0.0013498096 -0.010910995
0.0023377556 -0.0012453838 -0.00032098094 -0.020590441 0.0021941299 -0.011256023 0.010326312 -0.009596007
-0.02725759 -0.005980612 0.006102284 0.0027932453 0.010613052 0.00781285 0.0028363485 -0.008615874
0.013853387 0.00055505167 0.0016875875 7.972129e-05 -0.0031783483 -0.00995686 0.023347741 -0.002173766
-0.008396876 -0.013205242 0.0078105577 -0.008404524 -0.009850713 -0.014640236 -0.0023082467 0.0063792025

linear1.bias f4 [108]
00000000: fa64 8cbd 7f03 42bb 8312 cc3b d51b a23c
00000010: d476 a73a ffbd 11bb aa2d 413b 2a6e 033a
00000020: 82e3 7c3d f504 89bd 019f 9b3c 6723 a63e
00000030: 7b9e 0cbc 36ba ffbc 040d 423e c76c 31bc
00000040: 1c32 83bb 7410 56bd 7f08 f23d b386 60bc
00000050: 4356 4bbd c5b9 89b7 97c6 593d dec9 ec3e
00000060: 2f4e 1ebd 41d5 48bd be99 b83b 0e37 a0bb
00000070: f16c c13e 0212 47bc b00d 113f d196 ff3a
00000080: 0fc7 053d e1ac 153f 5ad0 a1ba 7f45 36bb
00000090: c4cb 2d3f 87fc a8b9 3761 df3d 38ac 2ebc
000000a0: c144 c33d fe60 bd3c fa99 9dbc d4a1 a6bb
000000b0: 7b73 673c 23f8 203c bae6 963d 56eb 943e
000000c0: 1357 8dbd 13c5 d93d 46b9 a23c 9f56 e83c
000000d0: fc97 1cbc fafb d83e a876 1d3c 0d8b 123c
000000e0: 945c 25bd e8c5 083e 9f99 c93b 1cc5 42bb
000000f0: 6257 bbba 88bb 26bb e871 71bd 937c 32bc
00000100: 4b4d 113c 5674 69bd 04a3 4cbd 73ca 963e
00000110: afbd 23bc 4674 1ebd b31c d13b b519 f63d
00000120: 219d 2a3e b48f 043e 5895 0c3c 4d92 bf3b
00000130: bc27 29ba 3fb1 043b 7f3e 14bd 2e6f 753c
00000140: a3e2 c33c e011 62bc 295b 2f39 d260 533b
00000150: 0fd3 3dbc a50c ae3c 6604 0939 65ef 323e
00000160: 7894 a7bc 2940 99ba 4f5e 733c 59c8 8b3c
00000170: 6484 b03b 7fd1 82ba fe7f bb3b f896 903e
00000180: 22ea 44bd d0ab 8c3d 8fce b138 2275 213c
00000190: 7a1a efbb d0a5 0d3e 3a5d c93d 8568 093e
000001a0: 9116 08bd 31fa 35bb 5fe4 563e d5c4 56bb
-0.06855197 -0.0029604135 0.0062277927 0.019788662 0.0012776502 -0.002223849 0.002947668 0.0005013669
0.061740406 -0.066903986 0.018996717 0.32448885 -0.008582707 -0.031216722 0.18950278 -0.010829157
-0.0040037762 -0.052261785 0.11818027 -0.01370399 -0.049642812 -1.6418178e-05 0.053167906 0.46247762
-0.03864878 -0.0490315 0.005633562 -0.0048893755 0.37778428 -0.0121502895 0.5666151 0.0019499903
0.03266054 0.5846692 -0.0012345419 -0.002781242 0.67889047 -0.00032231605 0.10907214 -0.010661177
0.09534598 0.023117539 -0.01923846 -0.0050852094 0.014126654 0.009824785 0.07368226 0.29085797
-0.06901374 0.10633292 0.019863736 0.028361617 -0.00955772 0.42379743 0.009610809 0.008944285
-0.040371493 0.13356745 0.0061523463 -0.0029719537 -0.001429301 -0.0025441367 -0.05894652 -0.010893959
0.008868526 -0.056995712 -0.04996015 0.29451331 -0.009993955 -0.038685106 0.006381595 0.12016622
0.16661502 0.12945443 0.008580528 0.005846298 -0.0006452759 0.0020247248 -0.036192413 0.014980121
0.02391178 -0.013798207 0.0001672326 0.0032253754 -0.011585965 0.021246264 0.00013066977 0.17474134
-0.020456538 -0.0011692095 0.014854028 0.017063307 0.005386876 -0.0009980648 0.005722045 0.2824018
-0.04807485 0.06868708 8.478492e-05 0.009854587 -0.0072968574 0.13832784 0.09832235 0.13418777
-0.033224646 -0.0027767534 0.20985554 -0.003277113

linear2.weight f4 [1, 108]
00000000: c947 bb3e abdc 82ba 463f 17bc fa0b 973d
00000010: 448b 263b 2db7 703c 753d 8b3b 9248 08ba
00000020: 27cf 3a3e 52fc bf3e 62b7 8c3b 1683 833f
00000030: 1bfd b43c 438e 213c d85d 443f c0f8 fe3d
00000040: 3321 83bb 60a7 053f ef8d 103f 87d1 143c
00000050: 9d78 5c3e f9f2 cbba 5122 833e 3c34 c73f
00000060: 4876 483e f70b 553e 4db0 173c 62cd 6e3c
00000070: 7c8c a23f ffdf 27bb 1110 0140 a24b e9ba
00000080: 6841 493e 087c 0d40 12e7 293b 72d8 cdbb
00000090: 6bec 2240 cb63 983b 5b63 e83e 3ddd 983c
000000a0: fbba bd3e 1d05 a13c 4353 80bb 2df6 8a3c
000000b0: c38f eb3d ea90 ae3b bad4 ee3e eb32 b03f
000000c0: 9890 863e 8c7d 153f b05c 843d dc1b 6a3f
000000d0: 67af a7bb c6c7 ca3f faba d53b 6edd 7e3d
000000e0: 0243 383e b63b 2f3f e15c eebb e917 5c3c
000000f0: d667 023d ff95 873c fd23 9f3e 1363 4e3c
00000100: ad88 a33b ec59 a13e 56c3 3a3e e857 853f
00000110: 0868 d33c bf72 833d 6cbf cc3b 5a6f 113f
00000120: f3d5 2f3f 72c5 223f bcf0 96ba cecf 013d
00000130: 1031 143d 2a59 413d 6696 263e 66c1 47bb
00000140: 3681 7f3d 098d 3dbc 549a d7bb 5b61 2e3d
00000150: 5c6f 98bc 9789 1ebc fd03 57bb e01a 333f
00000160: ea28 433c 0305 95bc a262 253d e9fc 863d
00000170: 0917 563c 5612 b83b 959b 253d 5ffc 673f
00000180: 554a f43d 76c1 373e 3d78 8f3a 6f52 4f3c
00000190: 5b80 dcbb 96ea 063f e6e6 ea3e cb29 333f
000001a0: 9699 603e 394b 0d3c 79fc 363f b62e 51bc
0.36578205 -0.0009983977 -0.009231394 0.07375331 0.0025412599 0.01469211 0.0042492696 -0.0005198802
0.18243085 0.37497193 0.004294322 1.0274379 0.022093346 0.009860578 0.76705694 0.12449789
-0.0040017604 0.5220852 0.56466573 0.009083158 0.21530385 -0.0015560082 0.2561212 1.5562816
0.1957637 0.20805345 0.009258342 0.014575334 1.2699122 -0.002561569 2.0166056 -0.001779903
0.19653857 2.2106953 0.0025925082 -0.006281906 2.5456798 0.004650568 0.45388302 0.018660182
0.37056717 0.019655759 -0.0039161756 0.016963089 0.1150203 0.0053273337 0.46646672 1.3765539
0.2628219 0.58394694 0.06462991 0.9144876 -0.005117345 1.5842216 0.0065225335 0.06222289
0.17994311 0.68450487 -0.0072742556 0.013433435 0.031837307 0.016551016 0.31082144 0.012596863
0.0049906583 0.31513917 0.18238577 1.0417452 0.025806442 0.064183705 0.006248405 0.56810534
0.68685836 0.6358253 -0.0011515836 0.03169232 0.036179602 0.047204174 0.1626831 -0.0030480265
0.062379085 -0.01156927 -0.0065796766 0.042573314 -0.018607788 -0.009676359 -0.0032808774 0.69962883
0.01191161 -0.018190866 0.040377267 0.065912075 0.013067015 0.00561742 0.040431578 0.9061946
0.1192824 0.17944893 0.0010945868 0.012653931 -0.0067291684 0.527017 0.45879287 0.69985646
0.21933588 0.0086238915 0.7147899 -0.012767484
