model_m5ALL_new_8000_131.pth (torch, 96069 bytes, 3 tensors)

linear1.weight f4 [108, 216]
00000000: 5ed4 90bc d601 00bd 0a77 ce3a d108 49bb
00000010: 1bd5 4e3b 1bab 67bc 3010 aabc efd5 cfbc
00000020: 0e67 1b3d 620c dc3c 6317 24bc ed2d b63c
00000030: d481 9b3c 5784 c53c 58c1 5b3b 9793 d93c
00000040: 377a ac3c d64f 15bc 0e0e 273c ad18 ca3c
00000050: 4854 833c 90bc 043c 75e2 613c af8d df3c
00000060: 2fc8 363d 7cc5 9d3c 35f1 093d 1541 0e3b
00000070: eda9 6f3c a2b9 723c 4ea4 593c f6cc 0a3b
00000080: 1fd2 853d 4f89 283d 1173 ea3c 7efa f13b
00000090: e913 5f3c 6f32 ba3c 5542 e93c a162 cb3a
000000a0: 5951 1a3d d1c9 00bc 4146 763c 4d64 663b
000000b0: 97a5 393c d318 3a3c ad0c b63b dbe9 0f3c
000000c0: 551f 393b 7777 353c 4816 0ebc ec23 413c
000000d0: d9a0 ddbb c84a 4a3c f888 ca3c 6b84 203c
000000e0: d67d 903c 46a4 513b 618f a63c 702c e73c
000000f0: 5882 c93c e830 b33c df37 8f3c 0249 b33b
00000100: f5ff 483c 057f dc3a 378c 683c cdbc 683c
00000110: 257c bb3c 0e91 693c 4216 cd3b 83e4 e03b
00000120: 14d3 a5bc 1591 393d 7d2b 133d a915 fd3c
00000130: 5c77 f93a 1c56 893c 0c30 823c 7df6 bd3c
00000140: 9e86 d8bb ce31 a73c d8c1 b63c 9bcf c03c
00000150: 4599 423c 4d46 593c b591 413c 998d f33c
00000160: 86b2 c83b 8b1f 763c 0da4 d33c a0db 8a3c
00000170: fb7b 373c f962 fb3b 589d a43a d096 963c
00000180: c39b 483c e44c 3c3d 4d1a 503d c69e 823c
00000190: f1a5 043d d41b 423c dfac a03c 92c5 8d3c
000001a0: 6808 9b3c 12fe 493d a6a2 483d 0728 ec3c
000001b0: 6324 8f3b 1dec c83c 82d2 25bb 4783 d03c
000001c0: bcd7 5f3c 0f07 513d a860 923c 2a70 863c
000001d0: df7f 003d 12f3 0cbc 4474 153c b522 6c3c
000001e0: fe3c 303c 557c cc3c a0da 473c 0744 443c
000001f0: 1454 9b3c 0770 6f3c 2eb5 083d 5389 c43c
00000200: cf1b 013d abd3 403c e703 b93c 72d6 b93b
00000210: 7038 103d 1b17 203c 581b 2b3c cf41 1f3a
00000220: 18f0 663c 03a7 9e3c 78d1 173d 94c8 c33c
00000230: 4d75 423c 5470 5a3c ccf6 fe3c 144b 903c
00000240: a98c 763c bec3 933c 5ece 4c3c 255f 213c
00000250: 82a0 3239 3e71 3e3c 39c4 613b 96a2 3c3c
00000260: c8ed ad3b 8e15 e33c 9139 343c 0927 493a
00000270: b45f 873c 62b6 4f3c 2c29 853c ff37 253c
00000280: d283 2ebc 7faf 26bc c711 eebb 72ec 96ba
00000290: 3bae 6b3c bf77 bb3b 3250 27bc 5cc7 083d
000002a0: c2be 953c 8ea7 de3b 0f8f b33c c685 e33c
000002b0: 75cd 84bb 66dc ddbb 2e06 2638 a572 843c
000002c0: 6e28 143d 5368 103d 3e82 1a3c 4561 b03b
000002d0: 9e5e 603c 1941 a23b 1bf5 db3c f5f0 0c3c
000002e0: 2f6b 963b 1323 ec3c aa02 ebbb 261a ac3c
000002f0: 3d4b 61bb 93e3 333c 5fb7 8dbb b894 7b3c
00000300: a38d 8c3b 26fa 0fbc 6eee 57ba 2f4e f13b
00000310: 17d8 9c3c 035f 653c c1db 66bb 0648 883c
00000320: a368 113c 9753 223c 7927 6c3c 7163 9b3c
00000330: 7e4c 89b9 be68 963c 8fb0 e03c 39a1 613c
00000340: b433 8b3a 1817 3dbb b5a1 9c39 e9a5 253c
00000350: 5d29 833c 9bea 6f3c cadd 423c 0cd8 d33b
00000360: a3ac 42ba cbe4 91bc 6053 553c ad33 31bb
00000370: 0c6f 403c 9bfe 68bc d335 5cbb 0315 debb
00000380: b345 fc3c 874a 603c 7464 753b 0655 3e3c
00000390: 3ec9 1dbc 0bcb 9a3c 2565 ba3c 1bb0 dc3b
000003a0: b8b7 ce3c 4fab be3b e866 ac3c 2254 943b
000003b0: dd02 ae3c 7d76 6f3b fc3a 813c 6c8b 7e3c
000003c0: b535 e13c 5bf5 d83c f664 0b3d 39af d13a
000003d0: 44ff 3b3c 4fc1 7fba da99 44bb 95df de3c
000003e0: 8490 173d 2742 873b 9502 883c 5efb 363c
000003f0: c171 9d3c 82d7 af3c d204 df3c 7cb5 9abb
-0.01767939 -0.03125175 0.0015752029 -0.003067542 0.0031560126 -0.014139916 -0.020759672 -0.025370566
0.037940077 0.026861373 -0.010015341 0.022238696 0.018982805 0.024110956 0.003353199 0.026559634
0.02105437 -0.009113273 0.010196222 0.02466997 0.0160314 0.008101597 0.013786902 0.02728924
0.044624504 0.019259207 0.0336773 0.0021706272 0.014627916 0.014814766 0.013283802 0.0021179295
0.06534218 0.041146573 0.028619321 0.0073845973 0.013615587 0.022729127 0.028474012 0.0015517065
0.037675235 -0.007860617 0.015031398 0.0035154999 0.011330984 0.011358458 0.0055557103 0.008783783
0.0028247435 0.011075846 -0.008672304 0.01178835 -0.0067635593 0.012346931 0.024723515 0.009797196
0.017638128 0.0031988784 0.02033204 0.028219432 0.024598286 0.021873906 0.017482696 0.0054713497
0.012268056 0.0016822523 0.014193586 0.01420517 0.022886345 0.014255775 0.006258757 0.006863178
-0.020242251 0.045304377 0.035930146 0.030894117 0.0019032764 0.016764693 0.015892051 0.023188824
-0.0066078445 0.02040949 0.022309229 0.023536494 0.011877363 0.01326139 0.011814524 0.029730605
0.0061247973 0.015022169 0.025835061 0.016950428 0.011198993 0.0076717106 0.0012559099 0.01838246
0.012244168 0.045971766 0.050806332 0.01594485 0.032384817 0.011847455 0.019613681 0.017306123
0.018924907 0.049314566 0.04898324 0.02882768 0.0043683513 0.02452665 -0.0025302474 0.025453223
0.013662275 0.051032122 0.017868355 0.016410906 0.031371947 -0.008602874 0.009121958 0.014412572
0.010756729 0.02496163 0.01219812 0.01197911 0.01896099 0.014614112 0.03337591 0.023991263
0.03152066 0.011769216 0.022584869 0.005671316 0.035210073 0.009771134 0.010443531 0.0006075175
0.014095329 0.019366747 0.037065 0.023899354 0.011868787 0.013332445 0.031123541 0.017613925
0.015048184 0.018037673 0.012500374 0.009849344 0.00017035197 0.011623679 0.0034449233 0.011513373
0.0053078867 0.027720239 0.011000053 0.0007673358 0.016525127 0.012677761 0.016254984 0.010084151
-0.010651546 -0.0101736775 -0.007265303 -0.0011514558 0.0143848015 0.005721062 -0.010211991 0.03339325
0.018279437 0.0067948764 0.021918802 0.02777375 -0.0040528127 -0.0067706583 3.958324e-05 0.016167948
0.03617137 0.03525574 0.009430466 0.005382689 0.0136944335 0.004951608 0.026850274 0.0086023705
0.004590414 0.028825318 -0.0071719484 0.021008562 -0.003437712 0.010979551 -0.004324838 0.0153552815
0.0042893454 -0.008787667 -0.0008237128 0.0073640565 0.019146008 0.013999703 -0.0035226198 0.016635906
0.008875045 0.009907625 0.014413708 0.018968316 -0.00026187667 0.018360492 0.02742794 0.013771349
0.0010620267 -0.0028852876 0.0002987512 0.010110357 0.016010934 0.014643337 0.011893699 0.006464964
-0.00074262376 -0.017809292 0.013020366 -0.0027038858 0.011745226 -0.014220859 -0.0033601418 -0.006777407
0.030794954 0.013689644 0.0037443908 0.011616951 -0.009630499 0.018895647 0.022753308 0.0067348606
0.025234088 0.0058187614 0.021045163 0.004526631 0.0212416 0.003653913 0.015775196 0.01553617
0.02749143 0.026484182 0.03403183 0.0015997655 0.011474434 -0.0009756283 -0.002999893 0.027206222
0.037003055 0.004127759 0.016602794 0.011168329 0.019219281 0.021465067 0.027223978 -0.0047213417

linear1.bias f4 [108]
00000000: 0e2c ab3d 779c 403d 817b 1f3b 06d7 f03b
00000010: 2252 2ebb 5241 0a3c c969 7a3b a41e 373e
00000020: fff1 26bc 6254 d23e c0cf 8a3c a7d8 0f3f
00000030: 3575 5ebc aad2 493e d17e 383d b351 8e3d
00000040: ea35 163d b457 a33c 6fb6 793e 5cb7 b13d
00000050: c5e3 163b b0d9 823d a2e1 3b3e b8c1 453c
00000060: 81b2 cc3d a674 ea3c 0367 563e 143e 89bc
00000070: 1097 de3d d042 8a3e 6786 96bb e058 4a3d
00000080: 7b90 933d cc99 d03e df10 aa3e c87f ef3d
00000090: 6357 193e 4024 abbb e85d 043a 0c19 9e3b
000000a0: 1e72 a03e 36ae f63e 763a 323d d933 473e
000000b0: ae6f 8c3e 834a ed3e f8eb 023d b99c b7bb
000000c0: 7186 b43d 3203 a53d 52d9 f23e 2b87 b73c
000000d0: c4d7 343c cb93 913e ae97 39bc 2225 a33c
000000e0: 356d 2d3e aa4c cebb d0a8 073d ca14 633d
000000f0: cf8f a5bb cfac 813e 9a61 b3bb 180f be3d
00000100: 6134 a83e 456b 093c 45a5 37bc 9110 b13d
00000110: 49f8 b93d e411 b03c 0060 8cbb c5a1 c53e
00000120: 2f5e 5b3e 70cc 093f dde9 35bc aa1c 1b3f
00000130: c12a 243c a1a5 943e f1cf 193e 600a 713d
00000140: f858 663e 57af e33d 0257 1cbb 0727 88ba
00000150: d831 d2bb 05be e03e ff4c 883d 59ff 0d3d
00000160: 2e9f e0bb 0925 0a3e 1a4b 04bc c49f d63b
00000170: 83b4 983e 74a0 9db9 8a38 89bb f568 6d3c
00000180: 7cd3 e13d fa07 ab3c 10b2 dd3c 8ec1 533e
00000190: cf9d ea3d 3dd7 143d 47a1 743d 75cc 763d
000001a0: 7c14 583c 0a1a bcbb ce02 d73e cc8b ac3c
0.08358012 0.047024217 0.0024335089 0.0073498515 -0.0026599248 0.008438425 0.0038210026 0.17882782
-0.010189532 0.41080004 0.016944766 0.5618996 -0.013577749 0.19709268 0.045042817 0.06949177
0.03667251 0.019939281 0.24385999 0.08677551 0.0023023945 0.06389177 0.18347791 0.012070112
0.099949844 0.028620075 0.20937733 -0.016753234 0.10868657 0.270041 -0.0045936587 0.049401164
0.07205292 0.40742338 0.33215997 0.11694294 0.14974742 -0.005222827 0.00050493935 0.004824763
0.31337065 0.48179787 0.043512784 0.19453372 0.27428955 0.4634591 0.03196332 -0.0056033996
0.08814705 0.0805725 0.47431427 0.02240332 0.011037771 0.2843307 -0.011327667 0.019915167
0.1693619 -0.00629576 0.033119977 0.055439748 -0.0050525437 0.25327155 -0.0054742815 0.09280223
0.32852462 0.008387391 -0.011208837 0.08645738 0.0908056 0.021492906 -0.004283905 0.38599983
0.21422647 0.5382757 -0.011103121 0.6059061 0.010019959 0.29032615 0.1502073 0.058847785
0.22494876 0.11117428 -0.0023855572 -0.0010387608 -0.0064146332 0.43894973 0.06655311 0.034667347
-0.006854913 0.1349069 -0.008074546 0.0065498073 0.2982522 -0.0003006492 -0.004187648 0.014490356
0.110266656 0.020877827 0.027062446 0.20679304 0.11455881 0.03633808 0.05972412 0.06025358
0.013188478 -0.005740409 0.41994327 0.021062754

linear2.weight f4 [1, 108]
00000000: ad0b 723e f247 333e 497e c63a b66e 893c
00000010: 6244 523b f0c3 b13c 403b e93c 1e7c 1c3f
00000020: 3d0c cd3c ae93 af3f 305a a73c bfdb ef3f
00000030: 2bcb 993a 03a3 303f 99fd cb3d 5963 5d3e
00000040: 41f5 8e3d f17e a93d bc5b 4b3f 897d 9c3e
00000050: c0b8 0f3c f13e 5c3e 525d 273f 12b1 8b3d
00000060: 00f8 9a3e 7a1d b23d 5e13 253f 85eb 953c
00000070: be15 a13e ba5a 633f b85c 0fbc 0226 173e
00000080: 0886 833e edbd ab3f 98dc 893f 8fa8 e23e
00000090: a6c8 ff3e 0069 cb3c a358 503c 2b30 ca3a
000000a0: b022 8b3f d837 c63f 9dbc 373e d7b3 1e3f
000000b0: da44 5e3f c119 c43f f67c de3d dfa3 17bc
000000c0: d380 903e dfd3 8e3e 3560 c43f d91a bb3d
000000d0: 0a3b ff3c bede 713f 48c5 59bc 9275 253d
000000e0: 5fd9 0c3f 8831 78bb d77c a33d 4bec 123e
000000f0: 9be2 5eba 1fd0 543f f6c7 893c 10cb 943e
00000100: 53ba 8b3f 2217 db3c 50c1 9abb ec6a 683e
00000110: 79f5 a23e 52cb 8a3d c0ed 293c a3aa 9d3f
00000120: d3b3 313f e8f7 e03f 3afb 2f3c 7fe7 fd3f
00000130: 56f7 1d3d e5c8 6b3f 2062 f23e 82e2 513e
00000140: 0e5f 363f 1cb7 b63e 4f46 2f3c 4b4f 153a
00000150: aed0 71bb 267d bb3f 5583 363e 9c26 f33d
00000160: 50d6 833c 93fd c53e db49 84bb 8bb6 4a3c
00000170: c4d1 803f 209c 373d 247b 01bb db72 833d
00000180: 8a02 c83e 0b6c e93d ffb2 bc3d 6161 2f3f
00000190: 2144 c93e d0c8 8d3d 3fe5 2c3e 153a 393e
000001a0: c06d 903d 9de1 5b3c aa24 b93f 9ed5 3f3c
0.23637266 0.17507914 0.0015143837 0.016776424 0.0032084216 0.021699876 0.028470635 0.6112689
0.02503025 1.3716943 0.020428747 1.8738936 0.0011733522 0.68998736 0.09960479 0.2161993
0.06980372 0.08276165 0.7943685 0.30564526 0.008772075 0.21508385 0.6537677 0.06820883
0.30267334 0.086970285 0.64482677 0.018300781 0.314619 0.8881031 -0.008750133 0.14760593
0.25688195 1.3417336 1.0770445 0.44269225 0.4995777 0.024830341 0.012716445 0.0015425732
1.0869961 1.5485792 0.17943044 0.61993164 0.8682381 1.532036 0.10863678 -0.0092553785
0.28223285 0.2789602 1.534186 0.0913598 0.031156082 0.944805 -0.013291664 0.040395327
0.5501918 -0.003787132 0.07982796 0.14347951 -0.0008502395 0.8313007 0.016818982 0.29061174
1.0916237 0.026744429 -0.0047227517 0.22697037 0.31827906 0.067770615 0.010371625 1.2317699
0.69415015 1.7575655 0.010741049 1.9836272 0.038565956 0.92103416 0.47340488 0.20496562
0.7123879 0.35686576 0.010697915 0.00056957145 -0.0036898064 1.4647567 0.17823537 0.118725985
0.016093403 0.38670024 -0.0040371246 0.012372623 1.0064015 0.044826627 -0.0019757235 0.06418391
0.39064437 0.11397561 0.09213828 0.68507963 0.3930979 0.069230676 0.16884325 0.18088563
0.07052183 0.01342049 1.4464314 0.011708645
