model_m5ALL_new_34000_131.pth (torch, 96075 bytes, 3 tensors)

linear1.weight f4 [108, 216]
00000000: b4e9 0cbd 618a 42bd 5bde d4bc 71ca d1bc
00000010: af65 cfbc 90e4 72bd 44e9 89bd bbef 19bd
00000020: 9fc7 0f3d dac7 793c a095 c3bc 5bfd f8ba
00000030: 7653 8c3c 38ff 373a 0a40 3fbc b5f9 adbb
00000040: c57d b23c f009 38bc 2fb0 2a3c 4302 bd3c
00000050: e046 843c 7a91 303c ebef 593c af8e da3c
00000060: 03f3 423d 0e18 15bc 145d d73c b122 84bc
00000070: d786 0dbc 856c 473c 4ae0 31bc 3cf3 d4bb
00000080: 8377 813d 8753 213d cd56 b23c 1d54 743b
00000090: c33b 803c 8eef c23c 0df6 db3c 0055 1bbc
000000a0: 9ba2 373d b720 3cbb ed9f 633c 1f34 893b
000000b0: 72a9 473c 51bd 303c a7e9 b83a 32c8 4d3c
000000c0: ebcf 483b 8409 363c 137a 02bc 9cc9 4f3c
000000d0: 831e d2bb 4e97 4e3c 3403 cd3c 2c25 393c
000000e0: d126 b23c 43a0 873b 33f0 aa3c ecdd 073d
000000f0: 1748 cf3c 898b b43c 3531 9b3c 8b08 c23b
00000100: 88a4 7e3c 9fbc e4b9 c094 683c b441 633c
00000110: 1f32 b53c 9100 443c 1515 e03b 2855 1c3c
00000120: 8cee 05bd a75a b33c e2c5 523c d818 b03c
00000130: d7fa 08bd 300f 9939 7f23 7c3c b07e 163c
00000140: fcfc e8bc 13a9 8e3c cafb 3e3c 7f67 ac3c
00000150: 41b4 003c 2cc9 6d3b e634 343c 2db3 9e3c
00000160: 2b94 8a3b 5679 973c b83c f73c b7ec 8b3c
00000170: abcf 303c cc0c 093c 2f5f a03b a038 a33c
00000180: b720 79bc 49ec 3a3d f416 443d fb4e 85bb
00000190: a4ec d03c 3047 7f3c edff a43c 10e9 9b3c
000001a0: 3d56 0a3b b3e6 083d f61d fe3c 34d3 cd3c
000001b0: 1f02 c73b 33e0 e03c 95dd 373b f940 de3c
000001c0: 25ca 413c e040 513d 8467 be3c e3b6 8f3c
000001d0: abf2 033d b751 d8bb b8d9 683c 8089 793c
000001e0: 2bd2 2f3c ade1 ea3c 88be a53c a348 4f3c
000001f0: cff9 9d3c f97a 853c cd66 093d c411 c33c
00000200: 482c 013d 1419 623c f96b d63c b040 183c
00000210: 6758 1e3d 3bc4 243c 920f 343c 909d 853b
00000220: 03d5 433c 74a5 943c 7d98 003d a7bc b93c
00000230: 1cdd 3e3c f008 7b3c b0eb 013d e7ba 733c
00000240: 9771 693c b51d 873c 6747 733c 47b3 3d3c
00000250: bcac f9ba d1ef 363c 8045 bf3b 1a28 103c
00000260: dae6 9e3b ead1 dc3c 8718 693c c829 e63b
00000270: 82e9 a53c 4f86 813c d5e7 843c 00f6 243c
00000280: 5538 2ebc 3f62 28bc a325 cfbb 3b5a 1e3a
00000290: ace6 513c 6ce4 993b 2f16 0fbc da62 0c3d
000002a0: 6b60 a23c 8c73 c83b 4dc7 a73c 1a8d d73c
000002b0: b4c2 323a e693 b5bb f347 5a3a 7456 963c
000002c0: 287e 1f3d ee21 193d 5b08 3f3c 3bbe 093c
000002d0: f574 983c c535 433c e21f e03c 5303 0b3c
000002e0: 702c 783b 0096 f33c 58a6 08bc 6e6c ba3c
000002f0: a1b1 9aba d0f0 313c 468f 9abb f4ba 753c
00000300: 8afb d93a 8811 c5bb 7d0c 3739 7891 c03b
00000310: 6bd7 a43c c93a 823c cb80 bfbb 2943 8f3c
00000320: 350e e93b 68f1 d63b 83d6 5e3c b1b6 b63c
00000330: dfc3 6f3b ae2b 9a3c 323d de3c ea4f 4f3c
00000340: 441f a3bb f191 ecbb 6ac2 f7bb 8987 acbb
00000350: 7fc7 bebb 4994 2cbc d6a8 33bc f7fe 74bc
00000360: 86fb 82bc 0cdf fdbc bbeb 0bbc af37 bdbc
00000370: 7731 62bc c79a 5cbd 7131 2dbd 2f12 9abc
00000380: 4213 f03c 578a 063b a5b6 ccbb 48c2 dcbb
00000390: 8454 38bc 8bca 383b b64f 0e3c 15eb 97bc
000003a0: 24a5 d23c a4b3 c63b 7ab1 ae3c c3fe 573b
000003b0: b576 af3c 9f2f a63b f50b 793c 219d 753c
000003c0: 74e9 f03c 654f 8c3b 5121 e13c e85d 5abc
000003d0: 697d dfbb 5368 42bb 0353 96bc b163 973c
000003e0: 4a71 133d b328 2e3b efef 053c 7447 0d3c
000003f0: b5b6 ad3c 1b36 ab3c 1b39 cf3c 29a0 58bc
-0.034402564 -0.04749525 -0.025984934 -0.025609227 -0.025317041 -0.059300005 -0.06733945 -0.03758214
0.035102483 0.015245402 -0.023875058 -0.0018996404 0.017129641 0.00070189266 -0.011672983 -0.0053093084
0.021788487 -0.011232838 0.010417982 0.023072368 0.016147077 0.010776872 0.01330183 0.026679365
0.047595035 -0.009099973 0.0262895 -0.016129823 -0.008638105 0.012171869 -0.010856697 -0.0064987224
0.06321623 0.0393863 0.021769905 0.003728158 0.015653497 0.02379587 0.026850725 -0.009480715
0.044832807 -0.0028706023 0.01389311 0.0041871215 0.012186395 0.010787324 0.001410772 0.012559937
0.0030641507 0.011110667 -0.007963675 0.012682345 -0.0064123287 0.012609316 0.025025941 0.011300366
0.021747025 0.0041389777 0.020866489 0.033170626 0.02530293 0.022039192 0.018944362 0.0059214286
0.015542157 -0.00043628082 0.014195621 0.013870645 0.022118626 0.011963026 0.0068384507 0.009541787
-0.0326982 0.021893812 0.012864562 0.021496221 -0.033442345 0.0002919375 0.015389322 0.009185478
-0.028440945 0.017414605 0.011656711 0.021045445 0.007855476 0.0036283238 0.01099894 0.019372547
0.004229089 0.018490475 0.03018032 0.017080648 0.010791699 0.008364867 0.0048941593 0.019924462
-0.015205554 0.045635495 0.047873452 -0.004068253 0.025503464 0.015580937 0.020141566 0.019032031
0.002110853 0.033423137 0.031020146 0.025125124 0.006073251 0.027450657 0.0028055657 0.02713059
0.01182798 0.05108726 0.02324272 0.017543262 0.032213848 -0.006601538 0.014212064 0.015230536
0.01073126 0.028672064 0.020232454 0.012651595 0.019284157 0.01629399 0.033545304 0.023812182
0.03153637 0.013799924 0.026174532 0.009292766 0.038658526 0.010056551 0.01099004 0.004077621
0.011952641 0.0181453 0.031395424 0.022672964 0.011649396 0.015321955 0.03171891 0.014876104
0.014248273 0.016493658 0.014848567 0.011578388 -0.0019048671 0.011165575 0.0058371425 0.008798623
0.004849297 0.026955564 0.014227039 0.0070240237 0.020252947 0.015811114 0.016223827 0.010068417
-0.010633548 -0.01027733 -0.0063216253 0.0006040667 0.012811344 0.0046964195 -0.008733316 0.03427396
0.019821366 0.00611729 0.020480776 0.0263124 0.0006819174 -0.0055413125 0.00083267613 0.018351771
0.03893867 0.037385873 0.011659707 0.008407171 0.018610457 0.011914675 0.027358953 0.008484679
0.0037868284 0.029734612 -0.008340441 0.022756781 -0.0011802205 0.010860637 -0.0047167866 0.014998186
0.0016630751 -0.006014053 0.00017456892 0.005876716 0.02012225 0.015897172 -0.0058442107 0.01748808
0.0071122893 0.0065595396 0.013600948 0.02230391 0.0036585254 0.018819656 0.02712879 0.01265333
-0.0049780924 -0.007219546 -0.0075610178 -0.0052651805 -0.0058221216 -0.010533401 -0.010965547 -0.0149533665
-0.015989076 -0.030990146 -0.008540089 -0.023097841 -0.013805739 -0.053858545 -0.04228348 -0.018807499
0.029306058 0.0020529234 -0.006247359 -0.0067370273 -0.011250619 0.0028196897 0.008685997 -0.018544713
0.02571351 0.0060638953 0.021324862 0.0032958246 0.021418909 0.005071595 0.015200605 0.014991076
0.029408194 0.0042819255 0.027481707 -0.013328053 -0.00682037 -0.0029664233 -0.01835013 0.018480154
0.035996713 0.0026574552 0.00817488 0.008622993 0.021205286 0.020899823 0.025295785 -0.013221779

linear1.bias f4 [108]
00000000: 23ba 863d 2405 033d 8d0c 1c3b eb71 ad3b
00000010: e441 4bbb 6efc 043c 965a 483b a06a f53d
00000020: 7d09 3fbc 1111 783e f508 7a3c 451e a13e
00000030: 2009 5ebc 16d2 0c3e df9c 133d fc7b 443d
00000040: 0eee 003d 46ca 2e3c 95f8 1a3e 981d 793d
00000050: 5dc0 e93a 93e4 3a3d 51b5 013e d57d c63b
00000060: 0711 843d 2ea9 9d3c 00a9 093e 9568 8dbc
00000070: c3e0 9f3d db84 2a3e 1d66 1abb d8e3 013d
00000080: 7b6a 353d c391 853e ee42 533e d097 a33d
00000090: abf3 db3d 6a5c a8bb 50f1 0ab9 4304 9f3b
000000a0: 392a 273e 952b 963e 4f75 d63c 3130 fc3d
000000b0: 0a2f 2f3e ca3f 8e3e 9edc c33c 5a03 afbb
000000c0: 31d3 643d eb7c 3d3d af73 923e 725a 823c
000000d0: f769 193c ca9e 313e 4e8c 37bc b4d5 843c
000000e0: d3e3 d53d 1018 c2bb 8975 da3c f01e 1f3d
000000f0: f9e7 a4bb 19e6 1a3e 176d e2bb 6b4e 8a3d
00000100: b2e4 4d3e 33c4 b93b 7e2c 37bc a0d2 6f3d
00000110: 4726 5e3d d4cd 6a3c a767 96bb 0eb2 733e
00000120: 248b 083e 5093 a23e 682f 30bc e0be bf3e
00000130: 658d d83b 742f 383e d6e3 bb3d b550 263d
00000140: 3c92 133e 1f0a 8e3d 99b3 24bb 5a0a 8bba
00000150: ebf7 cbbb 12af 893e 10f7 3b3d 3a74 cd3c
00000160: 85a1 efbb 0b3e ca3d 3e48 01bc f205 cf3b
00000170: 282c 453e 1176 82bb 7ea2 82bb c995 533c
00000180: 5306 9c3d dd1b 3a3c e8cd 983c 4cd1 013e
00000190: f346 a03d 6f68 033d 3b85 313d 4198 2d3d
000001a0: b460 983b eb85 d6bb fb21 773e 988b a33c
0.065784715 0.031987324 0.0023811192 0.005293121 -0.0031014616 0.008116825 0.0030571572 0.11983228
-0.011659977 0.2422526 0.015260925 0.31468406 -0.01355198 0.13752016 0.036038276 0.047969803
0.031477027 0.010668343 0.15133889 0.06081924 0.0017833818 0.04562814 0.12666823 0.006057481
0.0644856 0.01924571 0.13443375 -0.017261783 0.07806542 0.16652243 -0.00235594 0.03171143
0.044291 0.2608777 0.20631 0.0798794 0.10739835 -0.0051379697 -0.00013250601 0.004852803
0.163247 0.29330125 0.026178984 0.12313879 0.17107788 0.27783042 0.02390891 -0.0053409757
0.05586547 0.04626171 0.28603885 0.015912268 0.009363643 0.1734573 -0.011202885 0.016215183
0.10443845 -0.0059232786 0.026667373 0.038847864 -0.005032536 0.15126838 -0.006909977 0.06753238
0.20106772 0.0056691407 -0.011180041 0.058550477 0.054235723 0.0143313 -0.004589993 0.23798391
0.13334328 0.31753016 -0.01075349 0.37450314 0.0066086524 0.17986852 0.09174316 0.040604312
0.14411253 0.06935524 -0.0025131463 -0.0010607943 -0.0062246225 0.2689138 0.045889914 0.025079835
-0.007312956 0.09875115 -0.007890759 0.0063178474 0.19255126 -0.00398136 -0.0039866557 0.0129141295
0.07618394 0.011359182 0.018652871 0.12677497 0.078260325 0.032082018 0.04333995 0.04238153
0.0046502 -0.006546726 0.24134056 0.019964024

linear2.weight f4 [1, 108]
00000000: 9566 6b3e 874e 283e b207 46ba 3b85 5e3c
00000010: 857a f939 4d55 a43c 96f8 003d 2265 143f
00000020: 1e79 aa3c 5072 8a3f 0aee a63c df7c bc3f
00000030: ee2c aaba c0fd 2d3f 4687 c63d c91b 363e
00000040: 688f 803d 4957 903d e908 213f 2d03 9b3e
00000050: f091 d83b 5906 4f3e d199 243f 3541 873d
00000060: 1f9c 773e 045b 8b3d eb82 023f fc30 8d3c
00000070: a0ff 973e d90c 343f f26a 87bc bf26 f93d
00000080: 76e5 513e 35ab 8d3f 7f24 5a3f 9bb8 de3e
00000090: eac5 fa3e 6a1d 9b3c da43 443c 48dc 19bb
000000a0: 47a1 5e3f 8eae 9a3f 4015 2f3e c673 0c3f
000000b0: 9f90 2e3f d398 a73f 959e da3d 76ea 35bc
000000c0: d1c3 703e c000 613e d4df 9b3f 5f08 b33d
000000d0: 0a22 a43c e3e6 403f 3168 5fbc 671f c63c
000000e0: ddef dc3e e4ce 12bc 1ccf 743d e543 f83d
000000f0: d209 d8ba 9788 263f e9eb 423c 0900 913e
00000100: 02d8 5d3f 58eb a03c ed8c a0bb d00d 373e
00000110: 66fc 903e 33ae 503d bb43 0f3c 59cc 893f
00000120: db68 0c3f 664b b43f 942d 5a3c 1f56 c83f
00000130: 24c4 cb3c 1732 3a3f cca4 d13e e016 4e3e
00000140: d575 213f 55cf 8e3e 6a70 233c 5d36 d5ba
00000150: 6565 04bc fc2c 973f 6520 0d3e 3e3f e63d
00000160: 7de7 973c 2ae9 c13e 9077 b4bb e610 5f3c
00000170: f4e4 663f d931 073d 3383 f4bb 1d94 7c3d
00000180: 691b c53e d12c e13d 9455 9e3d ad0c 1b3f
00000190: fe9a c43e a94c 893d a760 1e3e f013 273e
000001a0: 0239 713d 40ec 513c 7093 913f 941f 183c
0.2298835 0.16436206 -0.0007554247 0.013581569 0.00047584265 0.020060206 0.03148707 0.57966816
0.020809706 1.0816135 0.020377178 1.4725608 -0.0012983361 0.67965317 0.0969377 0.17784037
0.062773526 0.07047898 0.6290422 0.3027586 0.006609194 0.20217265 0.64297205 0.06604234
0.24180649 0.06804469 0.50981015 0.017235272 0.29687214 0.70332104 -0.016530488 0.12165593
0.20497689 1.1067873 0.8521194 0.43500218 0.4897912 0.018934924 0.011979068 -0.0023477245
0.8696484 1.208452 0.1709795 0.54864156 0.68189424 1.3093513 0.10674778 -0.011103263
0.23512198 0.21972942 1.2177682 0.08741831 0.020035762 0.75352305 -0.013635681 0.024184896
0.4315175 -0.008960459 0.059767827 0.12122325 -0.0016482419 0.6505217 0.011897066 0.2832034
0.86657727 0.01964347 -0.004899612 0.17876363 0.28317565 0.05094738 0.008744176 1.0765487
0.54847497 1.408551 0.013316531 1.5651282 0.0248738 0.7273268 0.40946043 0.20125914
0.6307042 0.27892557 0.009975532 -0.0016266812 -0.008080815 1.1810603 0.13781889 0.11242531
0.018543 0.37873203 -0.005507417 0.013614869 0.90193105 0.033006523 -0.007461929 0.06166469
0.38497475 0.10994876 0.077311665 0.60566217 0.383995 0.06704075 0.15466557 0.163162
0.058892258 0.012812674 1.1373119 0.009284873
