model_m5ALL_new_98000_797.pth (torch, 96075 bytes, 3 tensors)

linear1.weight f4 [108, 216]
0	0xbd67f1c0	-0.056627035
1	0xbd74d160	-0.059769988
2	0xbcda0f0e	-0.026618507
3	0xbc92c846	-0.017917763
4	0xbc830b8d	-0.015996719
5	0xbd8a5b76	-0.06755726
6	0xbd8c2df1	-0.068447
7	0xbd9d98c0	-0.076951504
8	0x3d0d61cc	0.034517094
9	0xbd0386d8	-0.03211102
10	0xbd280945	-0.041024465
11	0xbcb92778	-0.022601828
12	0x3cdaa9d2	0.026692305
13	0x3c958be6	0.018255185
14	0x3a8cbedf	0.0010738036
15	0x3c5707bf	0.013124405
16	0x3d110bc7	0.035411622
17	0x3c831cd5	0.01600496
18	0x3d089c9b	0.033352476
19	0x3cd451e6	0.025917958
20	0x3c97923e	0.01850235
21	0x3c06753c	0.008206662
22	0x3cea08ba	0.028568614
23	0x3cf7f018	0.030265853
24	0x3dc22fe5	0.094817914
25	0xbca37e07	-0.019957555
26	0x3bfc760a	0.007704501
27	0xbc650439	-0.013978058
28	0xbd19f3fc	-0.037586197
29	0x3c0e79e0	0.008696049
30	0xbd07920b	-0.03309826
31	0x3ce1358e	0.027491357
32	0x3de3d390	0.11124337
33	0x3d224ad6	0.03962215
34	0xbd141c20	-0.036159635
35	0x3d561fdd	0.05227648
36	0x3d0d7a9f	0.03454077
37	0x3d25107d	0.040298928
38	0x3da07694	0.07835117
39	0xbca772e0	-0.020440519
40	0x3d946214	0.072452694
41	0x3c97db31	0.018537136
42	0x3cffa1e5	0.031205127
43	0x3ce7bc75	0.028288106
44	0x3cfcbb27	0.03085096
45	0x3cac6e87	0.021048797
46	0x3c9225cc	0.017840289
47	0x3d25e8c9	0.040505204
48	0x3be2868d	0.0069130124
49	0x3c871119	0.016487645
50	0x3b9c9aee	0.0047792112
51	0x3cc9398c	0.024563573
52	0x3cfdfab4	0.031003334
53	0x3c28a614	0.010293502
54	0x3c9af29f	0.018914519
55	0x3d0207d2	0.03174574
56	0x3d11cfda	0.035598613
57	0x3c10cb93	0.008837598
58	0x3c292f5a	0.010326231
59	0x3c82114b	0.015877387
60	0x3c6ebd23	0.014571461
61	0x3d0736e2	0.033011325
62	0x3ae019ca	0.001709753
63	0x3ce1d70a	0.027568359
64	0x3d8db07a	0.06918426
65	0xbb9cc964	-0.00478475
66	0x3bbb9465	0.005724477
67	0x3cd5f62a	0.026118357
68	0x3d0f9252	0.03505165
69	0x3ce236c8	0.027614012
70	0x3b1f74aa	0.0024331012
71	0x3ccfe6dc	0.025378637
72	0xbce5ab87	-0.028035892
73	0x3cd632ad	0.026147211
74	0xbcb76749	-0.022388117
75	0x3d1185b0	0.035527885
76	0xbd6d6021	-0.057953004
77	0xbb7f0cd6	-0.0038917563
78	0x3c9ff06d	0.019523824
79	0xbd0187f8	-0.03162381
80	0xbd358672	-0.04431767
81	0x3cadf317	0.021234078
82	0x3d0e3df4	0.03472705
83	0x3cd5d522	0.026102606
84	0x3b955a70	0.0045579
85	0x3cf71932	0.030163381
86	0x3ccb1c96	0.024793904
87	0x3cc05773	0.023479199
88	0xba1eec06	-0.0006062392
89	0x3cf889e2	0.030339185
90	0x3cd81acb	0.026379963
91	0x3d1c36dc	0.038138255
92	0x3cf3023e	0.029664155
93	0x3d0bed1f	0.034161683
94	0x3d0bc244	0.034120813
95	0x3cadeb22	0.021230284
96	0xbd46a5ed	-0.048498083
97	0x3d7a7702	0.06114865
98	0x3d5596b2	0.052145667
99	0xbd0d7afd	-0.03454112
100	0x3d3cb2a1	0.04606879
101	0x3d17221b	0.03689776
102	0x3cfd925c	0.030953579
103	0x3d58ca63	0.052927386
104	0x3a9ed9ea	0.0012119387
105	0x3d3a212e	0.0454418
106	0x3d2ab65e	0.041677825
107	0x3d1fa0e5	0.0389718
108	0x3c92508f	0.017860679
109	0x3c3fba3d	0.0117021175
110	0x3d3b5b48	0.04574135
111	0x3d6bac3c	0.057537302
112	0xbbb93ffb	-0.005653379
113	0x3d962ee1	0.0733316
114	0x3d3f30e3	0.04667748
115	0x3cbc9115	0.0230184
116	0x3d3f6ce1	0.046734694
117	0x3c422e1f	0.011851816
118	0x3d0aed5a	0.033917762
119	0x3d459e1f	0.0482465
120	0x3bbcc90a	0.0057612704
121	0x3d3360e8	0.04379359
122	0x3d0d305e	0.034469955
123	0x3cc9c498	0.024629876
124	0x3cfc8cb9	0.03082882
125	0xba85f662	-0.0010220523
126	0x3c7dcada	0.015490258
127	0x3cde9c6d	0.027174199
128	0x3c8a0990	0.016850263
129	0x3cd6cf37	0.026221855
130	0x3d39502e	0.04524248
131	0x3cd70086	0.026245367
132	0x3ce16e60	0.027518451
133	0x3aeffced	0.0018309631
134	0x3c6ddd77	0.014518133
135	0x3d3a2120	0.045441747
136	0xbb531990	-0.0032211281
137	0x3d2cee30	0.04221934
138	0x3d0ab47c	0.03386353
139	0x3c4a5690	0.01234974
140	0x3cb4a575	0.022051552
141	0x3d0a6865	0.033790965
142	0x3d0c037e	0.034183018
143	0x3c884d18	0.016638324
144	0x3cdc2279	0.026871907
145	0x3c4719cd	0.0121521475
146	0x3c97bd37	0.018522842
147	0x3cb1f1cc	0.021721743
148	0x3ce23caa	0.027616818
149	0x3d38a227	0.045076516
150	0x3a795d46	0.0009512495
151	0x3cb8c77b	0.022556057
152	0x3ccbf19a	0.024895478
153	0x3c431122	0.01190594
154	0x3cb30a38	0.021855459
155	0x3d0e0879	0.03467605
156	0x3c890318	0.016725108
157	0x3cef7188	0.02922894
158	0x3cb374cf	0.021906285
159	0x3cbba363	0.022905057
160	0xbbbca695	-0.005757163
161	0x3c5825a6	0.01319257
162	0x3afc86f9	0.0019266299
163	0x3d132a7d	0.03592919
164	0x3c500364	0.012696121
165	0x3b46384f	0.0030245965
166	0xbbd4a142	-0.00648895
167	0x3cedc305	0.029023657
168	0x3ce998b6	0.028515201
169	0x3d5c87a9	0.053840313
170	0x3c8db68e	0.017298963
171	0x3cb38261	0.021912755
172	0x3c938db6	0.018011909
173	0x3cdb5daa	0.026778061
174	0x3a422670	0.00074062403
175	0x3d3b21cd	0.04568653
176	0x3d38f06a	0.04515115
177	0x3d27bf27	0.04095378
178	0x3c67769b	0.014127399
179	0x3cb6c0d3	0.022308743
180	0x3cf609d0	0.030033976
181	0x3d39a71f	0.045325395
182	0x3d82c9d5	0.06386153
183	0x3c9e9387	0.019357456
184	0x3c844165	0.016144464
185	0x3c0c319c	0.00855675
186	0xbb85d327	-0.004084009
187	0xbaf5638d	-0.0018721685
188	0x39d33431	0.00040283942
189	0x3c48dd22	0.012259753
190	0x3ca5aeb5	0.020224908
191	0x3c0aca8a	0.008471141
192	0x3cdf6bb2	0.027273033
193	0x3c6b0fbe	0.014347015
194	0x3ce82ca2	0.028341595
195	0x3d0f2983	0.034951698
196	0x3c638d85	0.013888721
197	0x3c55bde9	0.013045766
198	0x3c1c1010	0.009525314
199	0x3cbf1edb	0.023330143
200	0x3cad3ea6	0.021148037
201	0x3cb83ed7	0.022490902
202	0x3c87ea4b	0.016591212
203	0x3cd81080	0.026375055
204	0x3cfb15f5	0.030650118
205	0x3d58f327	0.052966263
206	0x3ce36a40	0.027760625
207	0x3d3a299b	0.045449834
208	0xbcf0fb41	-0.029416682
209	0xbca1a52c	-0.01973208
210	0xbcf6c340	-0.0301224
211	0xbc80be42	-0.015715722
212	0xbcc1d870	-0.023662776
213	0xbc141a6c	-0.009039503
214	0xbc5c6db0	-0.013453886
215	0xbb654c48	-0.0034988094
216	0xbb0143a1	-0.0019724148
217	0xbcb10fe8	-0.02161403
218	0xbbfb7835	-0.007674242
219	0xba9884b5	-0.001163623
220	0x3cbbd9d0	0.02293101
221	0x3c121d3a	0.008918101
222	0x3bbd89a9	0.0057842326
223	0xbc7da5ab	-0.015481393
224	0xb9d4be83	-0.00040577733
225	0xba98e225	-0.0011664076
226	0xbb6120f9	-0.0034351929
227	0xbca65e6b	-0.020308694
228	0x3b374698	0.002796566
229	0xbb1211ee	-0.002228852
230	0xbc4f1522	-0.012639316
231	0x3ca3a5d5	0.019976536
232	0xbbbbbbbe	-0.0057291677
233	0xbbb6b3f1	-0.00557565
234	0xbbc2b1fb	-0.005941627
235	0x3bd923c8	0.00662658
236	0x3cb77636	0.022395235
237	0xbcbec6b9	-0.023288118
238	0x3b44063c	0.0029910943
239	0xbb6c1162	-0.0036021103
240	0x3c3d5d7c	0.011557933
241	0x3b3825f8	0.0028098803
242	0x3c7cc625	0.015428101
243	0xbc3e8828	-0.011629142
244	0x3b59b38c	0.003321859
245	0xbb6df917	-0.00363118
246	0x3c683c69	0.014174559
247	0x3c84507d	0.016151661
248	0x3c898817	0.016788526
249	0x3c170605	0.009217744
250	0xbadcd404	-0.0016847854
251	0xbb9b3cd4	-0.004737476
252	0x3c66bcb1	0.0140830735
253	0xba8c2df7	-0.0010694851
254	0x3b05e084	0.0020428011
255	0xbbaca597	-0.0052687633

linear1.bias f4 [108]
0	0x3d9c3fcc	0.07629356
1	0x3c245bd4	0.010031659
2	0xbc311d25	-0.010810171
3	0x3da0c41c	0.07849905
4	0xbb3d5fdb	-0.0028896246
5	0x3e034b8f	0.12821792
6	0x3b74c367	0.0037347914
7	0x3d36f579	0.044667695
8	0x3c4b7d75	0.012420048
9	0xbc840dc8	-0.016119853
10	0x3c991fe3	0.018691963
11	0x3d0541f0	0.032533586
12	0xbb903d15	-0.004401813
13	0xbc038f03	-0.008029702
14	0x3b420bad	0.002960901
15	0xbb19666e	-0.0023407
16	0x3d2ee0ad	0.042694736
17	0x3d2a7f0c	0.041625068
18	0x3bb077cc	0.0053853747
19	0x3ce77979	0.028256165
20	0xba9c595b	-0.0011928485
21	0xbb80d63e	-0.0039317897
22	0x3dc3a35b	0.09552642
23	0x3c53342a	0.012890855
24	0xbba13166	-0.004919219
25	0x3de090d5	0.109651245
26	0x3c8eaed6	0.017417353
27	0x3ce0e80f	0.027454404
28	0x3c0d3df3	0.008620727
29	0x3d0678c7	0.032830026
30	0x3c8db56a	0.017298419
31	0x3ca6f199	0.020378875
32	0x3cd1068c	0.025515817
33	0x3e0feaa0	0.14054346
34	0x3d431881	0.04763079
35	0xbc0213c8	-0.0079392865
36	0x39d9097d	0.00041396535
37	0x3dc827ee	0.09773241
38	0x3da40474	0.08008662
39	0x3ca83401	0.02053261
40	0x3c474b96	0.012164017
41	0x3c5bf38e	0.013424767
42	0x3ea75e6e	0.32689232
43	0x3c3866f9	0.011255019
44	0x3da06e21	0.078335054
45	0x3d575f17	0.05258092
46	0x3c912349	0.01771702
47	0x3c80cc05	0.015722284
48	0x3da1dd7a	0.079035714
49	0x3c8a543d	0.016885871
50	0xbc6c060d	-0.0144057395
51	0x3db93895	0.09043995
52	0x3c78056d	0.015138012
53	0x3ca8faa6	0.020627331
54	0x3d8fe332	0.07025756
55	0xbb63e6f0	-0.00347751
56	0x3dea8d3a	0.11452718
57	0x3cda7090	0.026665002
58	0x3e02615a	0.12732449
59	0x3c922e55	0.017844358
60	0x3dea4d88	0.11440569
61	0x3bd7e7ca	0.0065889107
62	0x3d1fad92	0.03898389
63	0x3de120fd	0.1099262
64	0x3dd36498	0.10321921
65	0x3d8b2718	0.06794566
66	0x3b771ba5	0.0037705686
67	0xbc91fbde	-0.017820295
68	0x3c8bddf8	0.017073616
69	0x3b8384cc	0.0040136334
70	0xbb61a479	-0.0034430309
71	0xbac5affe	-0.0015082357
72	0xbbde598e	-0.006785578
73	0x3c965ad5	0.018353859
74	0x3c15cfe2	0.009143801
75	0x3dc26a3c	0.09492919
76	0x3a17ac15	0.0005785835
77	0x3e1bfd47	0.15233336
78	0xbbfd06f5	-0.0077217766
79	0x3c3b02c7	0.011414236
80	0x3d149b69	0.036281023
81	0x3aaf6c07	0.0013383635
82	0xbc4a463e	-0.012345849
83	0xbaf6c146	-0.001882591
84	0x3a8b8f13	0.0010647498
85	0x3ddd5dee	0.10808931
86	0x3cc8dbf3	0.024518942
87	0x3c150d46	0.009097403
88	0x395ec3b7	0.0002124448
89	0x3c10d23f	0.008839189
90	0x3c9e365b	0.019313028
91	0x3dbc86ea	0.0920542
92	0x3d2dc49d	0.042423833
93	0xba2b6a49	-0.000653897
94	0x3d44d5b6	0.048055373
95	0x3c50518d	0.012714756
96	0xbb9577d3	-0.0045614033
97	0x3b4186b5	0.0029529755
98	0x3d0951fc	0.033525452
99	0x39df4f01	0.00042592737
100	0x3ccf0dc2	0.025275115
101	0x3d14c826	0.03632369
102	0xbbd1cee1	-0.0064028357
103	0x3c544d44	0.012957875
104	0x3dc4dd1e	0.09612487
105	0x3c7bdd8f	0.015372648
106	0xb9db2f30	-0.00041806092
107	0x3e61be12	0.22045162

linear2.weight f4 [1, 108]
0	0x3eb04dfe	0.34434503
1	0x3d3c7ff2	0.046020456
2	0xbb7f6018	-0.0038967188
3	0x3ee71b1d	0.45137873
4	0xbd0ef7f8	-0.03490445
5	0x3f838bc5	1.0277029
6	0x3d460b53	0.048350643
7	0x3e8188df	0.25299737
8	0x3dd1389c	0.102158755
9	0xbb8d5dbf	-0.004314154
10	0x3db5bc23	0.08873775
11	0x3dfc1af9	0.12309832
12	0x3d686581	0.056737427
13	0x3c07c493	0.008286613
14	0x3c05c6d7	0.008165083
15	0x3cbe0d16	0.0231996
16	0x3f211eff	0.6293792
17	0x3f2ed3fc	0.6829221
18	0x3d4e9ef6	0.050444566
19	0x3f5538d9	0.8328987
20	0x3b6e7c0d	0.0036389858
21	0x3b9aad0d	0.0047203363
22	0x3edc0216	0.4297034
23	0x3d5aa055	0.05337556
24	0xbca1d70f	-0.019755868
25	0x3f12cba4	0.5734198
26	0x3d1e810c	0.038697287
27	0x3e2af7a4	0.1669603
28	0x3de7d604	0.11320117
29	0x3e40b637	0.1881951
30	0x3df42e62	0.11922909
31	0xbc2f18cb	-0.010687063
32	0x3d88a7c0	0.06672621
33	0x3f397de1	0.724577
34	0x3f827a86	1.0193641
35	0x3ae90b5c	0.0017779875
36	0xbba4f5c9	-0.0050341827
37	0x3f07533a	0.5286137
38	0x3ea7c6e4	0.3276893
39	0x3f088729	0.5333124
40	0x3ec1c7bc	0.37847698
41	0x3e260914	0.162144
42	0x4003f300	2.0617065
43	0x3d9a6abb	0.075398885
44	0x3ec9f597	0.39445183
45	0x3f0a81bd	0.54104215
46	0x3e96d3c4	0.2945844
47	0x3ca509de	0.020146307
48	0x3f9858ea	1.1902134
49	0x3ec4125f	0.38295266
50	0xbc118345	-0.008881395
51	0x3ecab6cb	0.39592585
52	0x3c5315a2	0.012883576
53	0x3f226f33	0.63450927
54	0x3ef3967a	0.47575742
55	0x3e5807e8	0.21096766
56	0x3f086a1c	0.5328691
57	0x3e02c382	0.12769893
58	0x3f41384d	0.75476533
59	0x3e970c98	0.29501796
60	0x3f104d43	0.5636789
61	0x3bbdf058	0.0057964735
62	0x3e641c81	0.22276498
63	0x3f5a92de	0.8538035
64	0x3f070a43	0.52750033
65	0x3f6ab79e	0.9168643
66	0x3ec1f51d	0.3788232
67	0xb9d72ad9	-0.0004103992
68	0xba98d704	-0.0011660759
69	0x3bc5b718	0.0060337894
70	0x3d5ca49b	0.053867918
71	0xbc0c192f	-0.008550926
72	0xbc0e95fe	-0.008702753
73	0x3f152b3b	0.5826909
74	0xbcdae209	-0.02671911
75	0x3efca1dd	0.49342242
76	0x3ad49dfb	0.0016221398
77	0x3f529a9f	0.82267183
78	0xbc60d73d	-0.013723192
79	0x3d073300	0.03300762
80	0x3e52bbe0	0.20579481
81	0x3ddcb72e	0.10777126
82	0x3e13667a	0.1439456
83	0xbc8ad9d8	-0.01694958
84	0x3eaabed0	0.33348703
85	0x3f004808	0.5010991
86	0x3f18f259	0.59744793
87	0x3e2f430e	0.17115423
88	0xbb1f4db6	-0.0024307794
89	0x3e0c6741	0.13711263
90	0x3cc38c49	0.023870604
91	0x3ed3f149	0.41395023
92	0x3ea73969	0.32660988
93	0x3e4c6ac3	0.19962601
94	0x3fbd1fbb	1.4775308
95	0x3d1fd9ac	0.039025947
96	0x3c79eeca	0.015254686
97	0x3cb94001	0.022613527
98	0x3e27afc5	0.16375645
99	0x3e88b14f	0.26697776
100	0x3f4e6e39	0.80636936
101	0x3e70bf1a	0.235104
102	0xbb372915	-0.002794807
103	0x3e5d3931	0.21603848
104	0x3f705a8d	0.9388817
105	0x3df0e0bc	0.11761615
106	0x3f273158	0.6530967
107	0x3fa25233	1.2681335
