model_m5ALL_new_34000_799.pth (torch, 96075 bytes, 3 tensors)

linear1.weight f4 [108, 216]
0	0xbd33e510	-0.043919623
1	0xbc841ac0	-0.016126037
2	0xbb4e426c	-0.0031472696
3	0x3bb6992f	0.00557246
4	0xbca7d1d3	-0.020485794
5	0xbc802f04	-0.015647419
6	0xba805988	-0.0009792307
7	0x3bcf0ecd	0.006318903
8	0xbc4a9c17	-0.012366316
9	0x3ca8bc7e	0.020597693
10	0xbcb270cd	-0.021782303
11	0xbc0a683b	-0.008447702
12	0x3b9e0f39	0.004823592
13	0x3c0afc0c	0.008482944
14	0x3b535b8f	0.0032250618
15	0x3c990d41	0.018683078
16	0x3ba51065	0.005037355
17	0xbd15534d	-0.036456395
18	0xbb0d8ff7	-0.0021600702
19	0xbcf5e546	-0.030016553
20	0x3b92e439	0.0044827727
21	0xbb186fe9	-0.0023260063
22	0x3c0628b9	0.00818842
23	0xbbb6b6d2	-0.005575993
24	0x3b3c7121	0.0028753954
25	0xbc00be1c	-0.007857826
26	0x3b6b5875	0.0035910879
27	0x3c533db8	0.012893133
28	0xbc07a83f	-0.008279859
29	0x3ae3a79e	0.0017368679
30	0xbc709af7	-0.014685384
31	0xbb2209de	-0.002472512
32	0x3c0682cf	0.008209898
33	0x3bf4c978	0.007470306
34	0x3bd75acc	0.006572103
35	0xba66ecd0	-0.00088090915
36	0xbbc42320	-0.0059856325
37	0x3bd13dc0	0.006385535
38	0x3b84dc1d	0.00405456
39	0x3c26afeb	0.010173778
40	0xbc2c6722	-0.010522636
41	0x3bbda920	0.0057879835
42	0x3a8c78aa	0.0010717113
43	0xbab819be	-0.0014045758
44	0x3aee559a	0.001818347
45	0xbbf5901f	-0.007493987
46	0x3c5491f3	0.01297425
47	0xbbc7b224	-0.006094234
48	0x3c6a0301	0.014282943
49	0x3bee4db9	0.007272449
50	0x3a97de3b	0.0011586616
51	0xbc33cf64	-0.010974739
52	0xbbe4cd8e	-0.006982512
53	0x3c77562d	0.0150962295
54	0xbbd05ced	-0.006358734
55	0x3af616ec	0.0018775142
56	0xbc88bea5	-0.016692469
57	0x3b654484	0.0034983465
58	0xb969becb	-0.00022291687
59	0x3bbf54b2	0.005838954
60	0x3c653040	0.0139885545
61	0x3ba2aa96	0.004964183
62	0x3c12b2e5	0.008953785
63	0x3bb48699	0.0055092094
64	0x3b87f28c	0.004148787
65	0x3b928b68	0.004472185
66	0xbd3955e3	-0.045247924
67	0xbb837afc	-0.0040124636
68	0xbd7c8e55	-0.061659176
69	0xbd0a6176	-0.033784352
70	0xbd7d2833	-0.061805915
71	0xbd4e01ad	-0.050294567
72	0xbc6ae457	-0.014336667
73	0xbc13ca80	-0.009020448
74	0x3c44ade6	0.012004351
75	0xbba3a97c	-0.0049945693
76	0xbc11fe93	-0.008910793
77	0xbc73ca61	-0.014879794
78	0xbbde9d4c	-0.0067936536
79	0x3c3bd487	0.011464245
80	0xbc3b2029	-0.011421242
81	0x3a664d5b	0.00087853306
82	0x3bb98110	0.0056611374
83	0x3c0a823d	0.008453903
84	0xbb0ba78f	-0.002130959
85	0x3ae7e23b	0.0017691323
86	0x3c3fe30d	0.011711848
87	0xbc5f4334	-0.013626862
88	0xbac27873	-0.0014836922
89	0xbc4c0cc6	-0.012454217
90	0x3bdf47ee	0.0068139946
91	0xbc9b22eb	-0.018937549
92	0xbc687b93	-0.014189619
93	0x3c67496c	0.014116626
94	0xbc6e1d0b	-0.014533292
95	0x3ad0de4f	0.0015935394
96	0xbb012bbc	-0.0019709906
97	0x3c248804	0.010042194
98	0x3c7f9201	0.015598775
99	0xbbdcad9f	-0.0067345644
100	0x3be051bd	0.0068456815
101	0x3c76b66c	0.015058141
102	0xbb85aa39	-0.00407913
103	0x3c504123	0.012710842
104	0x3c8613d3	0.016366875
105	0x3ba0685c	0.004895253
106	0xbbc42fe2	-0.0059871534
107	0xbb1679f9	-0.0022960885
108	0xbbbd7c6f	-0.005782656
109	0x3a3d9c83	0.00072331
110	0xbb770f65	-0.0037698385
111	0xbbca75dd	-0.006178601
112	0x3b9c4109	0.004768495
113	0x3c37dfb1	0.011222766
114	0xbca8aac4	-0.02058924
115	0x3ce61034	0.028083898
116	0x3c0aba89	0.008467325
117	0x3bec0b78	0.0072035156
118	0x3ba7970a	0.005114441
119	0x3c460591	0.012086288
120	0xb6771dc4	-3.6823194e-06
121	0xbbedb121	-0.0072537814
122	0xbc6c4d42	-0.014422717
123	0x3c335017	0.010944388
124	0x39f1cf85	0.00046121716
125	0xbc2528e9	-0.0100805545
126	0xbac9ae6b	-0.0015387064
127	0xbadb501c	-0.0016732248
128	0x3a3136b1	0.0006760164
129	0x3c314828	0.010820426
130	0x3c7c49c0	0.015398443
131	0x3c3b2fa2	0.011424931
132	0x3c886c1c	0.016653113
133	0x3bd21eff	0.0064123864
134	0x3ba8357e	0.00513333
135	0xbb92d635	-0.004481102
136	0xba222ec3	-0.00061867776
137	0xbb387ac8	-0.0028149355
138	0xbb9de248	-0.0048182346
139	0xbc3f1095	-0.011661668
140	0x3c9efec7	0.019408597
141	0xbc65dca0	-0.014029652
142	0xbb983769	-0.0046452773
143	0xbc4cc2e1	-0.012497635
144	0xbaada472	-0.0013247861
145	0x3c04b5cb	0.008099983
146	0xbd2ad26e	-0.041704588
147	0xb93b15a2	-0.00017841769
148	0x3b791766	0.0038008331
149	0xbba7a744	-0.005116375
150	0x3bec510f	0.0072118114
151	0x3b42ccb4	0.0029724063
152	0xbb82aada	-0.0039876522
153	0xbb741de8	-0.003724927
154	0xbbc973c3	-0.006147833
155	0x3c384762	0.011247488
156	0x3c419b5a	0.011816824
157	0x3b9a4e2c	0.004709026
158	0x3c14ccca	0.009082029
159	0xbb9ae6a5	-0.004727202
160	0xbcae8b86	-0.021306764
161	0x3bc8df91	0.006130167
162	0xbd1cb800	-0.038261414
163	0xbcdb3660	-0.026759326
164	0xbd8dac2a	-0.06917603
165	0xbceca7d9	-0.02888863
166	0xbd597209	-0.053087268
167	0xbd4054f6	-0.046956025
168	0xbac56fdf	-0.0015063247
169	0x3c0040f9	0.007827991
170	0x3c8b7257	0.017022295
171	0x3c982346	0.018571507
172	0xb9e2bab2	-0.00043245178
173	0xbc6de423	-0.014519724
174	0x3c45d70c	0.012075197
175	0xbb84a3ae	-0.0040478325
176	0xbb480288	-0.0030519087
177	0xba47c026	-0.000761988
178	0xba0ee290	-0.00054506306
179	0x3c45381b	0.012037302
180	0x3cac8a1e	0.021061953
181	0x3c19d564	0.009389255
182	0xbc393335	-0.011303713
183	0xbb6f268e	-0.0036491486
184	0x3bc1178e	0.0058927005
185	0x3bb56dee	0.0055367863
186	0x3b8ecc85	0.0043578767
187	0x3c503966	0.012708997
188	0xbbe4a3d8	-0.0069775395
189	0x3c2835de	0.010266749
190	0xbaeefe46	-0.0018233738
191	0xbb5092e0	-0.0031825826
192	0xbcbd5bd0	-0.023115069
193	0xbd455d98	-0.04818496
194	0xbd033ce1	-0.03204048
195	0xbd0ea9cd	-0.034829903
196	0xbd48f24c	-0.049059197
197	0xbd6cd4ad	-0.05782001
198	0xbd3d8bbe	-0.046275847
199	0xbca914f7	-0.02063988
200	0x3b2178cf	0.0024638658
201	0x3c590761	0.013246388
202	0x3aaa1fbe	0.0012979431
203	0x3c36da19	0.011160397
204	0xbbf3c39f	-0.0074390913
205	0xbaac5655	-0.0013148288
206	0xbc3ab4df	-0.011395662
207	0xba69a3a2	-0.0008912628
208	0xbe9dc4ed	-0.30814305
209	0xbe81b320	-0.25331974
210	0xbe6af4fa	-0.22945014
211	0xbe6da76e	-0.232084
212	0xbe61c6ae	-0.22048447
213	0xbe4505a5	-0.19240434
214	0xbe5008a8	-0.20315802
215	0xbe5b4768	-0.21413958
216	0xbdb81202	-0.0898781
217	0xbdf445f6	-0.119274065
218	0xbd6e9e56	-0.05825647
219	0xbce6915c	-0.028145485
220	0x3c957c17	0.018247647
221	0x3a45d928	0.00075473124
222	0xbcd0ec8d	-0.025503421
223	0xbcfa1abf	-0.030530332
224	0x3d9eb573	0.077494524
225	0x3b753299	0.0037414192
226	0xbd027d44	-0.031857744
227	0xbd6afef9	-0.057372067
228	0x3cfe9d4f	0.03108087
229	0x3a8fd50c	0.0010973527
230	0x3ccbed5b	0.024893453
231	0x3c4816c3	0.012212458
232	0x3c244cc1	0.010028065
233	0x3bb1ee64	0.0054300297
234	0x3ca9a93b	0.020710578
235	0x3d0f5c28	0.034999996
236	0x3cde5435	0.027139762
237	0x3cb904cc	0.022585295
238	0x3c9b6103	0.018967157
239	0x3d887f78	0.06664938
240	0x3e351b1c	0.17686123
241	0xbd0fb509	-0.035084758
242	0x3d284264	0.04107894
243	0xbc8a181e	-0.016857203
244	0xbd520b2c	-0.051280186
245	0xbc514b73	-0.012774336
246	0xbc6c45d6	-0.014420947
247	0x3d3bc186	0.045838855
248	0x3e5a542d	0.21321173
249	0x3db0b7f2	0.08628835
250	0xbd44521d	-0.04792987
251	0x3da632ea	0.0811518
252	0x3db292e0	0.087194204
253	0x3d45c28b	0.048281234
254	0x3dd407ff	0.10353088
255	0xbc2ee927	-0.010675705

linear1.bias f4 [108]
0	0xbd32ffe7	-0.04370108
1	0x3dd35089	0.10318095
2	0x3d0549d4	0.03254111
3	0x3e39398c	0.18088359
4	0xbc226fc5	-0.009914343
5	0xbd122d76	-0.035687886
6	0xbbc0b55d	-0.005880995
7	0xbcda7ad2	-0.026669893
8	0xbd5262d5	-0.051363785
9	0x3bb9d45c	0.005671067
10	0x3db938a3	0.09044006
11	0x3ac26dee	0.0014833787
12	0xba5b5536	-0.00083668844
13	0x3dca08f4	0.09864989
14	0xbc2dcd3c	-0.010608014
15	0xbc2c6b47	-0.010523624
16	0x3dcdc9f9	0.10048289
17	0xbc25ef79	-0.0101278955
18	0xbc87512e	-0.016518202
19	0x3ec5822f	0.38575885
20	0xbda71836	-0.08158915
21	0x3c159dc4	0.009131853
22	0x3b06190e	0.002046171
23	0x3b3a82ad	0.0028459236
24	0xbd82c9a7	-0.063861184
25	0x3b1723cc	0.0023062108
26	0x3c66d30b	0.0140884025
27	0x3d7dfb44	0.062007204
28	0x3e2ead0d	0.17058201
29	0xbd8f5647	-0.06998878
30	0x3bee6f74	0.00727647
31	0xbb0378a0	-0.0020060912
32	0x3c368bf8	0.01114177
33	0xbb8fdc88	-0.004390303
34	0xbc5b7d21	-0.013396532
35	0x3daca877	0.084305696
36	0x3db20fa2	0.08694388
37	0x3d4427b9	0.047889445
38	0x3e88b3e5	0.2669975
39	0x3d62be6d	0.055357385
40	0xbca6919a	-0.0203331
41	0x3b48c539	0.0030635132
42	0x3d4536d1	0.04814798
43	0xbc48a832	-0.012247132
44	0x3e3c0a81	0.18363382
45	0x3d79ea74	0.061014608
46	0x3e1ff54d	0.15620919
47	0xbb58a3ae	-0.0033056545
48	0x3b894786	0.0041894345
49	0xbbdd19db	-0.006747467
50	0x3ce7e50a	0.028307457
51	0xbc2c51cb	-0.010517548
52	0xbca9ef03	-0.020743852
53	0x3de08fc0	0.10964918
54	0x3dafd750	0.085859895
55	0x3bd9af56	0.006643216
56	0xbd28dd53	-0.041226696
57	0x3dc49242	0.09598209
58	0x3d8e9d5a	0.06963606
59	0x3e3cb41d	0.18428083
60	0x3e7c62f0	0.24647117
61	0xbca77288	-0.020440355
62	0xbc547b17	-0.0129688
63	0xbc01b4ee	-0.007916672
64	0x3b5ba325	0.003351399
65	0x3ea7b20f	0.32753035
66	0x3d12c138	0.0358288
67	0x3b49e10c	0.0030804304
68	0x3d9b670e	0.075880155
69	0x3e9e908e	0.3096966
70	0x3d82b650	0.063824296
71	0xbc261ff6	-0.010139456
72	0x3e0719dd	0.1319346
73	0x3d400de4	0.046888247
74	0x3da94ff8	0.08267206
75	0x3a06ae74	0.000513769
76	0x3bdf604d	0.0068169
77	0x3d1af903	0.037835132
78	0x3da34687	0.079724364
79	0x3a517c3c	0.00079912296
80	0x3dfd04ad	0.123544075
81	0x3e1cdefd	0.15319438
82	0x3d28c729	0.04120556
83	0xbae2aaec	-0.001729337
84	0xbbfd849f	-0.007736757
85	0x3dc3891d	0.09547637
86	0xbcee1319	-0.02906184
87	0xbc12bf78	-0.0089567825
88	0xbc7c5122	-0.015400203
89	0x3e67c216	0.22632632
90	0xbd08c640	-0.03339219
91	0xbd44470f	-0.04791933
92	0xbb8a616c	-0.0042230394
93	0x3c9df590	0.019282132
94	0x3ca0df72	0.019637797
95	0x39ec5da9	0.0004508321
96	0x3c213cd0	0.009841159
97	0x3d8552df	0.06509947
98	0x3e3b2c7d	0.1827869
99	0xbb75155e	-0.003739677
100	0xbb784ef8	-0.0037888866
101	0xbc70d21a	-0.01469853
102	0x3b84ccc7	0.0040527317
103	0xbbdefc6a	-0.0068049924
104	0xbc6c9a43	-0.014441076
105	0xba381bc6	-0.00070231815
106	0x3e424bbf	0.18974207
107	0xbbba694b	-0.0056888214

linear2.weight f4 [1, 108]
0	0x3e43a340	0.19105244
1	0x3f091952	0.5355426
2	0x3cf958bd	0.030437822
3	0x3ece1426	0.40249747
4	0x3c861d73	0.016371464
5	0x3ec10f3a	0.3770693
6	0xbc15aa1d	-0.009134796
7	0x3c0972a6	0.008389151
8	0x3e66c8de	0.22537562
9	0xbbd78c96	-0.0065780384
10	0x3e558408	0.20851147
11	0x3d05b2c6	0.032641195
12	0x3d84297c	0.06453225
13	0x3f29dc77	0.6635203
14	0x3d120fb1	0.035659496
15	0x3de5a64d	0.1121336
16	0x3f174277	0.5908579
17	0x3d0ec624	0.03485693
18	0xbdb90e4c	-0.0903593
19	0x3fddb3e1	1.732052
20	0x3ecd4c9f	0.4009752
21	0x3c358580	0.011079192
22	0x3b4f8e3c	0.0031670472
23	0x3c80def6	0.015731316
24	0x3f7ec98c	0.99526286
25	0x3ef4f9b0	0.47846746
26	0x3ec4d710	0.3844533
27	0x3ed6b537	0.4193513
28	0x3e8e7ef9	0.27831247
29	0x3f0de7c8	0.55431795
30	0x3cc01995	0.023449698
31	0x3ce5c30b	0.028047105
32	0x3d02ef5b	0.03196655
33	0x3d6b21b1	0.057405178
34	0x3cd7f4d5	0.026361862
35	0x3ea59a36	0.32344216
36	0x3fad9273	1.3560318
37	0x3ea7d0dd	0.32776538
38	0x3fa41146	1.2817771
39	0x3eb2920a	0.34877044
40	0xbbc355cd	-0.005961156
41	0x3d00b60a	0.031423606
42	0x3d78459e	0.060613267
43	0x3becdee7	0.0072287205
44	0x3f9168b3	1.1360077
45	0x3f02764b	0.5096175
46	0x3f359ba1	0.70940596
47	0x3c340986	0.010988599
48	0x3c234550	0.009965256
49	0x3ced16b9	0.0289415
50	0x3e07e9d3	0.1327279
51	0xbcd03b56	-0.025418919
52	0x3d6dfcb2	0.058102317
53	0x3e8a2b90	0.2698636
54	0x3ed28b3a	0.41121846
55	0x3b9d7040	0.004804641
56	0x3ddb6a13	0.107135914
57	0x3f377232	0.71658623
58	0x3dac05bb	0.083995305
59	0x3f87487a	1.0568993
60	0x3fb74a8b	1.4319624
61	0xbc77cc1e	-0.015124349
62	0xb98affde	-0.00026512047
63	0xbc39ea92	-0.01134743
64	0x3e99487a	0.29938108
65	0x4001fe9d	2.0311654
66	0x3e049679	0.12948026
67	0x3d0aa578	0.03384921
68	0x3f13c879	0.5772777
69	0x3fb51887	1.414811
70	0x3d1a1fec	0.0376281
71	0x3dd5a424	0.10431698
72	0x3ec04e73	0.37559852
73	0x3e4dedc3	0.2011023
74	0x3eee50a0	0.46545887
75	0x3b8e545b	0.004343552
76	0x3da566b6	0.08076231
77	0x3d051a0d	0.032495547
78	0x3f114959	0.56752545
79	0x3d5562fb	0.05209635
80	0x3e1c0cff	0.15239333
81	0x3f4ce571	0.800376
82	0x3f059901	0.5218659
83	0x3c5c74dc	0.013455596
84	0xbc8b9eaf	-0.01704344
85	0x3da2f2ae	0.07956444
86	0x3ed91923	0.4240199
87	0xbb84153d	-0.004030852
88	0x3d132709	0.0359259
89	0x3fbde0c9	1.4834224
90	0x3d6d1733	0.057883453
91	0x3b43682d	0.0029816732
92	0xbc8798cc	-0.016552351
93	0x3b12a49f	0.0022375954
94	0x3c9b3cd0	0.018949896
95	0xbc87708b	-0.016533157
96	0xbc4d8e5d	-0.012546149
97	0x3eaff684	0.34367764
98	0x3f314907	0.69252056
99	0xbc47e2a6	-0.012200033
100	0xbc18dd5e	-0.009330122
101	0xbd49c629	-0.049261246
102	0x3d432a2f	0.04764765
103	0x3a105e4f	0.0005507217
104	0x3ba451f3	0.005014652
105	0xbc95b410	-0.018274337
106	0x3fac2271	1.3448011
107	0xbbb589b4	-0.005540097
