model_m5ALL_new_72000_131.pth (torch, 96075 bytes, 3 tensors)

linear1.weight f4 [108, 216]
0	0xbd156bb5	-0.03647967
1	0xbd4677be	-0.04845404
2	0xbcddc1aa	-0.027069885
3	0xbcdabe83	-0.026702171
4	0xbcdb0483	-0.02673555
5	0xbd79fcf6	-0.061032258
6	0xbd8ddd4d	-0.069269754
7	0xbd1b71d1	-0.03795034
8	0x3d0964b2	0.033543296
9	0x3c4ddfe1	0.012565584
10	0xbcd07c83	-0.025449997
11	0xbbb6f67a	-0.0055835815
12	0x3c82bb54	0.015958466
13	0xbb15b31e	-0.0022842358
14	0xbc67a1ee	-0.014137728
15	0xbbe659a0	-0.007029727
16	0x3cb1de37	0.021712406
17	0xbc375958	-0.011190735
18	0x3c2aa54e	0.010415388
19	0x3cbce5d3	0.023058807
20	0x3c8452e4	0.016152807
21	0x3c2ff4c1	0.010739506
22	0x3c5ba30c	0.013405573
23	0x3cda7606	0.026667606
24	0x3d40f0ec	0.04710476
25	0xbc475a3a	-0.012167508
26	0x3cce1d23	0.025160378
27	0xbc926edf	-0.017875133
28	0xbc492d11	-0.012278811
29	0x3c290ccc	0.010317992
30	0xbc6ec859	-0.014574134
31	0xbc097e82	-0.008391978
32	0x3d7c66a0	0.06162131
33	0x3d1f7278	0.038927525
34	0x3c997b6d	0.018735612
35	0x3b5bd454	0.0033543305
36	0x3c6f1e7a	0.0145946685
37	0x3caac931	0.020847889
38	0x3cd01599	0.025400924
39	0xbc46708e	-0.012111796
40	0x3d379b93	0.0448261
41	0xbb3f263a	-0.0029167072
42	0x3c635f58	0.013877712
43	0x3b895081	0.004190505
44	0x3c47cae1	0.012194366
45	0x3c305f8a	0.010764966
46	0x3ab09d8a	0.0013474685
47	0x3c4c8ecf	0.01248522
48	0x3b473865	0.0030398604
49	0x3c360984	0.011110667
50	0xbc02805a	-0.007965172
51	0x3c4fb30f	0.012676968
52	0xbbd1123d	-0.006380348
53	0x3c4e974e	0.012609316
54	0x3ccd0722	0.025027815
55	0x3c39051a	0.01129272
56	0x3cb37928	0.021908358
57	0x3b87708e	0.0041332906
58	0x3cab43c8	0.020906344
59	0x3d07dcac	0.033169433
60	0x3ccf4ec5	0.025306115
61	0x3cb48b89	0.022039192
62	0x3c9b3343	0.018945342
63	0x3bc2088b	0.0059214286
64	0x3c760a28	0.01501707
65	0xba129b59	-0.00055926066
66	0x3c6891e0	0.014194936
67	0x3c63153c	0.013860043
68	0x3cb4f2e9	0.022088485
69	0x3c449a52	0.011999683
70	0x3be0edc2	0.0068642804
71	0x3c1c82c3	0.00955266
72	0xbd0c1146	-0.03419616
73	0x3ca5c7d3	0.020236885
74	0x3c1646f9	0.009172195
75	0x3ca35718	0.01993899
76	0xbd166a58	-0.03672251
77	0xbb11d3d3	-0.0022251501
78	0x3c792517	0.015206597
79	0x3bc43e4b	0.005988871
80	0xbcf89e93	-0.030349052
81	0x3c82e5e9	0.01597877
82	0x3c36077f	0.011110186
83	0x3ca486e3	0.02008385
84	0x3b8ae026	0.0042381464
85	0x3ab3754b	0.0013691572
86	0x3c0e7590	0.008695021
87	0x3c8156fb	0.015788546
88	0x3b88db08	0.004176501
89	0x3c977a79	0.018491017
90	0x3cf73564	0.030176826
91	0x3c8c105e	0.017097648
92	0x3c3053ed	0.010762197
93	0x3c0995d1	0.008397535
94	0x3b9ce82a	0.0047884183
95	0x3ca33332	0.019921873
96	0xbc903c42	-0.017606858
97	0x3d365dd6	0.044523083
98	0x3d3ec1b5	0.046571452
99	0xbc15def4	-0.009147394
100	0x3cc8281b	0.024433186
101	0x3c722e67	0.014781571
102	0x3c8bc810	0.01706317
103	0x3c92ee88	0.017936006
104	0xba26cc4b	-0.00063628395
105	0x3cf52626	0.029925417
106	0x3ce7e492	0.028307233
107	0x3cc8597c	0.024456732
108	0x3bc75954	0.006083647
109	0x3cdf181e	0.02723318
110	0x3b32ac71	0.0027263428
111	0x3cdb9aec	0.026807271
112	0x3c41cdfe	0.0118288975
113	0x3d514186	0.05108788
114	0x3cbe82e0	0.023255765
115	0x3c8fc262	0.017548744
116	0x3d03f8fd	0.032219876
117	0xbbd89e0b	-0.006610637
118	0x3c688a41	0.014193119
119	0x3c784bbd	0.015154776
120	0x3c2fd22b	0.01073126
121	0x3ceae1ad	0.028672064
122	0x3ca5beee	0.020232644
123	0x3c4f3b3a	0.012648398
124	0x3c9df280	0.019280672
125	0x3c857c6d	0.016294682
126	0x3d0969ae	0.03354805
127	0x3cc2e25f	0.023789583
128	0x3d012c48	0.03153637
129	0x3c621914	0.013799924
130	0x3cd67245	0.026177535
131	0x3c180de7	0.009280658
132	0x3d1e9a37	0.03872129
133	0x3c24c43b	0.010056551
134	0x3c341c74	0.010993112
135	0x3b859d90	0.004077621
136	0x3c4339b5	0.011915614
137	0x3c930ee0	0.017951429
138	0x3d008bf0	0.031383455
139	0x3cb98114	0.022644557
140	0x3c3f3a83	0.011671665
141	0x3c7b3b6c	0.0153339915
142	0x3d01ce0a	0.031690635
143	0x3c728f97	0.014804742
144	0x3c6917e9	0.014226892
145	0x3c86bbc3	0.016446954
146	0x3c731039	0.014835411
147	0x3c3ec905	0.0116446065
148	0xbb0092e9	-0.0019618815
149	0x3c363f92	0.011123555
150	0x3bbfaff7	0.005849834
151	0x3c0f774d	0.008756471
152	0x3b9b751f	0.0047441865
153	0x3cdc4d90	0.026892453
154	0x3c693090	0.01423277
155	0x3be4a754	0.006977955
156	0x3ca59e93	0.020217216
157	0x3c81a540	0.015825868
158	0x3c864b8b	0.016393444
159	0x3c24c09e	0.010055689
160	0xbc2e3855	-0.010633548
161	0xbc287717	-0.0102822995
162	0xbbcf829d	-0.006332709
163	0x3a1ec49c	0.0006056519
164	0x3c52e42a	0.012871781
165	0x3b9afc6e	0.004729799
166	0xbc0f0046	-0.008728093
167	0x3d0c7264	0.03428878
168	0x3ca0bb9c	0.01962071
169	0x3bc667b1	0.0060548414
170	0x3ca73308	0.020410076
171	0x3cd6b5df	0.02620977
172	0x3a2a389c	0.0006493421
173	0xbbb39555	-0.0054804482
174	0x3a5d997b	0.00084533513
175	0x3c97bb82	0.018522028
176	0x3d1e65bd	0.038671244
177	0x3d18f25a	0.0373405
178	0x3c3f1dc7	0.011664814
179	0x3c098d69	0.008395531
180	0x3c98a42b	0.018632969
181	0x3c430725	0.011903559
182	0x3ce06704	0.027392872
183	0x3c0a88b2	0.008455442
184	0x3b6bd932	0.0035987613
185	0x3cf3e2f4	0.029771306
186	0xbc0953d8	-0.008381806
187	0x3cbb04dd	0.022829467
188	0xba9adc29	-0.001181488
189	0x3c321686	0.010869628
190	0xbb9af17f	-0.0047284956
191	0x3c740165	0.014892911
192	0x3ace1f3a	0.0015725859
193	0xbbc5accf	-0.0060325633
194	0x394f3593	0.00019761016
195	0x3bbfca59	0.005852979
196	0x3ca4a879	0.020099865
197	0x3c83c29e	0.016084012
198	0xbbc0f79d	-0.005888893
199	0x3c8dab20	0.017293513
200	0x3be17021	0.006879822
201	0x3bd39fe4	0.0064582694
202	0x3c5d7447	0.013516492
203	0x3cb6bad2	0.02230588
204	0x3b6f4ade	0.003651313
205	0x3c9a74cd	0.018854523
206	0x3cde7fab	0.027160486
207	0x3c4ec870	0.01262103
208	0xbbacc3da	-0.0052723708
209	0xbc025a85	-0.007956152
210	0xbc0c221d	-0.008553055
211	0xbbccbcd2	-0.006248095
212	0xbbdf4bc1	-0.0068144505
213	0xbc40995d	-0.011755315
214	0xbc46ab2b	-0.012125771
215	0xbc8229fc	-0.01588916
216	0xbc910366	-0.017701816
217	0xbd02f387	-0.031970527
218	0xbc1ca815	-0.009561558
219	0xbcc5b225	-0.024132797
220	0xbc7566f7	-0.014978162
221	0xbd621306	-0.055193923
222	0xbd33352f	-0.04375189
223	0xbc9ddf24	-0.01927144
224	0x3ce7b5e3	0.028284973
225	0x38901fac	6.8723544e-05
226	0xbbf41828	-0.0074491687
227	0xbc2871a7	-0.010281003
228	0xbc44a323	-0.012001785
229	0x3a682feb	0.0008857238
230	0x3bd53e53	0.0065076738
231	0xbca40052	-0.020019684
232	0x3cd20871	0.02563879
233	0x3bc55629	0.006022234
234	0x3cae9760	0.021312416
235	0x3b554fcc	0.0032548783
236	0x3caf6eed	0.021415198
237	0x3ba42784	0.0050095934
238	0x3c76ab1f	0.015055447
239	0x3c756c33	0.01497941
240	0x3cee57d1	0.029094609
241	0x3a93eaa7	0.0011285142
242	0x3cda1467	0.026621057
243	0xbc70f4a4	-0.014706764
244	0xbc2c284e	-0.010507656
245	0xbb93de90	-0.0045126155
246	0xbcab93b3	-0.020944452
247	0x3c88dbd4	0.016706385
248	0x3d0efe75	0.034910638
249	0x3b14dd51	0.0022714923
250	0x3bc8be1d	0.006126179
251	0x3c07c4ac	0.008286636
252	0x3ca80803	0.020511633
253	0x3c9bc044	0.019012578
254	0x3cc3294c	0.023823403
255	0xbc7877ba	-0.015165264

linear1.bias f4 [108]
0	0x3d8061fa	0.062686875
1	0x3cf0ead8	0.029408857
2	0x3b36b4b1	0.0027878697
3	0x3b9a5544	0.0047098715
4	0xbb3fd396	-0.0029270402
5	0x3c039789	0.008031734
6	0x3b0fc8ea	0.0021939822
7	0x3de73c66	0.11290817
8	0xbc42fb4a	-0.011900732
9	0x3e173aa5	0.14768465
10	0x3c6b0f99	0.0143469805
11	0x3e9926f0	0.2991252
12	0xbc5cc34b	-0.013474296
13	0x3e04a505	0.12953575
14	0x3d100b46	0.035167
15	0x3d2e2880	0.042519093
16	0x3d0bed3b	0.034161787
17	0x3c1cf098	0.009578846
18	0x3dbf56dc	0.09342739
19	0x3d6b9ecd	0.05752449
20	0x3ad11c15	0.0015953804
21	0x3d318f08	0.043349296
22	0x3df49826	0.119430825
23	0x3bc3bc8b	0.005973404
24	0x3d2edd3c	0.042691454
25	0x3cc1844c	0.023622654
26	0x3db4219f	0.08795475
27	0xbc8ee3a9	-0.017442541
28	0x3d97568c	0.073895544
29	0x3dceb1e5	0.100925244
30	0x39df4651	0.00042586264
31	0x3caac031	0.020843597
32	0x3d2ceedf	0.042219993
33	0x3e7bca6f	0.24588941
34	0x3e01bdd8	0.12670076
35	0x3d9927fc	0.074783295
36	0x3dceacf9	0.10091586
37	0xbbcdd492	-0.006281444
38	0xb9f40a10	-0.00046546804
39	0x3ba262d7	0.0049556303
40	0x3e06f2a6	0.131785
41	0x3e86862a	0.26274234
42	0x3cc7c593	0.024386203
43	0x3dec30f0	0.115327716
44	0x3dd223cf	0.10260736
45	0x3e854426	0.26028556
46	0x3cbd7211	0.02312568
47	0xbba5c11e	-0.0050584218
48	0x3d65b41b	0.056079965
49	0x3ce59f01	0.02802992
50	0x3e834e9b	0.2564591
51	0x3c76fd53	0.015075046
52	0x3c0add6c	0.008475643
53	0x3dd3523b	0.103184186
54	0xbc354503	-0.011063817
55	0x3c65f9c9	0.014036604
56	0x3d7f6778	0.062354535
57	0xbbae4707	-0.0053185257
58	0x3cf1213a	0.029434789
59	0x3d18c5f7	0.03729817
60	0xbba3ba01	-0.0049965386
61	0x3e0b1216	0.13581118
62	0xbbf31ada	-0.0074189724
63	0x3d83800f	0.064209096
64	0x3df86d61	0.12130237
65	0x3b5839d9	0.0032993464
66	0xbc364d5a	-0.0111268405
67	0x3d37c3d5	0.044864494
68	0x3d4ec171	0.05047745
69	0x3c2bac69	0.0104781175
70	0xbb969107	-0.0045949253
71	0x3e651e96	0.22374949
72	0x3da9c5e5	0.082896985
73	0x3e93fdb1	0.2890449
74	0xbc3019f3	-0.010748374
75	0x3e6a98e1	0.22909881
76	0x3ba53607	0.005041841
77	0x3dd6b4e9	0.104837246
78	0x3db00986	0.085955665
79	0x3d1cbbe3	0.03826512
80	0x3e0b5c82	0.13609508
81	0x3d31bb24	0.04339136
82	0xbb2d4eb5	-0.0026444618
83	0xba82a83b	-0.000996835
84	0xbbb4f7f8	-0.0055227242
85	0x3e802ad0	0.25032663
86	0x3d08234b	0.033236783
87	0x3cce1045	0.025154242
88	0xbc001ff9	-0.007820123
89	0x3dc12ac9	0.09431989
90	0xbbfa8d35	-0.0076462277
91	0x3bc30556	0.005951564
92	0x3e39a389	0.1812879
93	0xbbca1b41	-0.0061677997
94	0xbb64033f	-0.0034791974
95	0x3c7c480c	0.015398037
96	0x3d92b855	0.07164065
97	0x3c27b5b3	0.010236192
98	0x3ca9e608	0.02073957
99	0x3df4a1e9	0.119449444
100	0x3d96cada	0.073629096
101	0x3d0dce80	0.034620762
102	0x3d2b0e2c	0.041761562
103	0x3d2565f3	0.04038043
104	0x3c146381	0.009056927
105	0xbbe871e0	-0.007093653
106	0x3e32095d	0.17386384
107	0x3ca06dd4	0.01958362

linear2.weight f4 [1, 108]
0	0x3e69d15a	0.22833768
1	0x3e271aa4	0.16318756
2	0xbbc2278b	-0.005925124
3	0x3c605698	0.013692521
4	0xbb11aa56	-0.0022226772
5	0x3ca1d02a	0.01975258
6	0x3d155987	0.036462333
7	0x3f13ae7e	0.5768813
8	0x3ca51854	0.020153202
9	0x3fafee7b	1.3744653
10	0x3cd3938c	0.025827192
11	0x3fb8f492	1.4449637
12	0xbb94288c	-0.004521435
13	0x3f2d1de7	0.6762375
14	0x3dc5a4d3	0.09650578
15	0x3e585c2d	0.21128912
16	0x3d851ef6	0.06500046
17	0x3d8e3af1	0.06944836
18	0x3f4ebc77	0.80756325
19	0x3e9a51f7	0.3014066
20	0x3bba143a	0.0056786807
21	0x3e4dd8fd	0.20102306
22	0x3f23cd50	0.63985157
23	0x3d86c711	0.06580938
24	0x3e9b23ef	0.30300853
25	0x3d9e7e9a	0.07738991
26	0x3f2573f3	0.6463005
27	0x3c89d180	0.01682353
28	0x3e970c7d	0.29501715
29	0x3f6630ab	0.8991801
30	0xbcf6a39e	-0.030107316
31	0x3e1da51c	0.15395015
32	0x3e700378	0.23438823
33	0x3f8cae5c	1.099071
34	0x3f8ad547	1.0846337
35	0x3edda248	0.43287873
36	0x3ef96a3b	0.4871386
37	0x3cdb4abc	0.026769035
38	0x3c406b92	0.011744397
39	0xbba04dc8	-0.0048920847
40	0x3f69fa3e	0.91397464
41	0x3fa995f6	1.324889
42	0x3e2e4594	0.1701873
43	0x3f0b8c3b	0.5451085
44	0x3f5efe81	0.8710709
45	0x3fa69995	1.301562
46	0x3dd9b4eb	0.106302105
47	0xbc534a2f	-0.012896105
48	0x3e6e2b4b	0.23258702
49	0x3e8ef3c2	0.27920347
50	0x3fa2021e	1.2656896
51	0x3db1a3d4	0.08673826
52	0x3cd52b1f	0.026021538
53	0x3f7681fe	0.962921
54	0xbc643977	-0.013929716
55	0x3cf75fb6	0.030197006
56	0x3f0bffce	0.546872
57	0xbc88b22a	-0.016686518
58	0x3d77a87f	0.060463425
59	0x3df5f234	0.12009087
60	0xbb23cd46	-0.0024994179
61	0x3f40a75f	0.7525539
62	0x3c7b1fa6	0.01532737
63	0x3e901975	0.28144422
64	0x3f8e5020	1.1118202
65	0x3cd91a2c	0.026501738
66	0xbba4f01c	-0.005033506
67	0x3e6043f5	0.21900924
68	0x3e900eec	0.28136384
69	0x3d82fb45	0.06395582
70	0x3c0c02cc	0.008545589
71	0x3f89054b	1.070474
72	0x3f337eda	0.70115435
73	0x3fb20e5e	1.3910635
74	0x3c8057ff	0.01566696
75	0x3fffdef5	1.9989916
76	0x3d02c1a5	0.031922955
77	0x3f6d3f0f	0.92674345
78	0x3ed05605	0.40690628
79	0x3e4cc0d7	0.19995438
80	0x3f209616	0.6272901
81	0x3eb62d01	0.3558121
82	0x3c1b1eeb	0.009467821
83	0xbc1fd928	-0.009756364
84	0xbc4da2a5	-0.0125509845
85	0x3f95d0af	1.170431
86	0x3e30fa65	0.17283018
87	0x3de5875d	0.11207459
88	0x3cb7af18	0.022422358
89	0x3ec0de48	0.37669587
90	0xbbe2ff54	-0.00692741
91	0x3c6adc5f	0.014334767
92	0x3f65a289	0.89701134
93	0x3d2e22ee	0.04251378
94	0xbc67aa10	-0.014139667
95	0x3d9c1d77	0.076228075
96	0x3ec412f3	0.38295707
97	0x3ddf6ac9	0.109090395
98	0x3dbbf75e	0.09178041
99	0x3f1a3745	0.60240585
100	0x3ec38ca6	0.38193244
101	0x3d8f80df	0.07007002
102	0x3e1d6202	0.15369418
103	0x3e26294d	0.16226692
104	0x3d8aa3da	0.067695335
105	0x3c3a46f4	0.011369456
106	0x3fb0786b	1.3786749
107	0x3c08bb17	0.008345387
