model_m5ALL_new_18000_797.pth (torch, 96075 bytes, 3 tensors)

linear1.weight f4 [108, 216]
00000000: fe2d e3bc 879c 1bbd 6828 45bc 27d3 18ba
00000010: 5b2d 0d3b 159e 1fbd 9de0 13bd 01bc 6ebd
00000020: 50a1 243d 994c 03bc f50c a1bc b77c 823c
00000030: 5ee1 1c3d 2a38 5b3d 36db 283d 4fbc 203d
00000040: ae21 133d 8afb 8a3c 3b24 083d c25f d53c
00000050: 60b0 a33c b724 f43b d525 953c f407 003d
00000060: 641b b63d c9b2 8d3c ad32 a83c ce1f 0b3c
00000070: 03ca 9dbb 1779 103d c5b5 343b fab0 3d3d
00000080: 51e7 023e b92d 383d 888a 52bc 34f5 6e3d
00000090: 9fa1 223d 3c05 713d 3b21 b73d a80e 7a3c
000000a0: 81cb 893d 1db2 933c 8581 f73c 859f e53c
000000b0: c70c ff3c a6f0 b53c 53ae 853c e54e 313d
000000c0: 45b7 883b c6bf 863c 5bb1 4c3b ef4b c93c
000000d0: e5b1 fc3c e4e8 1a3c b16f 993c 0fa5 df3c
000000e0: 2ac9 013d 7cad 103c b2f4 2d3c 218d 663c
000000f0: de0c 5a3c 1f63 063d 1310 af3a bed4 e13c
00000100: 19d4 873d 1566 2bbb 7f6a 3439 645b d33c
00000110: c52d 0c3d 926f f33c a6a8 1f3b 586a a03c
00000120: 6005 39bc b41f 293d 4be3 9b3c f317 4b3d
00000130: 28bf 6bbc a8fd ef3c d56d 033d fb4b 0abc
00000140: b90b 07bc 3ccf 023d 5e1c 253d 475f f93c
00000150: c69a 223d c22b 2a3d 07bd 313d 54f8 4f3d
00000160: d06b ad3a ac9e b93c 83e7 c43c b950 153d
00000170: 848d f03c 0c2e 0c3d 4747 093d 234b be3c
00000180: d42a acbc 9792 8b3d 1369 6b3d 5223 a93c
00000190: eb00 6d3d 913e 273d 435e 423d 1b17 6e3d
000001a0: 827b b63c b7bf 9e3d dfee 993d 73c3 303d
000001b0: daaf 883c 8d21 023c 0947 2b3d a7b4 743d
000001c0: 48da 63bb 43f3 953d 8c82 3a3d 1d92 b93c
000001d0: 683f 373d 6d51 413c 4a5c 0d3d 6d9b 3e3d
000001e0: ecc0 b43b b79c 313d b52d 023d 7458 c33c
000001f0: c71b f53c 4585 c6ba 4918 803c e213 ba3c
00000200: 60a8 8b3c 3cf1 d33c d54a 313d eec2 d03c
00000210: abf9 dc3c 43a0 8e3a d28c 4f3c 30bb 303d
00000220: e345 e6ba 69d2 2b3d ce6d 1c3d 2199 543c
00000230: c643 c53c 6ffd 073d 2f57 163d 033e b23c
00000240: e9f3 e53c 3c4b 353c 96ab 973c 99b3 b03c
00000250: e78f ed3c f918 3a3d e485 ee3a c244 bd3c
00000260: 08b9 ce3c 33bb 483c 99e7 bd3c dbf7 f53c
00000270: 522c 853c 213c e53c fa9f a73c 7ade ae3c
00000280: 84f9 c6bb 62ea 543c 93ca 143b c054 103d
00000290: c815 4e3c b84d 4f3b 07e3 bcbb 6bb3 ef3c
000002a0: dc96 cd3c 482b 5e3d 0fdf 813c daa1 b93c
000002b0: d91a 943c 23c2 db3c c0f8 613a feb2 3c3d
000002c0: d948 3e3d 81c9 283d a6d8 853c 0e72 a93c
000002d0: e45a d63c 4108 333d 38a5 7f3d eebb 9e3c
000002e0: e328 943c c825 113c 4601 3cbb a536 30ba
000002f0: fc60 9839 6f19 443c c8e4 9f3c 8b9b 453c
00000300: 9831 f03c 58fe 863c babf de3c 2299 153d
00000310: d4b6 683c 44fd 6d3c 9d01 103c ad0a e13c
00000320: dd82 d33c 4e66 cb3c 7937 983c bf0b cd3c
00000330: b1a7 fa3c a97d 543d 392b 0b3d 8503 3d3d
00000340: b50b 3abb 1b3f 803a 19d9 08bc 9ad0 963b
00000350: 162f 58bb bacb 463c efcf 753b 27ab 3a3c
00000360: 5e4b 89bb 121f 96bc 392a d1bb 9b0c 84bb
00000370: 2060 8c3c 9550 3b3b b0ef d33a c3fd c4bc
00000380: 426c 97ba eb7f 03bb 648f e2ba 5013 97bc
00000390: b689 bc3b a04f 66bb 0089 37bc 4a2c da3c
000003a0: ea4c eebb bd7f ebbb e1cf d8bb c0fe e93b
000003b0: 30a9 b53c d67c c0bc 1e5b ab3a 07bd 3bbb
000003c0: e3a4 2d3c c86c 123a 9c65 6f3c d1e2 1ebc
000003d0: ffc5 373b c10d e63a c08b 253c 9d23 653c
000003e0: 9146 a63c b0f7 0f3c dddd 9fbb 35eb 98bb
000003f0: b692 7a3c 9656 9139 e2bc 463b f7d7 253a
-0.027731892 -0.037991073 -0.012033559 -0.0005829804 0.0021541927 -0.03896912 -0.03610288 -0.058284763
0.040192902 -0.008013868 -0.019659499 0.01592861 0.038300864 0.05352036 0.04122468 0.039242085
0.03592079 0.016965646 0.033237677 0.026046637 0.019981563 0.007450666 0.018206516 0.031257585
0.08891943 0.017297165 0.020531977 0.00849147 -0.0048153414 0.03527173 0.0027574163 0.046311356
0.12783553 0.04496548 -0.012850411 0.058339313 0.039704915 0.058842883 0.08941885 0.015262283
0.067282684 0.018029267 0.030213127 0.028030166 0.031134022 0.022209477 0.016318476 0.04328813
0.004172238 0.016448867 0.0031233642 0.02457234 0.030846545 0.0094549395 0.018730016 0.027300386
0.031685986 0.008830424 0.010617422 0.014071734 0.013308732 0.032809373 0.0013356231 0.027567264
0.06632251 -0.0026153375 0.0001720581 0.025800414 0.034223337 0.029716287 0.0024361997 0.019581959
-0.011292785 0.04129 0.01902928 0.049583387 -0.014388837 0.029295757 0.032087166 -0.008440967
-0.008242541 0.031935915 0.040310256 0.03044094 0.039698385 0.041545637 0.04339316 0.050773934
0.0013230983 0.022658668 0.024036175 0.036453936 0.029364355 0.0342236 0.03351524 0.023229187
-0.021016516 0.06815069 0.057473253 0.020646725 0.057862204 0.040831152 0.047453176 0.058127504
0.02227569 0.077514105 0.07516264 0.043155145 0.016685415 0.007942569 0.04181579 0.059742596
-0.0034767557 0.07321789 0.045534655 0.02265268 0.044738203 0.011799199 0.03451184 0.046534944
0.005516162 0.043362346 0.03178187 0.023845889 0.029920472 -0.0015145919 0.01563658 0.022714559
0.01704806 0.025871865 0.043284256 0.025483575 0.02697452 0.0010881502 0.0126678515 0.043147266
-0.0017568435 0.04194871 0.038190655 0.012975962 0.024080168 0.033200677 0.03670424 0.021758085
0.028070407 0.011065301 0.018514436 0.021570014 0.028999282 0.045433972 0.0018197862 0.023104075
0.025234714 0.012251663 0.023181723 0.030025413 0.016256485 0.027982773 0.020462025 0.02134632
-0.006072225 0.012995334 0.0022703751 0.035237074 0.012578435 0.0031632017 -0.0057643685 0.029260358
0.02509635 0.054240495 0.015853433 0.022660185 0.018079208 0.02682597 0.00086201355 0.046069138
0.04645619 0.041207794 0.016338658 0.020684268 0.026166387 0.043709043 0.062413424 0.019376721
0.018085903 0.008859105 -0.0028687282 -0.000672201 0.00029063958 0.0119689545 0.019518271 0.01206101
0.029320523 0.016478702 0.027191032 0.036522992 0.014203746 0.014525715 0.008789447 0.02747091
0.025819236 0.024829056 0.018581139 0.025030015 0.03059754 0.05187765 0.033976767 0.046145935
-0.0028388326 0.0009784432 -0.008352541 0.004602504 -0.003298705 0.012133533 0.0037507971 0.011393345
-0.0041898927 -0.018325362 -0.006383207 -0.004029823 0.01713568 0.0028581966 0.0016169455 -0.024046784
-0.0011552649 -0.0020065259 -0.0017285165 -0.018441826 0.005753721 -0.0035142675 -0.011202097 0.026632447
-0.0072723525 -0.0071868584 -0.006616578 0.0071409643 0.022175401 -0.023497026 0.001307342 -0.0028646605
0.010598394 0.00055856677 0.014611628 -0.009697632 0.00280416 0.0017551706 0.01010412 0.013985542
0.02029732 0.008787081 -0.004878743 -0.0046667107 0.015293768 0.00027721067 0.0030324985 0.0006326432

linear1.bias f4 [108]
00000000: dd86 d73d 0d7c 623c 036f 32bc 61fe e93d
00000010: 15c9 1abc b1f2 a13e ab01 843c ecbe 883d
00000020: 4053 233d 4ff5 85bc ea61 be3c 5a0d 273d
00000030: 4591 153b 8841 dfbb d0b1 663b 6890 043b
00000040: 0dfd 593e 169d 663e 54a5 063c 6857 843e
00000050: 0230 91ba 761f 48bb 8b0d 043e 0f94 993c
00000060: 4cab 0fbc 3a87 213e 680d c33c c91a 2b3d
00000070: cac3 033d 4ea1 453d 7c51 fd3c 53f7 a03c
00000080: 2699 fc3c 4b89 4c3e 6da8 a43e b716 00bc
00000090: 7447 e539 3061 0d3e f24c d53d 9e1e 293e
000000a0: f442 f63d fcde 683d 9119 143f 1cc3 683c
000000b0: 7b45 e33d da24 283e b129 c63d 3e73 953c
000000c0: 5a0d bf3e 8cce f13d feb9 6cbc 2daf fc3d
000000d0: b5b5 893c 284f 433e b320 053e 0ee3 563d
000000e0: 3e7b 1e3e b9e0 0c3d 070b 463e 539f c73d
000000f0: 3b43 1f3e f8be ef3b 4315 643d 618b 8e3e
00000100: a6fd 173e e91e 883e 2f1e d83d f5ee 91bc
00000110: b5f9 8b3c 21c2 973b 8f4b d8ba 503d e5ba
00000120: ed16 f2bb 9548 323e 799e 933b bb7b 0b3e
00000130: 9416 5e3a b91b 5d3e 7914 0abc 7b4f 623c
00000140: db84 543d bc03 fa3c 709e ce3c dce3 1ebb
00000150: e840 bb3d b176 1c3e 6421 3b3e c4f8 603d
00000160: 53f2 2539 2f65 393d 29b1 a83c de0c 013e
00000170: 247f b93d d5b4 543d f5a1 e83e 821b 873c
00000180: 6440 91bb c5f3 b93b 7986 403d db5e 923d
00000190: 3f6a 7b3e 6572 563d 114b d3bb fcac 943d
000001a0: d197 8d3e 9763 c13c 9b35 373e 5474 b23e
0.1052377 0.013823521 -0.010890725 0.11425472 -0.009447356 0.3163047 0.016114077 0.066770405
0.039874315 -0.016352324 0.023240048 0.040784217 0.0022822183 -0.006813232 0.00352012 0.0020227674
0.21287937 0.22520861 0.008218128 0.25847936 -0.001107693 -0.003053633 0.12895791 0.018747358
-0.008768868 0.15774241 0.023810104 0.04177359 0.03216914 0.048249535 0.030922644 0.019649183
0.030834746 0.19974248 0.3215975 -0.007817916 0.0004373152 0.13806605 0.10415067 0.16515586
0.12024489 0.05685328 0.5785151 0.014206674 0.11097237 0.16420308 0.09675921 0.018243428
0.37314874 0.11806974 -0.014448641 0.123381 0.016810277 0.19073164 0.13000755 0.05246263
0.154767 0.034394 0.19340144 0.097471856 0.1555299 0.0073164664 0.05568434 0.27840713
0.14842853 0.26586083 0.10552632 -0.017814139 0.017086843 0.0046312963 -0.001650201 -0.0017489586
-0.007387987 0.174105 0.0045049754 0.13621418 0.00084719923 0.21592607 -0.008427733 0.013812895
0.051884513 0.030519359 0.025222033 -0.0024244701 0.09143239 0.15279652 0.18274456 0.05492474
0.00015825899 0.04526251 0.020592289 0.12602565 0.09057453 0.051930267 0.45436063 0.016492609
-0.004432725 0.0056748115 0.047003243 0.071469985 0.24552248 0.05235519 -0.0064481576 0.07259557
0.2765489 0.023607058 0.17891543 0.34854376

linear2.weight f4 [1, 108]
00000000: 6395 be3e 074f 373d 8a3d c8ba 42f3 f73e
00000010: 7b70 62bc 818d 9e3f 19fb 4c3d 59fc 893e
00000020: 1d2e f93d 240e fab9 8749 b33d 43c4 083e
00000030: f70f 7d3d 47d1 473c d7d1 473c ffd6 a23c
00000040: ba14 403f 83a0 4d3f 3f2d 773d ccef 7b3f
00000050: 9c10 913b d748 2a3c 6092 003f dee5 313d
00000060: 2de4 31bc e03b 1c3f c335 4c3d 085f 313e
00000070: 42ce fa3d 68af 5e3e d316 0a3e afe0 fabb
00000080: 6195 813d 00f2 453f 0431 9a3f 1285 293b
00000090: bd9c aa3b c0e5 103f 95fb bd3e b385 203f
000000a0: c041 e73e f383 3f3e 248a 1840 6654 ab3d
000000b0: c4a8 d93e 0852 293f a730 b93e 8a7c c33c
000000c0: 3972 b93f 4730 e03e b343 10bc 2518 dc3e
000000d0: 29b8 803c 669d 3c3f f748 0d3f 291e 743e
000000e0: 52c3 1a3f f026 0b3e ac46 533f 74fd b23e
000000f0: 58f8 1d3f 9de4 2b3c e782 723e 6816 883f
00000100: 80e9 123f 59ae 863f c670 e03e 3b4e 253a
00000110: cb3c a53a 0865 093c 6a82 463d 1cd6 f9bb
00000120: ff55 ebbb 3fa0 2d3f 6721 08bc e787 083f
00000130: 8bc5 b33b d27b 663f 3a18 aebb 7f0f 093d
00000140: 98cc 643e 5170 013e f308 253e 8913 85bc
00000150: 9578 c73e d4a8 0c3f a375 353f 291d 4b3e
00000160: 32f7 9dba cf91 213e 5b2a cc3c 8b73 e33e
00000170: bf52 c13e 223b 763e 25c5 df3f 5be6 343d
00000180: ea4b 753c ebd6 a53c 5b27 363e 1f16 9d3e
00000190: 3564 753f db06 803e 5f89 2b3b 1d44 883e
000001a0: 9f62 8d3f 4633 ed3d e409 413f 12ab b43f
0.37223348 0.0447531 -0.0015277129 0.48427778 -0.013820763 1.2386934 0.050044153 0.26950338
0.121669985 -0.0004769425 0.087542586 0.13356118 0.061782803 0.012195892 0.012196026 0.019877909
0.75031626 0.80323046 0.060345884 0.98412776 0.004427029 0.010393343 0.5022335 0.04343211
-0.010857624 0.6102886 0.04985596 0.17321408 0.12246372 0.217466 0.13485269 -0.007656179
0.0632732 0.7732239 1.2046208 0.002586667 0.005206673 0.5660057 0.37106004 0.6270401
0.4516735 0.18702678 2.3834314 0.08365707 0.4251157 0.66140795 0.3616993 0.023863096
1.4487983 0.43786833 -0.008805203 0.4298717 0.015712814 0.7367767 0.5518946 0.2383963
0.60454285 0.13589072 0.8252971 0.34958994 0.6170707 0.010491517 0.23682748 1.0631838
0.5738754 1.0521957 0.4383604 0.0006305908 0.0012606619 0.008385904 0.048464216 -0.007624401
-0.0071818824 0.6782264 -0.008308745 0.5333237 0.0054861954 0.90032685 -0.0053129466 0.033462044
0.22343671 0.12640502 0.16116695 -0.016244667 0.38959184 0.5494511 0.70882624 0.19835342
-0.0012051819 0.15778278 0.02492254 0.4442409 0.37758443 0.24045995 1.7482039 0.044164997
0.014971713 0.020244082 0.1778845 0.3068094 0.9585603 0.2500523 0.002617441 0.26614466
1.1045722 0.11582045 0.75405717 1.4114707
