model_m5ALL_new_34000_795.pth (torch, 96075 bytes, 3 tensors)

linear1.weight f4 [108, 216]
00000000: 7560 f23b 037a 603c fe66 993c 1935 fcbb
00000010: 30aa 19bc 019c fab8 4fe5 993b b117 633c
00000020: 0729 62bb 0f41 343c 4f72 a6ba 7dff 2cbb
00000030: ce22 dbbb 20fa 7fbb f1dc 54bb a416 c23b
00000040: 9edb c2ba bc44 253c 225d ffbb 9f9a e2bb
00000050: 10be 73bc 8a86 20bb a871 f13b 5025 7239
00000060: 3457 eeb9 1e01 eb3a 2b86 bd3b c992 85bb
00000070: 8ef6 a6bb 6b80 873c adc3 293c a9ca fb3b
00000080: b0cb afbb 6f6a ec3b 0c0f eb3b 673e 13bc
00000090: 31d0 36bc 746e 1abb 4784 c5ba 2f47 3bbc
000000a0: b4e0 6c3b 1fc7 b5bc a4a4 b8ba 4a65 f73a
000000b0: e172 0b3c 9550 b33b 7432 53bb 94b7 c23c
000000c0: 50f1 a53b 456d 263a 9095 6f3c fc01 1bbc
000000d0: 34be 5e38 7e09 873b 3c60 7d3c df12 0f3c
000000e0: 627a 713c d855 883b 4b3d 743c 5177 ff3b
000000f0: 3917 af3c 3ac2 5c3b e09a 33bc 3db7 163c
00000100: 011c 933c 877c 023b 7712 b53b 4ec6 083b
00000110: 8b14 eebb 2b9c f1bb 3cfe 2abc d00d 253b
00000120: bb26 c2bb 9400 0ebc cb60 40bc 57ff 33bb
00000130: 41af b5bb d9fe c33c 6c65 86bc 18ba 6e3b
00000140: e030 19bc 9b21 513c a16f ea3b f710 b03c
00000150: 3827 073c ad7d 833c 6094 3cbc 43d5 c43c
00000160: 2ae8 193c 2150 b0ba 6657 9dba d5dc 3fbc
00000170: 446f 093c 141b 1e3a 0bbf 93bb dd18 d2bb
00000180: 310c b0bc d05e e0bb c696 bc3b 4532 34bc
00000190: 838c 6f3b fe8f dabb 13e8 583b 0d62 16bc
000001a0: 6ddd 35bc cba0 2838 2061 cebb 3999 1bbc
000001b0: 40fe 593c e530 b93b 9ab8 3cbb 4606 b9bc
000001c0: 552a 88bb cda1 1639 4f96 89ba bf32 72b9
000001d0: dc52 eabb f792 3f3c 36d9 05bb 6cec 27bb
000001e0: f043 253b 0c6c cf3b e558 94bb 75c2 0dbb
000001f0: 4160 843b 8daa 873c c282 1fbc aa27 0a3b
00000200: d074 edbb b037 173c 5763 1f3c e5d0 3dbb
00000210: 8be0 1c3c 0be9 a2bb 0488 72bb bd65 ff3a
00000220: 281d f4bc 42c4 60b9 9089 ddbb 2d8f 883c
00000230: 7c3b 3c3c 250b 2ebb 3bd4 61bc daa8 f03b
00000240: 4b98 c13c 2ea7 58bc 7d28 073b 4580 a7bb
00000250: 8727 433c 43bc 553b b8cd da3b b3b5 e23a
00000260: be58 7bba 4ab3 84bc 17e7 f83b 4138 96bb
00000270: 92a7 06bb 22ea f43b 50c9 0b3c 9541 043d
00000280: 0ac6 58bc f0a3 483c f0ee 82b9 5b6b cd3c
00000290: dc44 9cbc de98 f23b 0140 37bb cb66 953c
000002a0: 4a76 93bb 09b4 0d3c 0872 cf3b e8c2 9cbb
000002b0: ad29 043b dc64 b7bb 34a0 afbb 60b2 d5bb
000002c0: ad49 14bc 04a2 bc3b f3e1 973c 5ceb 17bc
000002d0: dead c3bb f982 8438 8d92 2cbb 1217 073c
000002e0: 8a46 223c db81 c73b 6087 34bb ea8d 863a
000002f0: 47ce a33b 50bb 393a a5ad b13a fac6 82bb
00000300: 0de3 ee3b 016b 8ebb 961d 44ba b02e e3ba
00000310: 6db5 213c 6119 c0ba ba77 8cbb a73e a13a
00000320: ab6d 5b3b 5b45 2bbb 08a0 d5bb 83b9 e13b
00000330: 8f69 4f3c 6449 cdbb 5f32 ef3b 28cb 643c
00000340: bd7c d2bb 5c01 b7ba 8dc7 863b fcc6 d1bb
00000350: 8c51 f3bb e4af 3d3b d488 90bc 351a e2ba
00000360: 17e0 a2bc 46e0 88bd c4bb fbbc 4171 76bd
00000370: 9199 1ebd a289 c0bd 490a a0bd 3755 38bd
00000380: b978 653d a293 c7bb 8de5 a6bc fde1 83bb
00000390: 3b7f 563d 2ae7 9e3c a025 6dbc 41ed c53b
000003a0: b5bc 673c f7ea 943c bc68 983c e445 d13c
000003b0: 9a6d 2a3c 1551 103c 7b99 363d 7049 5f3d
000003c0: 0e5b a43d 6695 4fbc 0c16 2b3d 47cc 45bd
000003d0: 19a9 09bb 5661 753c 7318 39bd 1314 343c
000003e0: 1f43 023e 9e4d 3c3d 8e86 fbbb 7caf 613d
000003f0: 69f9 1c3d 8710 0a3d c188 8e3d dbe9 173c
0.0073967525 0.013700965 0.018725868 -0.0076967594 -0.009378955 -0.00011949987 0.004696525 0.013860629
-0.0034509317 0.011001839 -0.0012698862 -0.00263974 -0.0066874987 -0.0039058998 -0.0032480324 0.005923109
-0.0014866476 0.010087188 -0.0077930847 -0.006915405 -0.014876857 -0.0024494254 0.007368285 0.00023092818
-0.0004545987 0.001792941 0.0057838163 -0.004076336 -0.0050953096 0.016540727 0.010361594 0.007684071
-0.0053648576 0.0072148363 0.0071734246 -0.008987046 -0.011158035 -0.002356437 -0.0015069329 -0.011430546
0.0036144676 -0.022189675 -0.0014087153 0.0018874791 0.008511276 0.0054722526 -0.0032226117 0.023769177
0.005064167 0.000634868 0.014623061 -0.009460922 5.3106065e-05 0.0041210046 0.015464839 0.008732527
0.014738651 0.004160624 0.0149071915 0.007796206 0.021373378 0.0033685104 -0.010962218 0.009198961
0.01795769 0.001991065 0.005525883 0.0020870152 -0.0072656325 -0.007373353 -0.010436591 0.0025185235
-0.005925027 -0.00866713 -0.011741827 -0.0027465427 -0.0055445735 0.023925232 -0.016405784 0.0036426838
-0.009350032 0.01276436 0.0071544205 0.021492464 0.008249097 0.016051138 -0.011509985 0.024027472
0.009393731 -0.0013451615 -0.0012004196 -0.011710365 0.008388344 0.00060312566 -0.004508858 -0.0064116553
-0.021490188 -0.00684724 0.0057552783 -0.010998313 0.0036552257 -0.0066699972 0.0033097311 -0.009178651
-0.011100155 4.020407e-05 -0.0062981993 -0.00949698 0.013305247 0.0056515806 -0.0028796555 -0.022586
-0.004155437 0.0001436539 -0.0010497066 -0.00023097823 -0.007150991 0.011692754 -0.0020423657 -0.0025623096
0.0025217496 0.006330019 -0.0045271986 -0.0021630798 0.0040397947 0.016560817 -0.009735765 0.002108077
-0.007246591 0.0092295855 0.009728274 -0.0028963622 0.00957502 -0.0049716285 -0.003700734 0.0019485276
-0.029799059 -0.00021435416 -0.0067607835 0.016669834 0.011488792 -0.0026556936 -0.01378351 0.0073443474
0.02363219 -0.0132234525 0.0020623498 -0.0051117265 0.0119112795 0.0032613433 0.0066773556 0.0017296582
-0.0009588114 -0.016198773 0.0075959074 -0.0045843427 -0.0020546657 0.0074742 0.008531883 0.032289106
-0.01323081 0.012246117 -0.00024973555 0.025075605 -0.019075803 0.007403477 -0.0027961733 0.018237492
-0.004500185 0.008648881 0.0063307323 -0.004783977 0.0020166442 -0.00559674 -0.005359674 -0.006521508
-0.009050769 0.0057566185 0.018540358 -0.009272423 -0.0059716543 6.318646e-05 -0.0026332468 0.0082452465
0.009904513 0.006088478 -0.002754651 0.0010265682 0.0049989554 0.00070851017 0.0013555778 -0.003991005
0.00729025 -0.004346252 -0.0007481215 -0.001733264 0.009869915 -0.0014656001 -0.0042867335 0.0012301997
0.0033482115 -0.0026133868 -0.0065193214 0.00688857 0.0126594445 -0.0062648524 0.007299706 0.013964452
-0.0064235614 -0.0013962197 0.004113144 -0.0064018946 -0.0074254926 0.002894395 -0.01764337 -0.0017250242
-0.019882245 -0.06683402 -0.030729182 -0.0601666 -0.03872067 -0.094012514 -0.07814462 -0.045003142
0.056023333 -0.0060905972 -0.02037313 -0.0040247426 0.05236743 0.019397337 -0.0144743025 0.0060402458
0.014144112 0.018178446 0.018604629 0.025546022 0.010402108 0.008808394 0.044579964 0.054513395
0.0802518 -0.012669897 0.041769072 -0.048290517 -0.002100533 0.01497682 -0.045189332 0.010991114
0.12720917 0.04597246 -0.0076759523 0.055098996 0.038323794 0.033707168 0.069596775 0.009272064

linear1.bias f4 [108]
00000000: 5dc2 adbb 72c6 b53d cae1 883e e2a6 d43c
00000010: 7336 393e 269f c13c 0a6d 773e fd8e ab3d
00000020: 336c 0b3e 7d72 743c d5ad d13c 22aa 893a
00000030: 9a7d 313e a87e 533e e17b bb3d f97a 02bb
00000040: d4e9 aa3e 7a96 603c 79e7 d53d 3fde 7e3e
00000050: ce1d d23b b54f 893c b9e3 1e3d fcdf 3e3d
00000060: 05d6 263e b125 a63d 62c7 3b3d 71f2 c0bb
00000070: e7a9 923d a445 c13d f72e 103e 86a8 4bbc
00000080: b9f6 203d 5376 353d 2a2e 463d 1f6e 333d
00000090: d4b4 183d 6c99 30bb 6bc7 3d3d 8f03 403d
000000a0: df9a 3f3c 4ec2 cb3c 5eb7 ad3c 53d2 483e
000000b0: 6301 7e3b ba99 e13b f6e2 723b 6a01 ab3e
000000c0: 74a9 f93c b749 a8bc 56d7 3bbc 32c9 063e
000000d0: 29a9 203e 7b20 40ba 2672 bf3c 7f98 5f3e
000000e0: 7872 963e 7f99 dd3b fc94 483b f5f1 163d
000000f0: d5e1 5abb e9ce 853d 5151 ddba 0496 c83b
00000100: ace8 523d e95f 493e 8f40 c23d 9a33 b2bb
00000110: 4464 723d 69ea f53b 1274 853b 80fe b93c
00000120: 2801 d5bb 599b 693e bc18 fb3b 9a22 e83d
00000130: 16e2 983c 34b8 623b ced8 013c d846 03bc
00000140: a70c 9c3d f6e3 8a3c 0edb cb3b ff70 213a
00000150: ee4a c6ba c207 8b3c a56d 0a3c 34f4 c43d
00000160: 2b77 213d a7db 36bb 1f50 c3ba 4912 ab3e
00000170: 8116 7a3a 181b 173c c048 0b3c cdce 68ba
00000180: 2183 2e3c 8bc7 3f3d d1d3 b33c 9705 8a3a
00000190: 1d68 173a c34d 9b3b 86e6 9d3e 6fc7 863e
000001a0: 89dd f93b bd56 31bc b90b 8d3e 4dde b23a
-0.005302711 0.08875741 0.26734763 0.025958482 0.18087177 0.023635458 0.24162689 0.08376882
0.13615493 0.014919874 0.025595585 0.0010502974 0.1733307 0.20653784 0.091544874 -0.0019909723
0.33381522 0.013707751 0.104445405 0.24889468 0.0064122444 0.01676164 0.038791392 0.046600327
0.1629258 0.08112658 0.045844443 -0.0058882763 0.071613126 0.09437111 0.14080416 -0.012430316
0.039297793 0.044302296 0.04838387 0.04380619 0.037281826 -0.0026946915 0.046332758 0.046878394
0.011694639 0.024872925 0.0212056 0.19611482 0.003875815 0.0068847807 0.0037061549 0.33399516
0.03047631 -0.020542962 -0.011464914 0.13162687 0.1568953 -0.0007329059 0.02336986 0.21835516
0.29384208 0.006762683 0.003060638 0.036851842 -0.0033398767 0.065336056 -0.0016885196 0.006121399
0.051491424 0.19665493 0.0948497 -0.0054382803 0.059177652 0.0075047505 0.0040726746 0.022704363
-0.006500382 0.22813167 0.0076628607 0.11334725 0.018662494 0.0034594657 0.007925225 -0.008012496
0.07619601 0.016954403 0.0062211817 0.00061585003 -0.0015128532 0.016971473 0.008448993 0.096168905
0.039420288 -0.002790192 -0.0014901197 0.33412388 0.00095400965 0.009222768 0.008501232 -0.00088809134
0.010651381 0.04682116 0.021951588 0.001053023 0.0005775707 0.0047394945 0.30839938 0.2632403
0.007625286 -0.010823903 0.27548006 0.0013646573

linear2.weight f4 [1, 108]
00000000: 08df 453c 7f73 d63e 3512 a63f 9040 003e
00000010: 3fef 773f f7e2 803d c232 893f e66b b03e
00000020: 9bf2 143f df49 823c cd5c d23d a12d 013d
00000030: a45b 3b3f f5f7 803f f917 f03e 71ce 823d
00000040: a440 d13f d62b da3d a7df e23e 6dd8 9e3f
00000050: 979c 503c 1576 8a3d ede8 1a3e e7dc 323e
00000060: aad4 403f 2f9e a83e 8c5e 343e c5b0 853c
00000070: 21a4 853e 8b53 cf3e db13 0a3f 5745 483b
00000080: 1183 c73d b6a2 b73d aebe 453e 74c7 213e
00000090: 26d0 5d3e 8851 9f3c 2281 7f3e 2e9a 1d3e
000000a0: 1b2a 8d3c d187 733c 3b4c 753a 7099 833f
000000b0: aeaa 52bc 44ff c43d 187f b53d 38de c73f
000000c0: d1be b73d bf93 d83c b67f 003a 5da1 1f3f
000000d0: 1564 2b3f 4f62 ce3c 9578 d43d dfaa 633f
000000e0: 2502 b43f 78e5 0fba f2f0 f93c 69cd 2b3e
000000f0: a4ca cf3b 7430 8c3e 7044 763d 5a0e 623b
00000100: 0f24 1c3e 3c5d 8a3f bcc4 dc3e b022 9c3c
00000110: ce5d 943e c106 983a b70f 21ba cbfc cb3d
00000120: 3a16 59bb 7720 963f 35b3 063e f3be c93e
00000130: 61d9 513e b039 263d 8d67 f53c a766 0a3c
00000140: 7f23 753e bfc8 cd3d 7497 f23c 5234 263d
00000150: 1a01 953c 5df6 b13d 5a0c d6bb f0c0 023f
00000160: 1516 353e 546d 24bc 3ac0 923c b3c1 ce3f
00000170: 3574 9b3c 41ce 63bb e063 783c 9ca8 abbb
00000180: 5527 ecb9 eaff 633e aa01 363d d718 b03c
00000190: 04bb 74bb 8b00 513c 4885 b93f 6f6d ac3f
000001a0: 3a16 663d fdeb 4c3d b117 993f 804e b4bb
0.012077101 0.41884992 1.2974306 0.12524629 0.96849436 0.0629329 1.0718615 0.3445732
0.58182687 0.015904365 0.102716066 0.031537656 0.7318671 1.007567 0.4689329 0.06387032
1.6347852 0.10652892 0.44311258 1.2409798 0.012732646 0.067608036 0.15127917 0.1746708
0.753245 0.32933185 0.17614192 0.016319642 0.26101783 0.40493426 0.5393655 0.0030558908
0.09741796 0.089665815 0.1931102 0.15798742 0.21661434 0.019448057 0.24951604 0.15390846
0.017231992 0.014863924 0.00093573675 1.02812 -0.012858076 0.096190006 0.08862132 1.5614691
0.08971942 0.026437638 0.0004901843 0.62355596 0.6694959 0.025193362 0.10374562 0.88932604
1.4063154 -0.00054892106 0.0305104 0.16777577 0.0063412953 0.27380717 0.06012386 0.0034493417
0.1524813 1.0809703 0.43118846 0.019059509 0.28977817 0.0011598693 -0.00061440043 0.09960326
-0.003312482 1.1728657 0.131543 0.39403495 0.2049308 0.04058236 0.029956603 0.008447326
0.23939322 0.10048055 0.029613234 0.04057724 0.018189002 0.08689568 -0.006532234 0.5107565
0.17684205 -0.0100358315 0.017913926 1.6152862 0.01897631 -0.0034760388 0.015160531 -0.0052386057
-0.00045042732 0.22265592 0.04443518 0.02149622 -0.0037342915 0.012756477 1.4493799 1.3470896
0.05617354 0.050029743 1.1960355 -0.005502522
