model_m5ALL_new_70000_805.pth (torch, 96075 bytes, 3 tensors)

linear1.weight f4 [108, 216]
000000 d2 4f 38 bc c0 41 f5 bb f3 a2 8f bb cd 0e d5 3a
       -0.011249499 -0.0074846447 -0.0043834387 0.0016255021
000010 76 f2 32 3b 8a 99 7e bc 6c 46 2f bc 6f 56 0e 3c
       0.0027305163 -0.015539536 -0.010697942 0.0086876
000020 26 bd a0 3a 25 b2 04 bb eb 5e af 3b 0f 0e 71 bc
       0.0012263402 -0.0020247784 0.0053518913 -0.0147128245
000030 2a 9a 01 3c 42 ea c4 bc 47 d8 b5 3a 37 0f 11 bc
       0.007910291 -0.024037484 0.001387366 -0.008853725
000040 98 c8 81 3c 25 0c c1 39 89 3a 0d 3c cd 40 3a bb
       0.01584272 0.00036820877 0.008619913 -0.0028419972
000050 05 d5 0a 3c 6b cf f4 b9 aa 2d a7 bb a2 71 25 3c
       0.008473639 -0.00046693845 -0.005101879 0.010097893
000060 01 33 3b bc e4 83 9a ba 00 5d 86 3b 3c b9 8e 3b
       -0.0114257345 -0.0011788574 0.004100442 0.0043555778
000070 ed ea 0a 3b 31 72 60 3c d2 aa 9c 3c 4a fe ef 3a
       0.0021197156 0.0136991 0.019124422 0.0018310037
000080 e0 be 53 bb 68 87 ec bb cb 42 3f 3c b6 74 a8 3b
       -0.0032309815 -0.00721829 0.0116736395 0.005140866
000090 de 3c 90 3b 53 12 67 3c 0a 1e 5b 3c f6 25 18 3c
       0.004401787 0.01410349 0.013373861 0.009286394
0000a0 fa 31 d2 3b fb 31 40 39 b9 4e a8 bb f1 fc 74 bc
       0.006414649 0.00018329166 -0.0051363376 -0.014952884
0000b0 40 7b 4d ba 4a 08 0b 3c 6a 9d 78 3c 92 93 7c 3c
       -0.0007838495 0.008485863 0.015174249 0.015416043
0000c0 58 57 29 3c 04 fc c8 bb 4c 0c 7b 3b 33 a0 53 bb
       0.010335766 -0.006133558 0.003830689 -0.003229153
0000d0 04 ea 17 3c 53 6d a2 3c 48 05 60 3c 31 3b bd 3a
       0.009272102 0.01982752 0.013673134 0.0014437196
0000e0 f6 c2 d5 bb 84 25 a6 bc c7 49 87 bc 41 be b4 bb
       -0.0065234853 -0.02028156 -0.016514672 -0.005515844
0000f0 40 60 44 bc bf 4f 55 3b 5a 96 9a bb 0c 71 36 3c
       -0.011985838 0.0032548753 -0.0047176303 0.011135351
000100 2b e5 c4 3b e5 b0 72 ba 5f 79 59 3c 5e 6e 62 3a
       0.0060087643 -0.0009257927 0.013273566 0.0008637662
000110 77 53 2f ba 7f 82 9b 3b 78 60 96 bc 67 85 85 3c
       -0.00066881574 0.004745781 -0.018356547 0.016298963
000120 77 f3 2c bc d7 0d f3 3b 43 88 23 bc 27 8f 01 3b
       -0.010556093 0.0074174213 -0.009981218 0.0019769163
000130 22 75 a2 ba e3 c3 1d 3c 2b 0b c9 ba de aa 7e bc
       -0.0012394527 0.009629223 -0.0015338411 -0.015543668
000140 a1 20 30 3c 84 28 a4 3b 16 fd 5a bc 22 d8 31 3a
       0.010749967 0.0050097127 -0.013366004 0.00067842205
000150 7d 8d a1 3c b6 4c dd bc 34 01 2e 3c 26 4b fb bb
       0.019720787 -0.027014118 0.010620404 -0.0076688705
000160 28 f4 15 bc 39 a1 b7 3b b0 86 d6 bb c3 fe 67 bb
       -0.00915245 0.005603936 -0.0065468177 -0.0035399653
000170 7e b1 02 3c d5 41 e2 3b cb 3d 90 3c e1 67 ab 3b
       0.007976888 0.0069048204 0.01760759 0.005230889
000180 78 a1 44 bc df e9 d7 bb 41 62 f5 bb 42 51 66 3b
       -0.012001388 -0.006589159 -0.0074885194 0.0035143648
000190 11 63 5b bc 88 1f 3b bc 7f c8 36 3c cf 53 d9 3c
       -0.0133903185 -0.011421092 0.0111562 0.02652922
0001a0 70 41 04 3c 1d 54 50 3c e9 f5 07 3c e9 d8 d3 3a
       0.008072242 0.012715367 0.008298376 0.0016162667
0001b0 f0 68 23 3a 3c ea c2 bb ab 10 78 bc 7d 03 f0 3b
       0.00062335934 -0.005948333 -0.015140693 0.0073246346
0001c0 bf 94 1b bb 09 59 cd 3b 6a 2b 6b bb b3 d8 a5 ba
       -0.0023739783 0.0062667173 -0.003588403 -0.0012653082
0001d0 20 ab 9d bb 78 6e 9d 3b 59 87 23 3c f0 8e 1d 3c
       -0.0048116595 0.0048044287 0.009981 0.0096165985
0001e0 f6 d8 5e 39 9c 49 13 bc a0 c6 3b 3c b4 d9 f7 3b
       0.00021252394 -0.008989718 0.01146093 0.007563794
0001f0 3c a2 f5 3b f9 9d cd 3b e9 3f 8a 3b 79 f3 60 3c
       0.0074961465 0.0062749353 0.0042190445 0.013729923
000200 58 55 17 bc 95 0a 69 3c ac 03 c6 ba 68 46 81 39
       -0.009236656 0.014223714 -0.0015107295 0.00024657254
000210 76 ec f1 3a 78 3d 02 3c 71 43 b0 ba 06 80 8f 39
       0.0018457312 0.007949226 -0.0013447833 0.0002737047
000220 11 7e 0b 3c c2 f6 73 bb 02 82 2f bc a9 0e 0e 3c
       0.008513943 -0.0037225937 -0.010712149 0.008670487
000230 87 29 92 3b d6 63 3f 3b f8 ca 71 bc a4 d9 db 3a
       0.004460517 0.0029203794 -0.014757864 0.0016773236
000240 6e 40 09 bb 10 67 a7 3c 4a 51 c3 3b 67 25 82 3b
       -0.0020942944 0.020434886 0.005960618 0.003971744
000250 85 7a 97 bc 67 96 9b bc e4 90 b3 3b a6 e8 31 bc
       -0.018491039 -0.018992616 0.005479919 -0.01085869
000260 ec 44 83 3b 96 05 05 3c d9 63 96 3c a2 42 0d 3c
       0.004006019 0.008119008 0.018358158 0.0086218435
000270 2a 51 3f bb b6 4a b4 3b ac 0a 12 3b b9 04 3f 3b
       -0.0029192665 0.0055020703 0.0022284193 0.0029147102
000280 49 2b 9d bb c5 1d 72 bb 79 88 56 3c f6 3b 19 bc
       -0.0047964198 -0.0036944014 0.013094061 -0.009352675
000290 0c 1c 32 bc de 43 bf b8 63 d7 5e 3c 32 1d fd bb
       -0.010870945 -9.120231e-05 0.013601157 -0.0077244276
0002a0 01 21 80 bb 18 7e 44 3c a4 dc 16 bc f3 2f 02 3d
       -0.0039101844 0.011992954 -0.009207878 0.03178401
0002b0 e0 c8 b0 bb 45 ed b9 ba 99 ee 30 3c 32 e1 17 bc
       -0.00539504 -0.0014185092 0.010799074 -0.009269999
0002c0 2c 21 19 bc 18 36 8f 3c a1 56 ef 3b d1 02 13 bc
       -0.009346288 0.017481849 0.007304028 -0.008972839
0002d0 a5 af 0a bc df cd b5 ba 24 50 03 3c 74 c2 22 bb
       -0.0084647285 -0.0013870558 0.0080147125 -0.0024835141
0002e0 d1 20 3c 3b 3a b0 20 3b 36 ab 30 bb 5f af 3c bc
       0.0028706084 0.0024519102 -0.0026957518 -0.011516421
0002f0 fc 25 17 3c de 0c 29 3c a5 a5 14 bc 65 86 da bb
       0.009225365 0.010318009 -0.009072696 -0.006668853
000300 25 02 bb 39 62 02 13 ba 3c 2b 20 3b 4d 22 a8 3a
       0.00035669017 -0.000560796 0.0024439832 0.0012827605
000310 af ce 7e bc c0 58 04 bc 78 11 21 3c 46 b8 42 bb
       -0.015552207 -0.0080778 0.009830825 -0.0029711886
000320 c4 f0 38 bc 9b 6b 46 3a e8 e2 0c bb 05 bd 03 bb
       -0.011287872 0.0007569135 -0.0021497551 -0.0020101678
000330 45 a8 8e 3b 59 f2 f8 3b f4 5c e2 bc 75 c8 45 bb
       0.0043535554 0.0075972495 -0.027632214 -0.0030179296
000340 70 6e 45 bb 3b 0f 96 3b 29 59 39 3c 8f f3 e8 3b
       -0.003012564 0.0045794523 0.011312761 0.0071091126
000350 11 08 24 bb ee e3 50 3c fe 7e 67 3b 99 f4 9c bc
       -0.0025029222 0.012749655 0.0035323496 -0.019159602
000360 b2 d7 69 3c 47 f3 86 bb 5f a3 44 bc a8 0f 7e bc
       0.014272617 -0.0041183564 -0.012001841 -0.015506662
000370 cc d9 a4 bc 32 d6 c1 bc 47 15 a4 bc 8a 24 ee bc
       -0.020123385 -0.023661707 -0.020029677 -0.029070158
000380 48 d8 14 3d 52 01 d3 b6 85 ef 4a bc f5 ce 1b 38
       0.036339074 -6.2884437e-06 -0.0123862075 3.7147624e-05
000390 c3 d6 7b ba 3b be ab bb 8b 72 cf 3a e6 0a 12 ba
       -0.0009606892 -0.005241183 0.0015826983 -0.0005571082
0003a0 fe e3 e3 3c de ec 6c 3c f0 81 91 bc 83 5c e1 ba
       0.027818676 0.01446077 -0.017762154 -0.0017193708
0003b0 71 54 79 3c 81 fa 60 3c fa 62 b4 3a b5 7a 03 bc
       0.015217886 0.0137316 0.0013762407 -0.008024861
0003c0 d8 11 f4 3c e7 a0 0f ba c1 31 d3 3b 1d 91 23 bc
       0.029793665 -0.00054789934 0.00644514 -0.009983328
0003d0 5f 02 6d 39 b6 68 2a bc a7 66 96 ba ca 5c 37 3b
       0.00022602965 -0.010400942 -0.0011474685 0.002797889
0003e0 2a 79 dc 3c 8c c5 53 3b fe 9e e3 3a 0a 95 a5 3c
       0.026913244 0.0032313792 0.0017366109 0.020212669
0003f0 61 f5 64 3c ee db ab 3c 2e e3 a9 3c 59 b9 2e 3c
       0.0139745185 0.020978894 0.02073821 0.0106643075

linear1.bias f4 [108]
000000 ef 62 1f 3c e6 aa 24 bc 20 ce f7 3c 13 e2 2c 3d
       0.009728177 -0.010050511 0.030249655 0.04220779
000010 bf 40 82 bb c0 1e 9d 3b 6a a0 32 3d dc 8d d8 3c
       -0.0039750035 0.0047949255 0.043610014 0.026434831
000020 39 5e 21 3d 35 66 9e 3d 7d 3b 52 3c ba a8 50 3d
       0.0393965 0.07734338 0.012831566 0.05094216
000030 ed 2f 04 3e 79 fd 8b 3c 34 12 50 3d 39 68 32 3c
       0.12908907 0.017088639 0.05079861 0.010889106
000040 9d 32 d9 3d 55 ac ff 3c 30 40 5c bc d9 3f bf 3c
       0.10605357 0.031210104 -0.013443038 0.023345875
000050 de 7f cb 3d 0e 1a fb 3d d1 49 0a 3e 71 04 33 bb
       0.09936498 0.12260829 0.13504721 -0.002731588
000060 a8 01 b9 3c 11 f6 16 3d 77 00 84 3b 7b 74 8a 3d
       0.022583798 0.03685576 0.0040283757 0.06760498
000070 c1 b1 f8 3d 5c 04 b5 3d e1 34 5b 3c 09 ad 95 3d
       0.12143279 0.08838722 0.0133793065 0.073083945
000080 0b 0d 60 3c 33 b9 64 3c f5 70 9b 3c 15 b6 98 3d
       0.013674985 0.013960171 0.01897476 0.074566044
000090 40 77 0a 3d 92 72 25 bc 71 14 fb 3c b5 51 5b 3d
       0.033805132 -0.0100981165 0.030649396 0.05354472
0000a0 0a f3 3c 3b 2a ce 0b 3e d1 8e 9c 3c 68 0f 9d bc
       0.0028831386 0.13652864 0.019111069 -0.019172385
0000b0 98 43 a9 ba 76 f0 d5 3c 5b 33 da 3c 1d 83 e1 3c
       -0.0012913821 0.026115637 0.026635816 0.02752834
0000c0 48 b1 80 3d af 00 5e bb e6 2a 52 3d 4b 1b 9a 3c
       0.06283814 -0.003387492 0.051310442 0.018811842
0000d0 9b a8 60 3c b2 13 af bb 45 cc 1f 3e 9c 0a 66 3d
       0.013712074 -0.005342924 0.15605266 0.05616246
0000e0 33 73 94 3d 54 aa 74 3e 0d 2a 9d 3c 34 05 1d 3e
       0.07248535 0.238931 0.01918509 0.15334016
0000f0 cf c4 a3 3c 7b 60 4f 3e 8a 8f 0f 3c 80 83 fb 3b
       0.019991307 0.20251648 0.00876225 0.007675588
000100 f0 89 cc 3c 4a b3 df 3c d0 a4 3b bc 8a ee 83 3d
       0.024968117 0.027307171 -0.011452869 0.06441982
000110 ea 76 9c 3d be cb 11 3d 1c db fe 3c d8 ca 98 3c
       0.076398686 0.035594694 0.031110339 0.018651411
000120 e9 a1 e0 3c 86 ff 6b ba ab c2 49 3d dd 7a c6 3c
       0.027420955 -0.00090026145 0.049257915 0.024228508
000130 72 2e 38 3c 9e 6f ba 3d d3 86 5f 3d 15 cd 43 3e
       0.011241542 0.091033205 0.054571938 0.19121201
000140 37 41 8e bb f7 58 77 3a 2d 9f 23 3d 3b 81 a0 3d
       -0.0043412703 0.0009435559 0.039946724 0.07837149
000150 30 bc 9c 3d 67 39 81 3b 1c a9 4b bc 14 e2 05 3e
       0.076530814 0.0039436105 -0.012430456 0.13074523
000160 0b 85 0d 3d c3 40 f1 3c 64 54 20 bc 84 bc 79 3b
       0.034550708 0.029449826 -0.009785745 0.0038106749
000170 7a 9e 9d 3d e1 f0 4c 3b f5 ce c9 bb 04 0c 45 3e
       0.07696243 0.0031271505 -0.0061587044 0.19242865
000180 99 d2 a3 3c d5 a9 9d 3c e9 f5 1d bc 65 b9 de 3c
       0.019997882 0.019246021 -0.009641149 0.027188012
000190 df 34 a5 3c dd 40 44 3c 29 cc 15 3e a4 32 2b 3c
       0.020166812 0.011978355 0.14628662 0.010449085
0001a0 6f 82 2d 3b 42 da c3 3d e7 df 11 3c a9 8d bc bb
       0.002647545 0.09563114 0.00890348 -0.005754192

linear2.weight f4 [1, 108]
000000 67 6d a9 3c f1 79 9f 3d 6c 93 11 3e b7 f3 8b 3e
       0.02068205 0.0778693 0.14216393 0.27334377
000010 72 b5 8a 3d a2 7a 2e 3d 5c 3d 2e 3e bb 24 3d 3e
       0.06772889 0.04259742 0.17015594 0.18471043
000020 74 13 77 3e ba 4f 16 3f 93 42 8b 3d ec 60 a2 3e
       0.24128515 0.58715403 0.067998074 0.3171457
000030 e9 68 24 3f bb 54 c6 3c f3 ed 8b 3e b1 18 aa bc
       0.6422258 0.024210325 0.27329978 -0.020763727
000040 c8 c6 71 3f e7 48 05 3e d5 c3 47 3c 74 ca 13 3e
       0.9444394 0.13016091 0.012192686 0.14432698
000050 9a 4c cf 3e 54 71 2f 3f fe bb 81 3f 44 c4 36 bc
       0.4048813 0.685323 1.0135496 -0.011155192
000060 11 c9 88 3e 5f 8e 43 3e db 97 08 3e e8 de c1 3e
       0.26715901 0.19097279 0.13339178 0.37865376
000070 27 b1 13 3f 4c 9d 2e 3f e0 73 8b 3d 42 dd 2f 3f
       0.5769219 0.68208766 0.06809211 0.6869699
000080 a1 cb 03 3e 35 51 f8 3d af 9d 17 3e 6a 9c b6 3e
       0.12870647 0.12124864 0.14806245 0.3566621
000090 11 1a 38 3e 7e d8 1c 3c 80 b5 7e 3e 13 5a da 3e
       0.17978694 0.0095731 0.24873924 0.42646846
0000a0 3f 71 bd 3d 2f 79 9b 3f 15 d5 b7 3d e9 9d 81 bb
       0.092501156 1.2146357 0.08976189 -0.003955592
0000b0 55 cd 9c 3c 6f 1c 2c 3e 78 95 51 3e 06 f6 a5 3e
       0.019140879 0.16807722 0.20467174 0.32414263
0000c0 7e 7b 96 3e 68 7d ca bb 8f 81 d0 3e ec 16 86 3e
       0.29391092 -0.0061795004 0.40723845 0.26189363
0000d0 0d 7c d5 3d f2 75 c5 3c 22 86 4a 3f bc cf 9c 3e
       0.104240514 0.024104092 0.7911092 0.3062724
0000e0 23 d3 40 3f c9 8c a3 3f 72 c6 0b 3b 68 75 32 3f
       0.7532217 1.2777339 0.0021328 0.697104
0000f0 6c e5 ad 3d 17 46 7e 3f e7 42 b4 3d 51 d0 a8 3d
       0.084910244 0.993257 0.08801823 0.08242858
000100 9f 4a d7 3d da 74 ba 3d 4f d5 87 bc fe 9c e7 3e
       0.1051228 0.09104319 -0.016581206 0.45236963
000110 8a c8 3a 3f 45 d2 a6 3e 98 da 89 3e 24 b5 fe 3d
       0.7296225 0.32582298 0.26924586 0.124368936
000120 8b 9a 3c 3e 9c f8 8c 3b c2 c7 b9 3e 54 6e f9 3d
       0.18418328 0.0043020975 0.36285216 0.121792465
000130 db 83 20 3e 78 6e 27 3f f7 fe ac 3e e8 78 ba 3f
       0.15675299 0.65402937 0.33788273 1.4568148
000140 49 5c 5c bc d2 cc 53 3b 47 1e b6 3e d3 42 24 3f
       -0.013449737 0.0032318127 0.35569975 0.64164466
000150 cc ab 19 3f bf 90 93 3d 65 d5 d3 3b f2 ec 71 3f
       0.60027766 0.072053425 0.0064646476 0.94502175
000160 84 8f be 3e 16 95 b9 3d 51 28 6a 3b 8b 23 17 3d
       0.3721887 0.09061639 0.0035729597 0.03689913
000170 3c 00 78 3f 1d 3a c7 3c 67 c6 b2 3b c2 75 62 3f
       0.9687536 0.024319703 0.0054557803 0.88460934
000180 64 89 23 3d dd 82 8c 3d c8 d2 a3 bc e3 b9 62 3d
       0.039925948 0.06860898 -0.01999797 0.055353057
000190 a1 35 36 3d f8 bd 02 3e e3 cf 2f 3f af 26 7b 3d
       0.04448474 0.1276778 0.68676585 0.06131619
0001a0 42 ee 89 3d ff ad f7 3e c6 25 e8 3d 14 95 fe 3c
       0.06734897 0.48374936 0.1133533 0.031076945
