model_m5ALL_new_90000_804.pth (torch, 96075 bytes, 3 tensors)

linear1.weight f4 [108, 216]
-0.0026659288 -0.003149486 -0.0127429385 -0.008721867 -0.00636374 -0.0107473675 -0.013602812 0.0101226475
-0.0072603747 0.0029767978 0.003337657 0.0052598435 0.01234122 0.013629743 -0.013663129 -0.0034211744
-0.001671916 0.004432218 0.009664941 -0.06015191 -0.008552148 0.012351973 0.0010019435 0.0024764023
0.0052492283 -0.015785657 -0.0037892042 -0.007852489 -0.012350582 -0.011546976 -0.007806846 0.009698447
0.00394374 0.012240115 -0.0025036798 -0.001957467 -0.018991321 0.0011971615 -0.0016861095 0.001839544
0.019403145 0.017284283 -0.007219982 0.010343815 -0.0056593483 0.0037427228 -0.009579723 0.012650159
0.013632045 0.0070979255 -0.012171563 -4.0747036e-05 0.009652666 -0.015289661 -0.071129635 0.0007325435
0.0014662786 0.002921984 -0.007745558 0.0043566967 -0.004527263 0.005478569 0.020891245 -0.011343016
-0.07230571 -0.06280659 -0.06521018 -0.017754648 -0.053537022 -0.059651993 -0.009983745 -0.062882915
0.00043571135 -0.0019530794 -0.0029787784 -0.0031898245 -0.017429475 -0.0063541825 -0.0140982 -0.0012210447
-0.010975044 0.005592472 0.0052008475 -0.017016366 -0.0033768867 0.0022813908 -0.01079582 -0.0054019936
0.012746978 -0.014624572 -0.0138748605 0.0034394786 0.0057564247 0.004042462 0.005820667 0.01636262
0.005496949 0.00015150687 0.0028263545 -0.004783582 0.0011449818 -0.0031986414 0.011183656 -0.008332606
0.01258919 -0.0038140237 -0.013839344 -0.0008891784 0.008989214 -0.0010957874 0.018317807 0.0055154944
0.0028756685 0.0021619406 0.008578933 0.0031271635 -0.0037694138 0.010102722 -0.012922114 -0.008599758
-0.0022268826 -0.002768566 0.02068646 0.0026095903 -0.0081995 -0.0045947423 -0.016473107 -0.016269846
-0.014119725 0.011686683 0.004821835 -0.01263133 -0.0014564014 0.011269237 0.0012026137 0.008587702
-0.0032372612 -0.0032907196 0.0042642388 -0.005850947 -0.0026083577 -0.0017192787 -0.024822945 0.008665551
0.0048239226 -0.008761518 -0.043622144 -0.008258729 -0.006821098 0.01746626 0.014582266 -0.011355003
-0.008160576 0.0035488498 -0.0056246934 0.004857446 0.004305834 -0.010055968 -0.0010119906 -0.011183572
-0.075091064 -0.072568506 -0.01668813 -0.011651547 -0.051650915 -0.05595798 -0.060933787 -0.079103075
-0.00909328 0.00073805836 -0.013033594 -0.009955997 0.0009554098 0.00872843 0.00030264855 -0.01904535
-0.0013262203 -0.00044566754 0.0140293455 0.014039903 0.007639692 -0.004667498 0.005877601 -0.0041251774
0.008615171 -0.004342148 0.0043110196 0.00759944 0.0065219477 -0.0066628056 -0.00438045 -0.008115969
-0.080019414 -0.08062264 -0.018289566 -0.0775037 -0.05870365 -0.015609128 -0.0016698266 -0.06440489
-0.0071089948 -0.012336063 0.006500131 -0.00939987 -0.023673866 0.0049617444 -0.011940164 0.008866458
-0.31462565 -0.30766594 -0.38415065 -0.38007787 -0.30726087 -0.34099555 -0.38234657 -0.33286926
-0.009710015 0.013644717 -0.006962205 0.009356546 0.00061192084 0.011035474 -0.0003821274 -0.0102789765
0.002309195 -0.0011807955 1.4559518e-05 -0.020538185 0.002063269 -0.011003366 0.010451182 -0.009437865
-0.027336909 -0.0060540684 0.006064424 0.0027338793 0.010612634 0.0077965236 0.0029334703 -0.008623815
0.013928853 0.0005529823 0.001769689 0.000344788 -0.003042552 -0.010044143 0.023775985 -0.002198046
-0.008291506 -0.013184086 0.0081876395 -0.0082798395 -0.009835592 -0.014769309 -0.002427031 0.006565642
00000000: ddb6 2ebb 9b67 4ebb c2c7 50bc 29e6 0ebc
00000010: ec86 d0bb ba15 30bc 54de 5ebc 76d9 253c
00000020: 70e8 edbb 6116 433b 98bc 5a3b c45a ac3b
00000030: d432 4a3c 494f 5f3c 51db 5fbc c835 60bb
00000040: 3124 dbba 243c 913b b359 1e3c d961 76bd
00000050: 4f1e 0cbc ee5f 4a3c a553 833a 234b 223b
00000060: b801 ac3b ec50 81bc 4c54 78bb baa7 00bc
00000070: 185a 4abc 872f 3dbc 92d0 ffbb 3ce6 1e3c
00000080: 7d3a 813b c38a 483c c714 24bb d948 00bb
00000090: b093 9bbc 13ea 9c3a 7200 ddba db1c f13a
000000a0: 58f3 9e3c c597 8d3c 9995 ecbb 1b79 293c
000000b0: 0e72 b9bb 7848 753b 45f4 1cbc 9d42 4f3c
000000c0: f158 5f3c b795 e83b 3c6b 47bc cce7 2ab8
000000d0: 3726 1e3c 7c81 7abc 6aac 91bd 2a08 403a
000000e0: 2530 c03a c27e 3f3b 73ce fdbb 9fc2 8e3b
000000f0: 6f59 94bb 9185 b33b 1e24 ab3c 0fd8 39bc
00000100: 0415 94bd bea0 80bd ea8c 85bd 3272 91bc
00000110: a349 5bbd a655 74bd dd92 23bc c2c8 80bd
00000120: 3070 e439 78fe ffba 9c37 43bb 600c 51bb
00000130: 42c8 8ebc bf36 d0bb 23fc 66bc 760b a0ba
00000140: acd0 33bc 0e41 b73b df6b aa3b e865 8bbc
00000150: c24e 5dbb 6383 153b f3e0 30bc 3503 b1bb
00000160: b3d8 503c e79b 6fbc 6253 63bc e068 613b
00000170: 64a0 bc3b a176 843b 4bbb be3b e70a 863c
00000180: c01f b43b d1dd 1e39 5c3a 393b 98bf 9cbb
00000190: 3713 963a 4ca0 51bb a73b 373c 7c85 08bc
000001a0: e442 4e3c b3f4 79bb 6abe 62bc c117 69ba
000001b0: 7f47 133c 86a0 8fba 3a0f 963c 52bb b43b
000001c0: b675 3c3b 58af 0d3b a78e 0c3c 19f1 4c3b
000001d0: 4508 77bb e385 253c 46b7 53bc 00e6 0cbc
000001e0: e4f0 11bb d470 35bb a776 a93c a905 2b3b
000001f0: 3257 06bc 7e8f 96bb 9cf2 86bc 5748 85bc
00000200: 6b56 67bc 8079 3f3c 7c00 9e3b a3f3 4ebc
00000210: b9e4 beba 9ba2 383c 05a1 9d3a 6fb3 0c3c
00000220: 3b28 54bb 1da9 57bb 07bb 8b3b 4db9 bfbb
00000230: fbf0 2abb 6c59 e1ba 7d59 cbbc f5f9 0d3c
00000240: ff11 9e3b 788c 0fbc 22ad 32bd 9f4f 07bc
00000250: 8483 dfbb 6715 8f3c 75ea 6e3c 560a 3abc
00000260: f0b3 05bc d293 683b 594f b8bb 362b 9f3b
00000270: f417 8d3b c9c1 24bc c5a4 84ba 4d3b 37bc
00000280: 58c9 99bd cc9e 94bd 8cb5 88bc 21e6 3ebc
00000290: e98f 53bd 3234 65bd b595 79bd cb00 a2bd
000002a0: fbfb 14bc 427a 413a db8a 55bc 7a1e 23bc
000002b0: 7774 7a3a b001 0f3c cdac 9e39 fe04 9cbc
000002c0: 92d4 adba 7ca8 e9b9 57db 653c 9f07 663c
000002d0: 6256 fa3b d0f1 98bb e498 c03b 7f2c 87bb
000002e0: a526 0d3c 9448 8ebb 7443 8d3b b904 f93b
000002f0: 10b6 d53b aa53 dabb e189 8fbb d7f8 04bc
00000300: 38e1 a3bd 7c1d a5bd 00d4 95bc 43ba 9ebd
00000310: 3d73 70bd 6ebd 7fbc 15de daba b6e6 83bd
00000320: 92f2 e8bb 331d 4abc 0dff d43b ea01 1abc
00000330: b2ef c1bc 2196 a23b ada0 43bc 9f44 113c
00000340: 9d16 a1be 6486 9dbe 65af c4be 9199 c2be
00000350: 4c51 9dbe f896 aebe eec2 c3be d76d aabe
00000360: c116 1fbc 178e 5f3c 3523 e4bb 334c 193c
00000370: 5069 203a 22ce 343c 4558 c8b9 2769 28bc
00000380: dd55 173b ecc4 9aba a744 7437 b23f a8bc
00000390: e937 073b 7647 34bc 6f3b 2b3c 46a1 1abc
000003a0: a7f1 dfbc 3561 c6bb 13b8 c63b e22a 333b
000003b0: 9de0 2d3c fb79 ff3b 773f 403b e74a 0dbc
000003c0: d835 643c 04f6 103a e9f4 e73a a9c4 b439
000003d0: 8d65 47bb 3090 24bc dbc5 c23c 180d 10bb
000003e0: 19d9 07bc 1102 58bc 7325 063c 2aa8 07bc
000003f0: 7625 21bc f9fa 71bc d30e 1fbb 9924 d73b

linear1.bias f4 [108]
-0.06855197 -0.0023032892 0.023749871 0.011947635 0.0013128341 -0.003435702 0.009403245 0.0010134801
0.019155184 -0.06789216 0.0176283 -0.008671552 -0.011410653 -0.031776138 0.11598167 -0.013347195
-0.002561725 -0.057388924 0.12840885 -0.013929701 -0.05038895 0.0034577714 0.0642773 -0.019261625
-0.042644024 -0.05042113 0.0024672903 -0.012605325 0.25539535 -0.0110919755 -0.0036033785 0.0033276554
-0.030299643 0.37793952 -0.001153068 0.009938134 0.4815549 -0.0010706552 -0.015001136 -0.01098318
-0.0043255393 0.018906306 -0.018631853 -0.007735371 0.012865556 0.010350431 -0.066650495 0.345747
-0.06951546 -0.055872027 0.0028653068 0.033168986 -0.008902424 0.08314839 0.0074045905 0.0059699514
-0.0408168 -0.06610321 0.006297101 -0.003621096 -0.0035415748 -0.0050879316 -0.060310733 -0.011711254
0.009034128 -0.059776604 -0.050281405 0.12701796 -0.012907802 -0.04042682 0.0045301616 0.13287608
0.13384344 -0.060757026 0.018792076 -0.0018306552 -0.0065183933 0.0011331082 -0.037939254 0.015955457
0.012315168 -0.013882751 0.006729852 0.0043014246 -0.011043944 0.025882117 0.006051301 0.0836128
-0.021117035 0.0078286985 0.014987238 0.0135142 0.0009464404 -0.0042069014 -0.0014969718 0.0447834
-0.04883918 0.0200973 -0.00014860833 0.007552586 0.0068561966 0.15618972 0.12115411 -0.08100796
-0.037386835 -0.0028764987 -0.022396076 -0.0013369635
00000000: fa64 8cbd c8f2 16bb 178f c23c 03c0 433c
00000010: 6713 ac3a 8429 61bb 1110 1a3c c0d6 843a
00000020: 55eb 9c3c 0b0b 8bbd 3969 903c 2013 0ebc
00000030: bff3 3abc b227 02bd cc87 ed3d 32ae 5abc
00000040: 9de2 27bb a610 6bbd 9c7d 033e 6739 64bc
00000050: a564 4ebd c79b 623b d1a3 833d 8eca 9dbc
00000060: 80ab 2ebd 6386 4ebd 43b2 213b 9186 4ebc
00000070: 2ec3 823e 1ebb 35bc a926 6cbb cb14 5a3b
00000080: f536 f8bc 4a81 c13e 8b22 97ba 8ed3 223c
00000090: 5d8e f63e 3a55 8cba 53c7 75bc ccf2 33bc
000000a0: 41bd 8dbb 66e1 9a3c d4a1 98bc ff78 fdbb
000000b0: 0eca 523c db94 293c 0e80 88bd c005 b13e
000000c0: 1f5e 8ebd 11da 64bd dfc7 3b3b 34dc 073d
000000d0: 79db 11bc b449 aa3d 35a2 f23b 959f c33b
000000e0: 842f 27bd 1f61 87bd e957 ce3b e94f 6dbb
000000f0: c419 68bb aab8 a6bb 6308 77bd 8fe0 3fbc
00000100: e103 143c 50d8 74bd e0f3 4dbd ff10 023e
00000110: 3f7b 53bc 9896 25bd c071 943b ab10 083e
00000120: 410e 093e 5cdc 78bd d7f1 993c 98f2 efba
00000130: 3f98 d5bb cd84 943a 3166 1bbd 05b5 823c
00000140: 8fc5 493c 7a74 63bc 1786 dc3b f7f2 8c3b
00000150: a9f1 34bc bc06 d43c fe49 c63b 303d ab3d
00000160: a2fd acbc f143 003c 088d 753c aa6a 5d3c
00000170: 8a1a 783a 0cda 89bb 0a36 c4ba cc6e 373d
00000180: 980b 48bd 18a3 a43c bfd3 1bb9 af7b f73b
00000190: f2a9 e03b 33f0 1f3e a51f f83d 80e7 a5bd
000001a0: f022 19bd a483 3cbb fa77 b7bc 0d3d afba

linear2.weight f4 [1, 108]
0.36578205 -0.008783894 -0.07078321 0.0716461 0.0021213174 0.03397963 -0.03018352 -0.0071407086
0.141345 0.3749324 -0.0011554505 0.9329233 0.02316879 0.014399694 0.6397899 0.1236132
-0.015753837 0.5215296 0.69090056 -0.0053388486 0.21498998 -0.048063982 0.29077172 1.4005563
0.1953171 0.20797542 0.0068486673 0.022717608 1.0350829 -0.03554225 1.823976 -0.011779785
0.1814451 1.8030535 0.003563685 -0.05520455 2.4908745 0.005222748 0.3823232 0.03031508
0.32951844 0.02367523 -0.010545978 0.042332117 0.11587251 0.01024452 0.4026008 1.6151972
0.2627984 0.50843793 0.060567245 0.93841964 -0.024549764 1.2646217 0.009806426 0.059172776
0.18007237 0.56184256 -0.008715262 0.010883561 0.030689456 0.015547559 0.31075555 0.018367441
0.006705275 0.31494054 0.18230619 0.8323933 0.05028167 0.06343652 0.00029669338 0.6691444
0.751217 0.5583236 -0.04596187 0.020309243 0.04773213 0.048167806 0.1624488 -0.019927222
0.051626865 -0.013170418 -0.037254393 0.061904937 -0.019234158 -0.023278028 -0.04004191 0.562153
0.010733952 -0.06640396 0.050860934 0.10509468 0.0132105695 0.0066073523 0.03435692 0.7429068
0.119208485 0.13592188 -0.004765204 0.014806599 -0.115618676 0.62689036 0.5275828 0.6130106
0.21854591 0.02048964 0.6587885 -0.034667626
00000000: c947 bb3e 52ea 0fbc caf6 90bd 31bb 923d
00000010: cd05 0b3b 392e 0b3d 6e43 f7bc 9bfc e9bb
00000020: bebc 103e 24f7 bf3e 7c72 97ba 10d4 6e3f
00000030: 79cc bd3c b2ec 6b3c 45c9 233f eb28 fd3d
00000040: 310e 81bc f782 053f dcde 303f 82f1 aebb
00000050: 5526 5c3e bdde 44bd 08e0 943e 6e45 b33f
00000060: 3501 483e 82f7 543e c96a e03b 471a ba3c
00000070: 997d 843f c094 11bd 0c78 e93f 0000 41bc
00000080: bfcc 393e 75ca e63f b78c 693b 2b1e 62bd
00000090: 7d6a 1f40 9623 ab3b debf c33e 5557 f83c
000000a0: a4b6 a83e 8ef2 c13c 0ac9 2cbc 7164 2d3d
000000b0: 914e ed3d a2d8 273c b121 ce3e c8be ce3f
000000c0: 838d 863e fd28 023f 5c15 783d 453c 703f
000000d0: 961c c9bc 20df a13f 22ab 203c 275f 723d
000000e0: e464 383e ead4 0f3f 75ca 0ebc f750 323c
000000f0: 7468 fb3c 30bb 7e3c 5a1b 9f3e 5177 963c
00000100: ecb7 db3b e33f a13e 79ae 3a3e ba17 553f
00000110: 27f4 4d3d 02eb 813d 838d 9b39 0c4d 2b3f
00000120: c24f 403f 4cee 0e3f 8442 3cbd 925f a63c
00000130: c482 433d 9b4b 453d fa58 263e 6a3e a3bc
00000140: b176 533d bdc8 57bc 1098 18bd 0890 7d3d
00000150: f490 9dbc 90b1 bebc fc02 24bd 42e9 0f3f
00000160: 75dd 2f3c cdfe 87bd 8e53 503d e13b d73d
00000170: 2571 583c 7d82 d83b d7b9 0c3d 242f 3e3f
00000180: 9423 f43d 1b2f 0b3e 6e25 9cbb 6197 723c
00000190: 7cc9 ecbd e37b 203f ab0f 073f 43ee 1c3f
000001a0: 80ca 5f3e e4d9 a73c 5da6 283f a4ff 0dbd
