model_m5ALL_new_46000_131.pth (torch, 96075 bytes, 3 tensors)

linear1.weight f4 [108, 216]
00000000: fc05 11bd 5325 44bd c57f d9bc 7622 d5bc
00000010: 86d5 d4bc d991 76bd a556 8bbd cf25 1abd
00000020: 11ff 0c3d a55b 623c 4105 c8bc 9cab 6bbb
00000030: 62f2 883c fa1c 5dba 7ccc 55bc 2d8d bbbb
00000040: c433 b23c e03c 37bc 83b0 2a3c e191 bc3c
00000050: de50 843c cafb 2f3c c521 5c3c b573 da3c
00000060: 889e 413d 4127 29bc 4c2d d13c 06c3 89bc
00000070: eb3c 2cbc 3b7f 3d3c a4ec 4ebc 0e29 fdbb
00000080: 8413 803d b8b4 203d 1cbb a53c 4104 6b3b
00000090: 2e73 783c a92d b93c 5cdb d43c 4180 2cbc
000000a0: 3fa0 373d 0d8c 3cbb b5cb 633c 2343 893b
000000b0: e8de 473c e8a6 303c 88fb b33a 3c18 4d3c
000000c0: 193b 473b 8409 363c ea75 02bc 9cc9 4f3c
000000d0: 831e d2bb 4e97 4e3c 3403 cd3c 2c25 393c
000000e0: 2879 b33c 43a0 873b 3f43 ab3c ecdd 073d
000000f0: 1748 cf3c 898b b43c 3531 9b3c 8b08 c23b
00000100: 8390 7a3c 2c98 0aba 53b1 683c 9871 633c
00000110: 06bf b43c 9c24 443c c2a0 df3b 332d 1e3c
00000120: 7002 09bd 85b1 ad3c 6412 393c 1a1d aa3c
00000130: d57e 10bd ca5f 3fba 40a4 7f3c 0f93 fd3b
00000140: f644 eebc 543d 883c 74fe 393c 6032 a73c
00000150: 9c4d d43b d612 233b 9e1b 223c 8e11 923c
00000160: f1b4 883b 977c 973c c461 f73c 00ea 8b3c
00000170: 4979 303c bd5f 093c a3e8 9f3b 6b26 a33c
00000180: fa45 85bc d278 383d a6c0 413d fb46 d8bb
00000190: eef6 ce3c 9667 793c 73bb 9a3c c4ae 953c
000001a0: 3c5f 673a 28e0 023d 134e f53c ff26 cd3c
000001b0: 1f02 c73b 96e4 df3c 8ef7 343b 5d7a dd3c
000001c0: 01b4 413c df47 513d 9db7 be3c cd0a 903c
000001d0: eaf6 033d d4ac d8bb bca2 683c be9f 783c
000001e0: 2bd2 2f3c ade1 ea3c eebe a53c d949 4f3c
000001f0: cff9 9d3c 7979 853c fe66 093d c608 c33c
00000200: 482c 013d 1419 623c 4572 d63c b040 183c
00000210: 089f 1e3d 3bc4 243c 920f 343c 909d 853b
00000220: 1a73 433c e97c 933c bcd0 003d 3a1a ba3c
00000230: 9472 3f3c 5f52 7b3c dedb 013d fcc4 723c
00000240: 8027 693c e6eb 863c a7e1 723c e3cc 3e3c
00000250: eb12 f7ba a09d 363c 286a bf3b 35dd 0f3c
00000260: 8b00 9d3b 353e dc3c fe67 693c a38a e53b
00000270: 90cd a53c 3d96 813c a43f 863c 9ae2 243c
00000280: 5538 2ebc fa6e 28bc b35a cfbb 3b5a 1e3a
00000290: 214d 523c 91f5 993b b934 0fbc 6472 0c3d
000002a0: 5ead a13c 2660 c73b 2070 a73c 7671 d73c
000002b0: 804a 2b3a a8a1 b3bb 66cf 613a a9e1 973c
000002c0: 0adb 1e3d 1731 193d dab2 3f3c 2c90 093c
000002d0: f574 983c 5337 433c 8a21 e03c e9ea 0a3c
000002e0: a466 6f3b 980c f43c f8b5 08bc c1ec ba3c
000002f0: a1b1 9aba 40f6 313c 90f5 9abb 833c 743c
00000300: 1167 d03a 2973 c5bb ec51 6839 9f92 c13b
00000310: 88c2 a43c fc8d 833c 9fc2 bfbb e6f2 8d3c
00000320: 0205 e53b 72ca d63b 25bf 5e3c f07a b63c
00000330: 445a 6f3b fe4f 9a3c fafc de3c 7dd9 4e3c
00000340: e769 a1bb cd3f f3bb 86ba 03bc 2a51 babb
00000350: af32 cabb a089 35bc 558f 3dbc f347 7cbc
00000360: 084a 8abc 1ff9 00bd 4d2e 15bc 7c8a c1bc
00000370: de6b 6bbc 3cd0 5fbd f316 30bd 97ba 9bbc
00000380: fd5d ec3c caec 743a 4f7b dfbb e8d2 0cbc
00000390: af17 3ebc 0809 e33a 07ad f53b 684e 9ebc
000003a0: 3663 d23c e35b c53b 0ba2 ae3c 9b2e 563b
000003b0: 3a85 af3c 53f2 a43b d5ec 773c 9672 753c
000003c0: b568 ef3c f370 2e3b 3727 dd3c cb7e 66bc
000003d0: 5f00 10bc 644a 73bb 0b98 a1bc c288 8e3c
000003e0: ec62 113d 90af 213b aea2 e53b 9f32 0b3c
000003f0: 64eb aa3c 83a7 a33c 5ecd c73c 7c9b 66bc
-0.035406098 -0.047887158 -0.026550183 -0.026017409 -0.025980722 -0.060197685 -0.068036355 -0.037633713
0.034422938 0.013815795 -0.024416568 -0.0035960441 0.01671714 -0.0008434799 -0.013049241 -0.0057236166
0.0217532 -0.011183947 0.01041806 0.02301878 0.016151842 0.0107411835 0.013435786 0.026666502
0.047270328 -0.0103243 0.025534295 -0.016816627 -0.010512571 0.011565979 -0.012629662 -0.0077258414
0.06253722 0.039234847 0.020230822 0.003586069 0.01516418 0.02260478 0.025983505 -0.010528625
0.044830557 -0.002877 0.013903548 0.0041889115 0.012199141 0.010781981 0.0013731578 0.012517985
0.0030400215 0.011110667 -0.007962683 0.012682345 -0.0064123287 0.012609316 0.025025941 0.011300366
0.021908358 0.0041389777 0.020906089 0.033170626 0.02530293 0.022039192 0.018944362 0.0059214286
0.015293243 -0.00052869576 0.014202434 0.013882063 0.022063743 0.011971619 0.0068245837 0.009654331
-0.03344959 0.021202812 0.011295889 0.02076583 -0.035277206 -0.00073003455 0.015603125 0.007738478
-0.029085618 0.016630806 0.01135217 0.020409763 0.0064789783 0.0024883053 0.00989428 0.017830636
0.0041719605 0.018492026 0.030197985 0.017079353 0.010771104 0.008384642 0.0048800274 0.01991578
-0.016268719 0.0450371 0.047302864 -0.0066002584 0.02526423 0.015222451 0.01888821 0.018271811
0.0008826142 0.031952053 0.029944455 0.025043009 0.006073251 0.027330678 0.0027613374 0.027035886
0.011822701 0.051093932 0.023280913 0.017583275 0.032217897 -0.0066123996 0.014198955 0.015174804
0.01073126 0.028672064 0.020232644 0.012651884 0.019284157 0.016293274 0.033545487 0.023807894
0.03153637 0.013799924 0.026177535 0.009292766 0.038725883 0.010056551 0.01099004 0.004077621
0.011929298 0.018003898 0.031449065 0.022717584 0.011685032 0.015339463 0.031703822 0.014817473
0.014230609 0.016469907 0.0148243075 0.0116455285 -0.0018850242 0.011145979 0.0058415122 0.008780767
0.0047913245 0.026885131 0.014245985 0.007005052 0.020239621 0.01581871 0.016387768 0.010063792
-0.010633548 -0.010280365 -0.006327951 0.0006040667 0.012835772 0.0046984632 -0.008740597 0.03428878
0.019735988 0.00608446 0.020439208 0.02629922 0.00065342337 -0.0054819174 0.00086139736 0.01854022
0.03878311 0.03740033 0.011700356 0.00839619 0.018610457 0.011915046 0.027359743 0.0084788585
0.0036529684 0.029791161 -0.008344166 0.022817971 -0.0011802205 0.010861933 -0.0047289804 0.014907005
0.0015899857 -0.006025691 0.00022155762 0.005907371 0.020112291 0.016058914 -0.005852058 0.017327737
0.0069891224 0.006554895 0.013595377 0.022275418 0.0036522308 0.018836971 0.027220238 0.012625095
-0.0049259546 -0.007423377 -0.008040076 -0.005685945 -0.0061705927 -0.011080176 -0.011569818 -0.015398013
-0.016881004 -0.03148758 -0.009105277 -0.023625605 -0.014368979 -0.054641947 -0.042990636 -0.019009871
0.02885341 0.00093431456 -0.0068201195 -0.008595206 -0.011602326 0.0017321417 0.007497433 -0.019324496
0.025682073 0.0060229166 0.021317502 0.0032681588 0.021425832 0.00503377 0.015132149 0.014980933
0.029224733 0.0026617616 0.026996238 -0.014068316 -0.008789151 -0.0037123198 -0.01972582 0.017399196
0.03549473 0.0024671294 0.0070079183 0.008495956 0.020864196 0.019977337 0.024389919 -0.014075156

linear1.bias f4 [108]
00000000: 98f4 833d 0d1e fb3c be1d 213b 3e2d a13b
00000010: 2d52 4abb ce01 043c 90c8 2e3b d36b ee3d
00000020: 4621 43bc abe9 553e ecee 6e3c 16f9 9d3e
00000030: a8d2 5dbc aa00 093e 8df8 113d f1f7 303d
00000040: 550c 033d 9568 263c 1527 fe3d 5364 723d
00000050: c5b3 e03a 8268 373d 2797 fc3d bc04 be3b
00000060: 2630 5e3d 2483 a43c b485 e63d 6b0e 8ebc
00000070: 1791 9b3d bd4f 0b3e c19c caba 0913 da3c
00000080: 7c48 1f3d 477e 813e cfa9 2d3e 71a0 9e3d
00000090: ec68 d53d 56a9 acbb 7982 b5b9 b046 a03b
000000a0: 37c4 113e e40f 583e c8cb cf3c 6a9e f33d
000000b0: 27e7 0f3e c1ac 893e f9d9 c03c 8e5a adbb
000000c0: f6c4 633d 53a3 153d 078c 893e e7ee 7c3c
000000d0: f22c 113c c74a 103e d371 36bc 5847 793c
000000e0: 3b47 af3d 9014 bbbb 660d dd3c 850c 1b3d
000000f0: 76be a4bb d592 f63d b270 ecbb 4040 873d
00000100: 7a9b 273e 20c6 9c3b 90fa 36bc 3c04 553d
00000110: 87bd 563d b117 4b3c ff22 97bb 0b7a 6c3e
00000120: fa60 e03d 7151 9b3e baec 31bc 7719 9d3e
00000130: 3625 c43b 783e 163e bb90 b53d 6d20 223d
00000140: 0365 0f3e 55df 693d e469 29bb 88e8 86ba
00000150: 1c13 c3bb d7d2 843e 4a85 233d 77de ca3c
00000160: 2d35 fabb 0104 c63d fc51 ffbb 2edb c93b
00000170: 4e7b 3f3e d941 a5bb 7e5f 7dbb 887e 5f3c
00000180: 29c4 973d c26c 2d3c 163e 913c fa6e fc3d
00000190: 6f04 9c3d b871 033d bee4 2d3d 955e 293d
000001a0: e255 b53b 613b e0bb 1418 553e 0529 a23c
0.06443137 0.030653978 0.0024584378 0.0049187234 -0.0030871734 0.008057071 0.0026669838 0.116416596
-0.0119097885 0.20889919 0.014583331 0.308541 -0.013538994 0.1337916 0.035637427 0.043205205
0.031994183 0.01015677 0.12409798 0.059177708 0.0017143419 0.0447774 0.123335175 0.005798904
0.054245137 0.020082064 0.112559706 -0.01734086 0.07596033 0.13604636 -0.0015458093 0.026620405
0.038887486 0.25291654 0.16959308 0.077454455 0.10420403 -0.00526921 -0.0003462022 0.004891239
0.14235006 0.21099812 0.025365725 0.118954495 0.14053021 0.26889613 0.023541437 -0.005290336
0.05560776 0.03653271 0.26864645 0.015437818 0.008860813 0.14091025 -0.011135536 0.015214764
0.08558508 -0.0057092384 0.026983928 0.037853736 -0.0050275875 0.12039725 -0.0072155828 0.066040516
0.16367903 0.0047843605 -0.011168137 0.05200599 0.05242684 0.012395785 -0.004612326 0.2309343
0.10955997 0.30335572 -0.010859663 0.3068349 0.005985881 0.14672267 0.08865496 0.039581705
0.14003377 0.05709775 -0.002585047 -0.0010292688 -0.0059532057 0.25942108 0.039922036 0.024764283
-0.0076357336 0.096687324 -0.0077917557 0.0061601615 0.18699381 -0.00504325 -0.0038661654 0.013641007
0.074104615 0.010585012 0.0177298 0.123258546 0.07618033 0.032090873 0.042454474 0.041349966
0.0055339197 -0.006843016 0.20809966 0.01979495

linear2.weight f4 [1, 108]
00000000: c098 6a3e 30a2 273e fcc9 0fbb 3846 5a3c
00000010: efac 8fba 610c a33c b6b5 093d fc07 143f
00000020: 0050 a63c fad8 913f 521d ab3c 9e1c ba3f
00000030: 9456 19bb ac8e 2d3f 4524 c63d d1a1 3d3e
00000040: e224 7e3d 3549 8f3d bc9c 2a3f d5ac 9a3e
00000050: 1de9 cd3b db7a 4e3e d435 243f bffe 863d
00000060: 33d8 813e 6abf 8c3d caad 093f cbf2 8b3c
00000070: 9185 973e 49c0 3e3f 4769 aabc 87d9 013e
00000080: b0f5 593e 0324 8d3f 0f9f 663f a52c de3e
00000090: b218 fa3e 133d a33c 8cf3 3f3c c85a 49bb
000000a0: 83e7 6d3f f711 a73f 7eae 2e3e 48fa 0b3f
000000b0: 3b93 383f a112 a73f e423 da3d 887e 3ebc
000000c0: cc3b 6f3e 72fa 6e3e 635a a43f ec3e b23d
000000d0: a691 a03c 4e37 4c3f 53b9 61bc b40d d73c
000000e0: 66ac e83e ecfd 32bc 8445 723d 45eb f63d
000000f0: d4d9 f0ba 136f 2d3f 770c 5b3c a68b 903e
00000100: 14e4 6a3f 4acd a83c 6437 a2bb 2e29 3e3e
00000110: 1585 903e 0a35 5c3d 5368 0c3c 9a65 893f
00000120: fcad 143f 28ec b23f 838e 6c3c 8300 d43f
00000130: 2473 d63c 96d6 443f d8f5 d03e b173 4d3e
00000140: f601 213f d80a 973e 8dfe 1e3c 1692 85bb
00000150: aa44 1ebc 6e5f 963f 8eb8 143e 48be e53d
00000160: 240b a33c 5662 c13e 2f88 c7bb d9d5 603c
00000170: 6243 663f 1356 0e3d af40 12bc d15e 843d
00000180: 3298 c43e 371e e03d 209b a83d d19e 1a3f
00000190: a315 c43e 55d8 883d 98da 1d3e 53a8 263e
000001a0: e9ff 723d 7c43 4a3c 888f 983f ce31 113c
0.22909832 0.16370463 -0.002194046 0.0133224055 -0.0010961572 0.019903364 0.03362056 0.57824683
0.020301819 1.1394341 0.020888004 1.4539983 -0.0023397552 0.67795825 0.096748866 0.1851876
0.062046893 0.06996385 0.6664541 0.30209985 0.006283893 0.20164053 0.64144635 0.06591558
0.2536026 0.06872447 0.53780806 0.017083546 0.2959409 0.74512154 -0.020802153 0.12680636
0.21285129 1.1026615 0.90086454 0.43393436 0.48846966 0.019926583 0.011715781 -0.0030724276
0.92931384 1.3052357 0.17058751 0.54678774 0.72099656 1.305256 0.10651377 -0.011626847
0.23362654 0.23337725 1.2840084 0.08703408 0.0196007 0.7977189 -0.013777095 0.026251651
0.4544403 -0.0109247975 0.059148327 0.12056593 -0.0018375465 0.6774761 0.013369671 0.28231543
0.9175427 0.020605702 -0.0049504507 0.18570396 0.28226534 0.05376152 0.008569795 1.0734131
0.5807798 1.3978319 0.014438274 1.6562656 0.02617795 0.7688993 0.40812564 0.20063664
0.6289362 0.2950046 0.009704244 -0.0040762527 -0.0096599255 1.1747873 0.14523527 0.11217934
0.019902773 0.37770337 -0.0060892324 0.01372286 0.8994657 0.034750056 -0.008926555 0.06463397
0.38397366 0.10943263 0.08232713 0.60398585 0.38297758 0.06681887 0.15415418 0.16275148
0.059326086 0.012345191 1.1918802 0.008861972
