model_m5ALL_new_22000_128.pth (torch, 96075 bytes, 3 tensors)

linear1.weight f4 [108, 216]
000000 0e 26 ae 3c b4 7c 95 3c 09 cf 5c bc a7 74 82 bc
       0.02125838 0.01824794 -0.013477095 -0.015924765
000010 e5 10 18 bc 0c 69 10 bc a3 bd 0b 3c e1 77 4b 3b
       -0.009281372 -0.008814108 0.0085291 0.0031046795
000020 d6 eb 3f bb 4f 2f c9 3b cf 81 a9 3a 40 b4 c0 3b
       -0.0029284856 0.006139673 0.0012932363 0.0058808625
000030 3e 54 23 bb 18 ba 25 bc 55 8c 20 bc 81 83 4f bc
       -0.0024922038 -0.010115169 -0.009799083 -0.01266563
000040 7c fd b7 bb 45 62 31 bc 4d 4a 13 3c 70 27 b0 3c
       -0.0056149345 -0.010826652 0.008989883 0.02150318
000050 93 f7 bb bb 9f 06 93 3b 15 1a 0f 3c 3c a6 36 bb
       -0.0057363003 0.0044868733 0.008734246 -0.002787008
000060 89 be 19 3c 03 e7 53 bb cc b6 26 3c 03 5e 2f 3b
       0.009383806 -0.0032333739 0.010175418 0.0026758916
000070 ee 84 3f bc b2 ae 55 3b 32 1d 5b bb 0b 58 c2 bc
       -0.011689408 0.0032605347 -0.003343415 -0.023723623
000080 18 c6 b1 bb d1 8f ae 3b 0d f8 55 3a 47 b9 55 3a
       -0.005425226 0.005327203 0.00081622676 0.00081529137
000090 dd 13 04 bc 5f 3c 96 bc 14 4b 72 bc 50 a3 b9 bc
       -0.008061376 -0.018339334 -0.014788408 -0.022660881
0000a0 a8 25 88 3c 5e 91 2d 3c da 7b cc 3b cc 02 c0 3b
       0.016619518 0.01059374 0.00624035 0.0058597084
0000b0 22 e9 ec 3b c8 f5 e9 3b b6 d5 dd 3b cf fe f4 3b
       0.00722994 0.007139895 0.006769861 0.0074766646
0000c0 72 5d 2f bc 1c 24 12 bc 8e 0d c4 3b b0 53 12 bc
       -0.010703431 -0.008919742 0.005983061 -0.0089310855
0000d0 75 2b 49 3c b4 d8 c7 ba 6f 3e 99 3c 31 4e 54 37
       0.012278427 -0.0015247078 0.018706528 1.265439e-05
0000e0 2c 9e fe 3b 36 c5 04 3c 51 cd 10 bc f6 b3 75 bc
       0.0077703204 0.008103659 -0.008838014 -0.014996519
0000f0 1c 9a 5e 3c f3 8a d1 ba 44 f0 f9 3b 3d 6d ed 3c
       0.013586547 -0.0015986845 0.007627519 0.028982753
000100 2c bb d9 3b 61 fa 48 3c d6 64 93 3a 3c 4f fb 39
       0.006644627 0.012266726 0.0011245261 0.00047933485
000110 5f 99 29 bc a8 5b 1e bc 95 6f 90 bc 4b ad 46 3b
       -0.010351508 -0.009665407 -0.017631331 0.0030315693
000120 c9 41 94 3b 78 99 30 3c d2 93 12 bc 14 6f a7 3b
       0.0045244438 0.010778777 -0.008946376 0.005109677
000130 6d 24 ad 3b 22 5f 1d bd 40 df 1d bc 1f 5b 6b 3c
       0.0052838833 -0.038420804 -0.0096357465 0.014364987
000140 2c ae ff 3b 0b 15 b0 bb a2 ee 08 bc 8d 49 9c 3b
       0.0078027453 -0.0053736023 -0.008357676 0.00476951
000150 90 47 0e bb 88 55 25 3c 37 9a 66 3b f7 10 89 3a
       -0.0021710135 0.010091193 0.0035187134 0.0010457326
000160 dd 6b e6 3a a2 c8 2a bc 26 db 9a 3c 43 8a 4d 3c
       0.0017579753 -0.010423811 0.018903326 0.012545171
000170 e6 11 59 3c e7 d4 ec 3b fd da ce bb c4 3c 7a 3b
       0.013248896 0.0072275284 -0.0063127265 0.0038183192
000180 c8 45 93 bc a9 48 30 3c 68 30 f6 bb 9c 75 f8 ba
       -0.01797761 0.010759511 -0.0075130947 -0.0018955949
000190 91 f8 bc 3c cd 9a 85 bc 1e 84 1f 3c b8 a1 50 bc
       0.023067744 -0.016309166 0.009736089 -0.012733869
0001a0 c8 b7 6a bc 07 b7 8a bb 80 32 69 3c 8a c4 32 3c
       -0.014326043 -0.0042332443 0.014233232 0.010911116
0001b0 02 72 23 3c 66 30 27 3c ce 00 3e 3c 2a 09 d8 3a
       0.009975912 0.01020441 0.011596872 0.0016482223
0001c0 8d 67 24 3c 5a 7b 1d 3c 43 78 4f bc 7b 07 42 3c
       0.010034454 0.009611929 -0.01266295 0.011842604
0001d0 00 72 d6 ba 01 cb 7c bb 86 19 b1 3b c5 e8 39 3c
       -0.0016360879 -0.0038573148 0.005404654 0.0113470005
0001e0 d4 d5 18 ba c1 d3 34 3c 64 43 6a bc 7b cf f1 3b
       -0.0005830203 0.011036814 -0.014298294 0.00737947
0001f0 b2 99 25 3c f3 03 11 3c 9e de 89 3b 1f e0 68 ba
       0.010107445 0.008851039 0.0042074462 -0.00088834943
000200 85 54 31 bb 88 78 86 3c 7b 9f 62 3c f2 10 24 bc
       -0.0027058434 0.016414896 0.013831968 -0.010013806
000210 20 27 f8 3b eb 43 4f 3a fb 6d d1 3b c9 6b ec bc
       0.0075730234 0.0007906544 0.0063912845 -0.02885999
000220 53 22 cd bb 19 1e f1 b8 d6 8b 56 bc eb ff e7 3a
       -0.0062601953 -0.00011497382 -0.013094863 0.0017700171
000230 c3 09 33 3c 4d 1f 4b bc 7c 39 15 bc 9f 6e 89 bb
       0.01092762 -0.012397599 -0.009107944 -0.0041940953
000240 21 e5 94 39 69 31 38 3c 4d a0 cc ba 67 79 06 3c
       0.00028399474 0.011242249 -0.0015611738 0.0082076555
000250 4c fc 1b 3b f7 bf 8b bb 05 a8 01 bb ea d3 9a 3c
       0.0023801504 -0.0042648274 -0.0019783985 0.018899877
000260 ea 05 32 bc 86 c5 d5 3c 47 09 0e bb 7b 1e 2c bc
       -0.010865668 0.026095163 -0.002167301 -0.010505314
000270 c7 9a 4e bb 59 af 94 3b 9e e2 3d bc 35 59 19 3c
       -0.003152536 0.0045375046 -0.011589674 0.0093596475
000280 9d 82 b6 b9 5c 5f d3 3b 5a f6 1e bc 8c e5 3c bc
       -0.0003481106 0.0064505767 -0.0097022895 -0.011529338
000290 d2 53 cd 3a 74 c7 84 3b d4 31 a2 3a e3 04 ba 3b
       0.0015665239 0.004052097 0.0012374469 0.005676852
0002a0 3f 69 34 3c db e6 0b bc 70 df 9b 38 30 5a ed 3b
       0.011011421 -0.008538927 7.4325944e-05 0.007243417
0002b0 ae 0d c8 3b e6 ae 22 3c 7d 33 6b bb ca 7f ca bb
       0.0061051464 0.009929394 -0.0035888844 -0.0061797844
0002c0 78 9d 2d 3a b9 6b 70 bc 82 87 87 bb df 45 d1 ba
       0.0006622891 -0.014674121 -0.004136027 -0.0015966258
0002d0 f7 a6 92 bc 3f 02 ae bb e5 c6 8e 3b c7 0d df 3b
       -0.01790188 -0.0053103263 0.004357206 0.0068070623
0002e0 10 1d bc 3c 3e 8b 5c bc 65 64 f5 bb f3 3f 2d 3c
       0.022963077 -0.013460932 -0.0074887746 0.010574329
0002f0 74 e4 e8 3b 4a 6a 32 3b d5 c4 21 3c e1 ab 67 3c
       0.007107312 0.0027223998 0.009873589 0.0141401
000300 30 07 ae bc 9d 3e 3d bc 11 83 f3 3b af 78 50 bc
       -0.021243662 -0.011550573 0.007431396 -0.012724086
000310 7b 6b d1 bb 9a ed 66 3c 1b 60 91 b8 d5 f7 83 3c
       -0.0063909865 0.014094735 -6.93204e-05 0.016109386
000320 35 95 56 bb 82 08 a6 bb 25 69 7b bc 0d 4a e9 b9
       -0.0032742743 -0.005066932 -0.015344893 -0.00044496395
000330 65 50 53 3b bd a3 24 3b 34 8c 22 bc 60 d7 44 bb
       0.0032243964 0.002512201 -0.009921122 -0.00300356
000340 bd 29 b5 bc 05 59 78 3c 89 0e ff bb b1 31 bc bb
       -0.022114629 0.015157943 -0.007783715 -0.0057432284
000350 30 b0 17 3a a1 88 72 3b 6f 11 02 bc 83 ca 0f 39
       0.0005786447 0.0037007707 -0.007938727 0.00013712984
000360 40 4d 38 3c 78 40 7b bc 5d 96 d7 3b 45 76 c0 3b
       0.011248887 -0.015335195 0.006579204 0.005873474
000370 01 17 7b bc 2e 10 b9 bc dd d1 28 bd 8d e6 a9 bc
       -0.015325309 -0.022590723 -0.041215766 -0.020739818
000380 25 d6 99 3c 6d 57 b5 bb 4f 0a 10 bc e0 3c 59 bc
       0.01877887 -0.0055341036 -0.00879152 -0.013259143
000390 b2 95 0c 3c 64 6a 37 bc 3c e2 df 3b 64 5c bd 39
       0.008580612 -0.011194799 0.006832389 0.00036117726
0003a0 ef 25 54 3c 2c 44 a6 3a 75 d5 f9 3c 03 29 aa 3c
       0.012948497 0.0012685112 0.030497292 0.020771509
0003b0 8e 56 60 3c ca 86 a3 3b d0 8a 3e 3c cd 20 85 bc
       0.013692511 0.0049904333 0.011629775 -0.016250992
0003c0 60 2a c4 3c 06 ed b4 bb 91 d5 8f 3c 0c d4 44 bc
       0.023945987 -0.0055214195 0.017557891 -0.012013447
0003d0 5c 8b e8 3b 08 f4 cc 3b 2d 03 7b bb ce c7 cc bb
       0.007096691 0.0062546767 -0.0038301453 -0.0062494045
0003e0 b6 68 36 3d 84 9a d0 bb 34 b7 66 3b 01 a8 3b 3c
       0.044533454 -0.006366076 0.0035204412 0.0114536295
0003f0 95 fb 10 3c 8a ce d7 3a a6 9f 87 bc a2 8d 5f ba
       0.008849044 0.0016464752 -0.016555618 -0.000852788

linear1.bias f4 [108]
000000 8e 6f 19 3c 98 c6 9d 3c 92 3d 30 3e 51 36 43 bb
       0.009364976 0.019259736 0.17210987 -0.0029787014
000010 48 8e c5 3e a7 92 34 3e 4d 76 10 3e 89 e7 2f 3d
       0.38585114 0.17634068 0.14107628 0.04294542
000020 f7 28 be 3d 5f 47 4f 3e bd 0e 2a 3e c9 3f 1e 3e
       0.09285157 0.2024207 0.16607185 0.1545402
000030 a6 76 a0 3d e5 fb 58 3e e4 22 25 3e 8b cd 80 3e
       0.078351304 0.2118984 0.16126591 0.25156817
000040 63 36 19 3e f3 92 83 3d 52 15 97 bc 18 e7 14 3d
       0.14962153 0.06424513 -0.018442784 0.0363532
000050 aa 1d d2 3d 30 7d b7 ba fa 4e 12 3d fc dc c8 bb
       0.10259564 -0.0013999101 0.03571985 -0.006129859
000060 bf 26 5c 3e 0a a3 b1 3d f8 2e 18 bb ff a4 54 3c
       0.21499155 0.08673675 -0.0023221355 0.012978791
000070 e3 0e 48 3d cf 3e 8e 3d dc 88 2b bc 00 91 d4 3c
       0.048842322 0.069455735 -0.010469642 0.025948048
000080 f7 59 d2 3e 7e ef 41 3e 7c 72 26 3e b0 6a 4c bc
       0.41084263 0.18939015 0.1625461 -0.012476608
000090 f8 85 d0 3c cb 19 a4 ba eb 30 69 bc c5 a8 46 3d
       0.025454506 -0.0012519894 -0.014232854 0.048500795
0000a0 59 2a 50 3c f9 5d 23 3d b4 41 b2 3b 6a ff 05 3c
       0.012705409 0.03988454 0.0054399613 0.008178571
0000b0 99 fc 78 3e ca f7 86 3d 29 62 c8 3d 4b ad d6 3d
       0.24315108 0.06590231 0.097843476 0.10482272
0000c0 40 3d 43 3e 6e 37 6b 3c 02 a9 4a 3c a1 03 4f 3d
       0.19066334 0.014356477 0.012369396 0.05054057
0000d0 5e de da 3c 94 dd 85 3d db d0 e9 3c d4 5f 75 3c
       0.026717361 0.06536403 0.028541973 0.0149764605
0000e0 80 7f c5 bb 8d 07 2f 3c e5 4e eb bc 1e a6 ba 3c
       -0.006027162 0.010682953 -0.028724143 0.022784289
0000f0 57 1d 51 3d c7 6b 66 3e 9d 18 90 3c 17 44 0c 3d
       0.05105337 0.22502051 0.017589862 0.034244623
000100 41 53 13 3c 02 f8 43 bb 23 79 9e 3d bb b9 a9 bb
       0.008992017 -0.0029902463 0.07737949 -0.0051796115
000110 2c 83 73 bb 94 ee 20 3d b6 93 72 3d c4 93 67 3b
       -0.0037157042 0.039290026 0.0592229 0.0035335878
000120 7b a7 57 3e 8d d6 0c 3b fa 5f c3 ba 4e 47 e5 bc
       0.21059982 0.0021490187 -0.0014905923 -0.027988102
000130 5f dd bc 3c 5c 1f 56 3d 7f 07 3c 3e a8 4d 70 3d
       0.023054777 0.052276 0.18362235 0.05866781
000140 e7 02 95 3e 29 b5 85 3e b2 22 86 3d 9e 70 18 3c
       0.29103777 0.26114777 0.06549586 0.009304194
000150 17 f3 3a 3e b9 21 ae 3d de 6c 9d 3c 65 e8 59 3d
       0.18256794 0.08502526 0.019216951 0.053200144
000160 e6 1f 2d bc d2 ed d2 3d 7a 51 99 3c 43 a6 02 3d
       -0.010566687 0.10299267 0.018715609 0.03189684
000170 60 94 0a 3f d2 81 38 3c b1 ce 99 3e 6d 6a 19 3d
       0.5413265 0.01126142 0.30040506 0.03745501
000180 bd 35 a8 39 9d 28 15 3e 51 1a 1a 3c 29 66 fa 3d
       0.00032083495 0.14566274 0.009405688 0.12226517
000190 12 ed 77 39 4d fd 85 bc 15 b8 ba 3e 84 33 86 3e
       0.00023644071 -0.016356135 0.36468568 0.26211178
0001a0 32 4c 29 3e ed 9f 1b 3e d7 3d 87 3d a5 f6 22 3d
       0.16532972 0.15197726 0.06603592 0.039786

linear2.weight f4 [1, 108]
000000 26 5d e1 3c 9c 9d af 3d 31 e1 05 3f 32 e9 ae 3c
       0.027510237 0.085749835 0.5229674 0.02135143
000010 6d c8 8f 3f b9 3a 01 3f d8 f5 da 3e c3 2a 13 3e
       1.123304 0.5048023 0.4276569 0.14371781
000020 43 c0 91 3e 4e 8b 0b 3f d1 a5 fd 3e f1 f2 1d 3f
       0.28466997 0.5450944 0.4954057 0.61698824
000030 4a dc 66 3e ab 8c 24 3f 39 5d dc 3e 29 5d 3c 3f
       0.22544971 0.6427714 0.43039873 0.7357965
000040 fc ae da 3e bd c1 47 3e 65 f4 87 3c 42 7f 9f 3d
       0.42711627 0.19507499 0.016596029 0.077879444
000050 a4 1f 95 3e 24 a3 ac bb 4a 6d 02 3e 04 52 0b bc
       0.29125702 -0.0052684713 0.12737003 -0.008503441
000060 7b 48 19 3f 50 cb a5 3e 9c e8 d6 3b b1 c4 86 bb
       0.5987622 0.32381678 0.006558491 -0.004112803
000070 b8 7a ec 3d fd 7d 4d 3e 8c ca 09 bb ca bc ad 3d
       0.11546844 0.20067592 -0.0021025268 0.08483274
000080 44 58 99 3f 23 9e 09 3f a1 31 f7 3e 17 61 92 3c
       1.1980062 0.5375692 0.4828005 0.017868562
000090 83 d2 b9 3d 69 b1 b5 3c 22 15 99 bb 9e 63 59 3e
       0.09073355 0.022179322 -0.0046717087 0.21229407
0000a0 48 f9 9b b9 f7 41 d8 3d b0 23 25 bc 11 fe 9b bb
       -0.00029749633 0.10559457 -0.010079309 -0.0047605117
0000b0 e5 cd 2b 3f e3 2e 52 3e c9 e0 81 3e 6a ac 94 3e
       0.67111045 0.20525698 0.2536681 0.29037791
0000c0 78 92 08 3f d6 db 83 3d f9 6d 0e 3d 68 ab 14 3e
       0.53348494 0.06438415 0.034772847 0.14518511
0000d0 af d1 ba 3d 8e dd 4e 3e f4 8d aa 3d 10 92 27 bc
       0.09122025 0.20201704 0.08327857 -0.010227695
0000e0 69 cd 4a bc 6a f1 0d 3d 64 32 1f bc 25 c3 9b 3d
       -0.012378075 0.03465406 -0.009716604 0.0760558
0000f0 1b 8c 7c 3e 99 94 25 3f 70 d2 13 3d 59 26 b7 3d
       0.24662821 0.6467987 0.03608936 0.08942861
000100 89 75 d6 ba 80 7c dc 3a e8 d5 77 3e 40 98 2e bb
       -0.0016361933 0.0016821772 0.24202693 -0.002664104
000110 ea 7c a8 b9 51 39 02 3e 3b 16 3d 3e 00 3c 5e 3d
       -0.00032136525 0.12717177 0.18465512 0.05425644
000120 bc 90 19 3f 6d 79 d9 3c 76 4f b2 3c d8 6d f0 ba
       0.5998647 0.026547158 0.021766406 -0.0018343283
000130 a8 0a a1 3d 68 57 3b 3e 92 df 00 3f 1a cf 31 3e
       0.07863361 0.18295062 0.5034114 0.17364159
000140 d4 b0 97 3f 14 57 52 3f ad e2 53 3e 45 87 76 3d
       1.1850839 0.8216412 0.20691939 0.060187597
000150 e7 3a 01 3f 59 a6 87 3e 98 19 90 3d 12 ed 1b 3e
       0.504805 0.264941 0.070361316 0.15227154
000160 06 33 25 bc dc b2 a6 3e 8c c9 86 3d 34 5b a6 3d
       -0.010082966 0.32558334 0.06581411 0.08122864
000170 e3 7d c7 3f 17 78 1c 3d f0 71 5c 3f 01 c0 79 3d
       1.5585293 0.038200464 0.86111355 0.060974125
000180 bf be b7 3c 2e 2d e0 3e 06 e5 02 3e 70 08 f9 3e
       0.022429822 0.4378447 0.12782678 0.4863925
000190 f0 6d 43 3c 4b 22 fb 3b 4b 2d 89 3f d5 a6 4c 3f
       0.011928067 0.007664 1.0716947 0.79942065
0001a0 be 0b eb 3e 92 9f 1e 3f 7e 34 49 3e f6 98 64 3e
       0.45907396 0.61962235 0.1964893 0.22323975
