model_m5ALL_new_10000_127.pth (torch, 96075 bytes, 3 tensors)

linear1.weight f4 [108, 216]
000000 f3 ad 05 3b 23 0e 27 3c c1 09 8b 3c 90 cc 1f bb
       0.0020397871 0.010196242 0.016972424 -0.0024383403
000010 77 35 f3 3b 2b 79 a0 bb 4a 9b 50 bc 88 6d 75 bd
       0.007422145 -0.004897257 -0.012732336 -0.05991891
000020 3a f5 32 3e 13 6d 60 3d 11 2b b7 3d 25 6e 56 3d
       0.17476359 0.05479152 0.08943761 0.052351136
000030 f5 ee 89 3d 68 fe 9f 3d 9f 3b 8c 3d 90 e7 61 3d
       0.067350306 0.07812196 0.06847309 0.055152476
000040 08 1a 69 3d e6 a0 ef 3c c6 ac ce 3d d2 63 ad 3d
       0.05690959 0.029251527 0.10091548 0.08466305
000050 7a 3b 8c 3d 91 53 80 3d 30 fd c0 3d a9 a6 01 3e
       0.06847282 0.06265939 0.09423292 0.12661232
000060 d8 fd 2b 3e 37 ab 8c 3c 81 d2 e0 3d 10 21 ad 3d
       0.16796052 0.017171485 0.109776504 0.08453572
000070 a4 e3 0d 3d 3f 6a 50 3d 2e 40 3b 3d 90 33 b3 3d
       0.034640923 0.050882574 0.045715503 0.08750069
000080 0a 2b 7a 3e 80 b7 ea 3d 52 c0 78 3d 26 fc 17 3e
       0.2443048 0.11460781 0.060730286 0.14842281
000090 65 a3 d4 3d 59 f8 dc 3d 63 43 54 3e 2e 1f f4 3c
       0.103827275 0.10789556 0.20728831 0.029800024
0000a0 8d ef 14 3e 0a e3 a9 3d d0 ac 36 3d e3 00 df 3d
       0.14544506 0.082952574 0.0445984 0.10888841
0000b0 16 b7 86 3d a8 1b 4d 3d a2 92 95 3d 52 8e 08 3e
       0.065778896 0.050075203 0.073033586 0.13335541
0000c0 8a 70 ba 3d a2 1c 2c 3d 03 54 62 3d f0 9e a3 3d
       0.091034964 0.042019494 0.0552559 0.07989299
0000d0 ab 56 cd 3d f7 ae d4 3d 5d e8 c0 3d 47 a7 4a 3d
       0.10026296 0.103849344 0.0941932 0.049475934
0000e0 9f 30 22 3e 28 fc 11 3d 69 a8 4b 3d bd d2 88 3d
       0.1583886 0.035640866 0.049721155 0.0668082
0000f0 e3 8d 30 3d 1d a0 ff 3d c5 70 b0 3d 56 d5 07 3d
       0.043104064 0.12481711 0.08615259 0.033162437
000100 61 1b d7 3d b9 4a 3d 3d 5f 55 32 3d 9e f3 9d 3d
       0.10503269 0.04621384 0.043538447 0.07712482
000110 fe 7c dc 3d 60 d0 27 3d 60 79 83 3d 14 c8 eb 3d
       0.10766028 0.040970206 0.06419635 0.11512771
000120 06 f6 07 3d dc 48 99 3d 9e 49 3a 3d 8e 83 06 3e
       0.03319361 0.074846 0.045480363 0.13136122
000130 54 ab 74 3d 09 12 c3 3d 69 7f 98 3d 50 d9 1b 3d
       0.059733704 0.09524924 0.074461766 0.038049042
000140 18 3f 38 bd 19 c0 ce 3d f8 38 22 3e 04 6b c1 3d
       -0.044982046 0.100952335 0.15842044 0.0944424
000150 54 40 70 3d ea 86 f4 3d c7 30 33 3d d8 a0 ba 3d
       0.058655098 0.11939795 0.04374769 0.0911271
000160 10 db 1b 3d 51 6d 86 3d 6e 71 a7 3d 12 3c 9b 3d
       0.03805071 0.06563819 0.08175932 0.07579817
000170 29 9d ca 3d d2 35 a7 3d e4 cb 68 3d fb b8 e3 3d
       0.09893257 0.08164562 0.05683507 0.111192666
000180 c3 4e a2 bc 66 70 2f 3e 07 44 18 3e 7f 64 1d 3d
       -0.019812947 0.1713272 0.148697 0.03842592
000190 a9 a4 45 3e e0 0d ad 3d 3e 48 ab 3d f4 ef 1a 3e
       0.19301094 0.08449912 0.083633885 0.15130597
0001a0 a9 bd a8 3d 83 ce 16 3e 80 ff f7 3d c3 31 00 3e
       0.082393 0.14727215 0.1210928 0.12518983
0001b0 a1 8e 2e 3c 7e 40 4d 3d 03 7d a5 3d e0 24 00 3e
       0.010654123 0.050110333 0.08080485 0.12514067
0001c0 18 17 d4 3c 0b 56 07 3e b7 e5 ea 3d 01 a1 b4 3d
       0.025889918 0.13216417 0.11469596 0.088197716
0001d0 7c dc 11 3e 2c 26 3e 3d dc 66 74 3d 31 65 1a 3e
       0.14244264 0.046423122 0.059668407 0.15077664
0001e0 ed 43 e7 3c bd f2 92 3d f0 7a fd 3d f8 c9 b8 3d
       0.028230632 0.07175205 0.12376964 0.090228975
0001f0 dd 7c d6 3d 82 70 27 3d aa 4d 28 3d aa 20 9f 3d
       0.104730345 0.04087878 0.04108969 0.07769902
000200 e9 73 79 3d 6e dc 1d 3d 7c 30 97 3d d2 cd 9d 3c
       0.060901556 0.038540296 0.073822945 0.019263182
000210 e1 e5 3e 3d 0a 32 8c 3d f5 6d 12 3d 6c 4c 4f 3d
       0.04660595 0.06845482 0.035749394 0.05060999
000220 20 c8 60 3d de 80 66 3d d0 d1 c4 3d cc e0 be 3d
       0.054878354 0.05627524 0.09610331 0.0932022
000230 df d7 c1 3d c1 28 24 3e 50 21 85 3d c3 91 df 3d
       0.09465002 0.16031171 0.065004945 0.10916474
000240 15 e4 c6 3d 78 b5 d9 3d 4a ff 62 3d 89 4b 0f 3d
       0.09711472 0.106303155 0.055419244 0.034984145
000250 e0 02 95 3d f2 da 1e 3d 12 bb 58 3d be 0b da 3c
       0.07275939 0.03878302 0.05291278 0.026616927
000260 f5 7a a9 3d 41 78 75 3d 7f 0b a4 3d d5 11 b5 3d
       0.08275405 0.059929136 0.08010005 0.08841292
000270 e8 da 5d 3d 49 92 06 3e e1 a4 f5 3d d4 6a 84 3d
       0.054163843 0.13141741 0.11994339 0.06465688
000280 3a 0b fd 3c f6 d7 73 3d d3 e8 2a 3d 5f 06 d7 3d
       0.030889142 0.05953213 0.041725945 0.10499262
000290 53 79 d9 3d 7f 45 95 3d b0 27 91 3d 21 02 c3 3d
       0.10618844 0.07288646 0.07087648 0.095218904
0002a0 32 aa 8f 3d 5d 21 c6 3d 43 b9 96 3d f4 db bb 3d
       0.07014884 0.09674332 0.073595546 0.09172812
0002b0 fa 6b a7 3d 16 b3 7d 3d 78 0f d0 3d c9 04 be 3d
       0.08174892 0.061938368 0.101592004 0.092782564
0002c0 d0 d8 ea 3d 8b 19 b5 3d d6 ab 85 3d 28 93 59 3d
       0.11467135 0.088427626 0.06526916 0.053118855
0002d0 de 2e b8 3c 58 dc 9f 3d c1 05 f7 3d 75 e8 6b 3d
       0.022483286 0.07805699 0.12061644 0.057594735
0002e0 11 3e bd 3c cc c2 9d 3d 19 e3 ff 3c 26 c4 84 3d
       0.023100885 0.0770317 0.031236218 0.06482725
0002f0 b7 1d 6d 3d e0 31 f5 3c 69 d3 9f 3d 80 ea 6a 3d
       0.057889666 0.029931009 0.07803995 0.057352543
000300 15 17 d3 3d 2f 77 ad 3d dc e3 5e 3d 96 ec 90 3d
       0.10307137 0.08469998 0.054416522 0.07076375
000310 46 03 c6 3c 30 37 a8 3d 09 66 ad 3d 79 18 b3 3d
       0.024171483 0.08213651 0.08466727 0.08744902
000320 dc 8e 64 3c d3 57 b6 3d f5 90 99 3d de 79 a3 3d
       0.013950076 0.0890347 0.074983515 0.07982229
000330 fe 81 a0 3d 36 96 e0 3d 29 5e ce 3d 6d a1 cf 3d
       0.07837294 0.109661505 0.100765534 0.101382114
000340 f3 e0 25 bd e6 3b 15 bc 43 3c 8c bc 1c 1d 7d bd
       -0.04049773 -0.009108519 -0.017118579 -0.06179534
000350 bb 27 ef bc 56 f0 4c ba c4 1c e0 3c 35 21 00 bd
       -0.02919375 -0.0007817795 0.027357467 -0.03128167
000360 9f 47 54 ba e5 a7 1d bb 0c e3 cb bb d3 95 4e bc
       -0.00080978306 -0.0024056372 -0.0062221345 -0.012608963
000370 42 67 df ba 46 4a 1d bb b9 08 a2 3b ed b2 64 3c
       -0.0017044323 -0.002400057 0.0049448875 0.013958675
000380 3f 84 e7 3b 60 ae 37 bc a8 b8 1a ba e3 bc a3 bb
       0.0070653255 -0.011211008 -0.000590215 -0.0049968823
000390 e4 3f a5 bb 2a 62 d9 bc f0 18 83 3b d1 3b 1c bc
       -0.0050430167 -0.026536066 0.0040007755 -0.009535746
0003a0 81 9a 81 bc 3b d0 5a bc 4b 8b 56 bb 8b bc 0c bc
       -0.015820744 -0.01335531 -0.0032736834 -0.008589874
0003b0 f4 77 1f ba 14 62 4c bc d0 c8 15 bb b8 5f 83 bc
       -0.0006083243 -0.0124745555 -0.002285529 -0.016036853
0003c0 c0 4c 87 bb 4f a4 76 bb da 30 f3 3c 84 98 41 3c
       -0.0041290224 -0.0037634557 0.02968638 0.011816148
0003d0 5f 29 6c 3b 98 98 a2 3b 24 8b 58 3c d3 ba 8e 3b
       0.0036035401 0.0049620382 0.013216767 0.0043557673
0003e0 2b 5d 39 bb 8d 9a 48 3b b9 d1 d6 bb 08 c9 b3 bb
       -0.0028284292 0.0030609698 -0.0065557626 -0.0054866113
0003f0 1e 6d a6 bb d9 44 d5 ba a1 75 8c 3b aa 35 37 3c
       -0.0050789258 -0.0016271129 0.0042864834 0.011182228

linear1.bias f4 [108]
000000 da eb a9 3e 2b a9 06 3c 95 66 af 3d cf ee aa bb
       0.33187753 0.008219044 0.08564488 -0.0052164565
000010 35 5f 15 3f 90 99 02 3c ea 48 95 3d 7e 6e 5c bc
       0.583484 0.007971182 0.07289298 -0.013454078
000020 f6 9d 18 3d c7 91 6a bc ed 39 c0 3e 21 e2 e1 3e
       0.03726002 -0.014316983 0.37544194 0.44117835
000030 78 e9 de 3e 2d 17 70 3e e4 e9 87 bb 49 ce d4 3e
       0.43537498 0.23446341 -0.004147755 0.41563633
000040 c1 be 55 3c bf e0 ed 3c 31 cc 60 3d 76 9f 75 3e
       0.013045968 0.029037831 0.054882232 0.23986611
000050 1d ba 84 3a 1b 0e e4 3d 5a 8d 12 3d 82 65 55 3b
       0.0010126267 0.11135503 0.035779335 0.0032561724
000060 4d e5 71 3b d0 51 c1 3c ee 3d 02 3e 9b 5e 8a 3e
       0.0036910356 0.023598582 0.12718937 0.27025303
000070 e8 dd c4 3c c1 f6 4f bc 1b 9f b3 3c ee 87 ac bb
       0.024031594 -0.012693108 0.021926453 -0.0052652275
000080 14 c3 a4 3d 0e c9 dd bb ab b8 68 3d f1 0f dc ba
       0.08045021 -0.0067683524 0.056816738 -0.0016789419
000090 9f 16 82 bc 48 9a 46 3d 08 66 92 bb 26 df 1e 3d
       -0.015879927 0.048486978 -0.0044677295 0.03878703
0000a0 e4 3e 15 3d 78 d1 a8 3e 5a 70 07 3d c9 e5 96 3c
       0.03643693 0.32972312 0.03306613 0.018420117
0000b0 34 1d 2e 3e 62 84 49 3c 4d 9b 31 3e bd a4 1c 3d
       0.17003328 0.012299629 0.17344399 0.038243044
0000c0 75 5a 58 3e 68 71 b3 3d c2 42 35 3e eb 0b bb bb
       0.21128257 0.08761865 0.17701247 -0.005708208
0000d0 df 9f fe bb 0f ff 89 3e 4b 58 aa 3d 7d ff d8 3e
       -0.007770523 0.26952407 0.08317622 0.42382422
0000e0 04 b6 a6 3e 8f 5c 3d 3d 98 f7 f8 3e e7 ca b2 3e
       0.32560742 0.04623085 0.486264 0.34920427
0000f0 cf d7 b6 3a 7a fc 7c 3e 8f 5b 06 3c 6a 4f a3 3e
       0.0013949814 0.24705687 0.00820054 0.31896526
000100 d2 ce b9 3e 88 0c 8e 3e 6d 37 e3 3c 5a 63 07 3f
       0.36290604 0.27743936 0.02773639 0.52885973
000110 c5 22 c3 3e 80 5a 36 3e 38 3e b8 3e f4 d5 8a 3e
       0.38112465 0.1780796 0.3598497 0.27116358
000120 d6 ef 92 3b 60 19 77 3c ae 96 35 3d c7 46 a2 3c
       0.004484157 0.015081733 0.044333152 0.01980914
000130 7f 9c 4d 3e fd e4 90 3e b4 f3 a6 3e c5 bf a6 3b
       0.2007923 0.28299704 0.32607806 0.0050887787
000140 27 8a ac 3b 20 bc 23 3e be 68 84 3e 02 7c de 3b
       0.0052654925 0.15989733 0.25861162 0.006789685
000150 4d 89 e2 3d 58 d7 89 3e 21 90 99 3c 9a 74 47 3d
       0.11061344 0.26922107 0.018745484 0.048695184
000160 6f 3d ad 3b 19 85 0b 3e b9 31 b9 3d 74 4a e6 ba
       0.0052868645 0.13624991 0.09042687 -0.0017569796
000170 1d ef f1 3d 23 ec fe 3d 8c a7 01 3e 93 43 a0 bc
       0.11813185 0.12447383 0.1266157 -0.019563472
000180 35 06 c3 3e 79 25 16 3e bd 39 d6 3d 80 34 6a 3c
       0.38090673 0.14662732 0.104602315 0.014294744
000190 c0 94 b2 ba f1 72 51 3e 30 88 1e 3e dd bd 8e bc
       -0.0013624653 0.20454003 0.15481639 -0.017424518
0001a0 a2 3c 0d 3d 3f 90 9b 3c be 1b 3c 3e 84 10 c0 bb
       0.034481652 0.01898968 0.18369958 -0.005861344

linear2.weight f4 [1, 108]
000000 f4 cd 5d 3f 22 7d 59 3b 35 e5 4b 3e a3 65 84 3b
       0.86642385 0.0033186157 0.19911654 0.0040404364
000010 da 20 b9 3f 26 74 2a 3d 86 29 95 3e 79 03 03 3b
       1.446315 0.041614674 0.29133242 0.0019991084
000020 4c aa 3d 3e 3a 8a 20 bb bf e3 6b 3f 46 9e 8c 3f
       0.18521994 -0.0024496452 0.9214439 1.0985801
000030 0e bd 87 3f 0e e5 18 3f 39 9f d6 3a f0 6f 84 3f
       1.060457 0.5972451 0.0016374356 1.0346661
000040 f2 ae 76 3c 57 d5 c5 3d 7a f0 13 3e 96 9d 1b 3f
       0.015056359 0.09659832 0.14447203 0.6078733
000050 3f 06 e5 3c a3 14 8b 3e 73 54 e8 3d a4 1e ae 3c
       0.02795708 0.27164182 0.113442324 0.021254845
000060 3b c4 0a 3c 6d 88 31 3d 5f a9 b0 3e 7e 59 25 3f
       0.008469637 0.043342996 0.3450422 0.6458968
000070 e7 2e a5 3d 15 2c 8a 3a 69 7b 24 3d 2e d9 fd 3b
       0.080655865 0.0010541702 0.040156756 0.007746837
000080 cc b6 8d 3e e2 65 21 3c 18 ac f4 3d 8f 14 11 bb
       0.27678525 0.009850951 0.11946887 -0.0022137498
000090 33 d2 ce bb 61 3b 1b 3e be 90 7d 3b c3 a3 84 3d
       -0.006311679 0.1515937 0.003869101 0.064765476
0000a0 90 ad aa 3d df a6 59 3f 92 ae 58 3d 5d c9 2f 3d
       0.08333886 0.8502025 0.05290086 0.042916644
0000b0 bf 73 cd 3e 9a 23 17 3d c6 64 e0 3e 6a 48 ba 3d
       0.4012737 0.036899187 0.43826884 0.09095843
0000c0 34 db 01 3f ff dd 6d 3e 47 6b 0e 3f 20 a4 47 ba
       0.507251 0.23229216 0.5563244 -0.0007615704
0000d0 16 75 72 3b f9 52 32 3f 60 de 61 3e 5b 2f 81 3f
       0.0036996058 0.69657856 0.22057486 1.0092577
0000e0 08 ec 4b 3f 09 18 e7 3d 56 a7 99 3f 6a 6a 5f 3f
       0.7965703 0.11283881 1.2004192 0.8727175
0000f0 24 cc 77 3c 53 2f 18 3f 56 d7 89 3b 22 f0 44 3f
       0.0151243545 0.5944721 0.0042065782 0.76928914
000100 dd 50 5d 3f 22 9e 24 3f a0 55 94 3d 43 94 aa 3f
       0.8645151 0.6430379 0.07242894 1.3326496
000110 95 ad 6a 3f 72 19 17 3f d0 db 80 3f 9b 2d 33 3f
       0.91671115 0.590232 1.0067081 0.69991463
000120 d7 d9 7c 3c bc 5d 8b 3c f2 a7 10 3e c7 cf 7d 3d
       0.015432796 0.01701247 0.14126566 0.06196573
000130 93 ed 03 3f 60 00 2f 3f 5d d2 83 3f 9d bc c7 3c
       0.51534384 0.6835995 1.0298573 0.02438193
000140 e5 23 11 3d 87 05 d3 3e 0d f6 48 3f cc a5 a6 3b
       0.035434622 0.41215155 0.78500444 0.0050856825
000150 77 8e 88 3e 90 29 31 3f eb fa 82 3d d2 14 2a 3e
       0.26671192 0.69204044 0.06395515 0.16609505
000160 3d 76 68 bb 76 19 b8 3e f6 f2 93 3e 36 e8 42 3b
       -0.0035470866 0.35956925 0.28896302 0.002974046
000170 d4 96 95 3e 0b 89 9f 3e 82 8b 9e 3e fb a4 4f 3c
       0.29216635 0.31159243 0.3096581 0.012673612
000180 ec 86 80 3f 0e 86 b2 3e 2c 8e 81 3e 82 87 37 3d
       1.0041175 0.348679 0.2530378 0.044806965
000190 b6 f7 89 3d 0b 35 0c 3f 42 d1 c7 3e 6f 8f 42 3c
       0.067367 0.5476844 0.3902684 0.011875018
0001a0 ef ce a0 3d bb 5d 24 3d 9f b4 e4 3e 33 ce 1c 3b
       0.078519695 0.04012845 0.44669053 0.0023926615
