model_m5ALL_new_56000_131.pth (torch, 96075 bytes, 3 tensors)

linear1.weight f4 [108, 216]
00000000: 1a3b 12bd 9c11 45bd e785 dbbc 1259 d8bc
00000010: 55f6 d7bc d11a 78bd 4844 8cbd e0a7 1abd
00000020: 7ed5 0b3d 1a0f 593c aab9 cabc 3f65 8cbb
00000030: 117e 853c f77f beba 58dd 5dbc a994 ccbb
00000040: 9615 b23c 385e 37bc 73f1 2a3c 3ca0 bc3c
00000050: 855c 843c e85e 303c b6a2 5b3c 0676 da3c
00000060: 3c5d 413d 7868 35bc e6ca cf3c 7b08 8dbc
00000070: e754 37bc 0327 343c da3b 5bbc ed63 02bc
00000080: 2498 7e3d 6a35 203d db26 a13c a5ff 663b
00000090: 700b 763c 7af5 b33c d93e d33c 3256 39bc
000000a0: 939b 373d 572f 3dbb 17b8 633c 4044 893b
000000b0: 1ee5 473c db9f 303c 2f94 b33a 9037 4d3c
000000c0: b666 473b 8409 363c ea75 02bc 88c3 4f3c
000000d0: 831e d2bb 4e97 4e3c 9b0a cd3c 3034 393c
000000e0: 2879 b33c 8e70 873b c843 ab3c ecdd 073d
000000f0: c54e cf3c 898b b43c 4333 9b3c 8b08 c23b
00000100: 4340 793c d63e 0dba d68c 683c 75ad 633c
00000110: 07dd b43c b19e 443c 2f39 e03b 9bb7 1d3c
00000120: db14 0bbd b6f8 aa3c 4583 2b3c 4cac a63c
00000130: a2c2 12bd 35c6 adba 5e75 7c3c bf53 e83b
00000140: 8204 f3bc 34e6 863c 31cf 373c 9d1c a63c
00000150: 1552 ba3b e3f3 0b3b d697 193c b906 8c3c
00000160: 20a9 883b 4f7d 973c c461 f73c 02fd 8b3c
00000170: 2189 303c 0044 093c b3b0 9f3b ea30 a33c
00000180: 75bd 88bc 259d 373d 7048 403d 580c f6bb
00000190: 9eb4 cc3c 74f0 763c 9196 953c bc7a 943c
000001a0: 43d1 a439 7c86 ff3c 06f2 f03c 5d77 cb3c
000001b0: 7c17 c73b 25f8 df3c 09d2 343b 672e dd3c
000001c0: 6bfc 413c ac3e 513d 7bab be3c a206 903c
000001d0: b8fb 033d d4ac d8bb 899f 683c d29a 783c
000001e0: 2bd2 2f3c ade1 ea3c eebe a53c 3a3b 4f3c
000001f0: 80f2 9d3c 6d7c 853c fe66 093d c608 c33c
00000200: 482c 013d 1419 623c 4572 d63c b040 183c
00000210: da9e 1e3d 3bc4 243c 920f 343c 909d 853b
00000220: 0378 433c 4f81 933c 8fb6 003d 3d10 ba3c
00000230: d4e3 3f3c 1669 7b3c 8fe1 013d c3c0 723c
00000240: b626 693c 40e3 863c c4e4 723c ca08 3f3c
00000250: 4084 faba 4e87 363c 8b93 bf3b d3ec 0f3c
00000260: ff7c 9c3b 303b dc3c a274 693c 0b7e e53b
00000270: ead8 a53c 9fae 813c f646 863c a2b8 243c
00000280: 5538 2ebc 7c72 28bc 0371 cfbb 9cc4 1e3a
00000290: 11a0 523c 1325 9a3b 4600 0fbc 6472 0c3d
000002a0: 3998 a13c 3843 c73b 5f4f a73c a829 d73c
000002b0: 60b0 2a3a 4aa0 b3bb f45a 613a 76d2 973c
000002c0: fabb 1e3d 0421 193d 2349 3f3c dd89 093c
000002d0: 7d7b 983c 3c2a 433c 4940 e03c 24ed 0a3c
000002e0: ecb2 6e3b 0fff f33c b1ac 08bc 9c21 bb3c
000002f0: 0998 9aba 0f14 323c c6dd 9abb d748 743c
00000300: 1839 cf3a f969 c5bb fc61 7739 f7b2 c13b
00000310: f2e2 a43c edb6 833c ef14 c0bb 9a25 8e3c
00000320: 4e31 e43b 45b6 d53b d491 5e3c 407e b63c
00000330: 466d 6f3b 0c71 9a3c 00f3 de3c dae8 4e3c
00000340: 8e38 a0bb 1c9a f3bb 4518 04bc 8e54 bcbb
00000350: 7971 ccbb bf8f 36bc 8bc7 3dbc f591 7cbc
00000360: 831e 8cbc f0ab 01bd 32e5 17bc 1c9b c3bc
00000370: 6f11 70bc aec0 60bd af5b 31bd 7da0 9cbc
00000380: eedf ea3c a7fb 203a fad2 e5bb cb81 16bc
00000390: d4ea 40bc 7e91 b83a acd5 e83b 09ac a0bc
000003a0: ae59 d23c 8748 c53b 19b6 ae3c 5b56 553b
000003b0: 6382 af3c f713 a53b 484c 773c 4d6e 753c
000003c0: b70d ef3c 4c71 063b 69ab db3c 65f9 69bc
000003d0: dbbe 1abc 6692 83bb 0119 a5bc fb66 8c3c
000003e0: 5165 103d 41fc 1d3b 0f9b db3b f748 0a3c
000003f0: fa26 aa3c 4a08 a13c ba20 c63c 1f7e 6dbc
-0.035700895 -0.048112497 -0.026797248 -0.02640966 -0.026362577 -0.06057245 -0.06848961 -0.037757754
0.03413915 0.013248229 -0.024746735 -0.0042845304 0.016295465 -0.0014533986 -0.013541542 -0.0062433076
0.021738809 -0.011191897 0.010433543 0.023025624 0.016157398 0.010764815 0.0134054925 0.026667606
0.047208056 -0.011072271 0.025365304 -0.017215958 -0.011189676 0.010995629 -0.013380969 -0.0079583945
0.06215681 0.03911344 0.019671848 0.003524759 0.015017375 0.021967638 0.025786804 -0.0113120545
0.0448261 -0.0028867328 0.013898871 0.0041890442 0.012200622 0.0107803 0.0013700778 0.012525454
0.003042621 0.011110667 -0.007962683 0.012680896 -0.0064123287 0.012609316 0.025029471 0.011303946
0.021908358 0.0041332906 0.020906344 0.033170626 0.025306115 0.022039192 0.018945342 0.0059214286
0.015213075 -0.00053880864 0.014193734 0.013896336 0.02207805 0.012000726 0.0068427543 0.0096262945
-0.033955436 0.020870548 0.010468309 0.02034583 -0.035830148 -0.0013257923 0.015408842 0.0070900614
-0.029665235 0.016467191 0.011218832 0.020277316 0.0056860545 0.0021355085 0.009374579 0.01709305
0.004170552 0.018492369 0.030197985 0.017088417 0.010774882 0.008378029 0.004873359 0.019920785
-0.016691903 0.0448276 0.04694408 -0.0075087957 0.024988469 0.015071977 0.018260272 0.01812493
0.0003143643 0.031192057 0.02941228 0.02483719 0.0060757976 0.027340004 0.002759101 0.026999665
0.011839966 0.05108516 0.023275128 0.017581288 0.03222248 -0.0066123996 0.014198192 0.015173631
0.01073126 0.028672064 0.020232644 0.012648398 0.019280672 0.016294682 0.033545487 0.023807894
0.03153637 0.013799924 0.026177535 0.009292766 0.03872571 0.010056551 0.01099004 0.004077621
0.0119304685 0.018005995 0.0314241 0.022712821 0.011712033 0.015344879 0.03170925 0.014816466
0.014230421 0.016465783 0.01482505 0.01165981 -0.00191129 0.011140658 0.005846446 0.008784491
0.004775643 0.026883692 0.014248999 0.007003551 0.020245034 0.015830336 0.016391259 0.0100537855
-0.010633548 -0.010281201 -0.0063306107 0.0006056519 0.012855546 0.0047041266 -0.008728093 0.03428878
0.019725906 0.006081011 0.02042359 0.02626498 0.0006511267 -0.0054817544 0.0008596622 0.018532973
0.038753487 0.037385 0.011675152 0.008394686 0.018613571 0.011911925 0.027374404 0.00847939
0.0036422564 0.029784707 -0.008341954 0.022843175 -0.0011794578 0.01086904 -0.0047261445 0.0149099445
0.0015809862 -0.006024596 0.00023592258 0.005911227 0.020127747 0.016078437 -0.0058618705 0.017351914
0.0069638854 0.0065219724 0.013584573 0.022276998 0.0036533638 0.018852733 0.02721548 0.012628758
-0.0048895543 -0.0074341428 -0.008062427 -0.0057473844 -0.006239113 -0.01114267 -0.011583219 -0.015415658
-0.017104393 -0.031658113 -0.009270953 -0.023877673 -0.014652594 -0.054871254 -0.043300327 -0.019119496
0.028671231 0.0006141015 -0.0070136758 -0.0091862185 -0.011774737 0.0014081446 0.00710555 -0.019613283
0.025677528 0.006020609 0.021327065 0.0032552693 0.021424478 0.0050377804 0.01509387 0.014979911
0.029181344 0.0020514308 0.026815133 -0.014280652 -0.009444918 -0.004015255 -0.020153524 0.017138949
0.035252873 0.0024106654 0.006701834 0.008440248 0.020770539 0.019657273 0.024185527 -0.014495402

linear1.bias f4 [108]
00000000: 2396 823d a37e f73c 2ed6 273b 9a15 9c3b
00000010: c219 45bb 4257 033c d269 183b 1bad eb3d
00000020: 1a0f 43bc 42e5 3c3e 0c85 753c 1209 9d3e
00000030: 67d6 5dbc 1f4f 073e fed2 113d 66a2 2a3d
00000040: 7cad 063d 4634 223c c3a5 e13d c6ca 6f3d
00000050: 85c0 d93a f792 353d 7a65 f93d 538c c43b
00000060: 51c2 483d 4237 af3c cca9 cf3d 9360 8ebc
00000070: 75fb 993d 37a9 f53d ef76 30ba fede c43c
00000080: 9170 223d 3e5c 803e 30ba 193e df7f 9c3d
00000090: 11d7 d23d b77c a9bb a2b9 ddb9 0816 a13b
000000a0: 75a5 133e 03bf 723e e100 cd3c cdb1 f03d
000000b0: f5f8 fd3d 34dc 873e a07c bf3c dd13 abbb
000000c0: f6a2 653d 35e6 f93c 8966 8b3e b316 7a3c
000000d0: 6052 133c 0405 fd3d 47e8 35bc 4064 713c
000000e0: d7ab 9a3d 9354 b8bb 07f0 e43c 718b 193d
000000f0: 9788 a4bb 019e 003e 2355 efbb 24bd 853d
00000100: c2e4 133e c3cb 903b 81db 36bc afdd 413d
00000110: 6bae 533d 46e6 3a3c f217 99bb 3aa2 693e
00000120: 1d9b c73d f94d 983e 4977 2fbc 65e5 8a3e
00000130: 9e62 b93b b18c 033e 8359 b33d a7fc 1f3d
00000140: c8d4 0d3e 5451 503d 47e1 2bbb b0ca 89ba
00000150: c038 bdbb 4628 833e 03ea 163d 51f0 cc3c
00000160: e28f febb cd35 c43d 03c8 fdbb 7750 c33b
00000170: 2330 3d3e 7594 b4bb bb8a 73bb 9fcf 763c
00000180: 0df0 953d e79b 293c 9316 9f3c 9d9d f93d
00000190: e714 9a3d dc46 033d b611 2c3d 9e19 283d
000001a0: c18b c83b f827 e7bb 6c16 3f3e d86e a13c
0.063762926 0.030211752 0.0025609839 0.0047633173 -0.0030075167 0.008016409 0.0023256433 0.115076266
-0.011905456 0.1844683 0.014985334 0.30670983 -0.013539887 0.13213776 0.03560161 0.04165878
0.03288029 0.009900158 0.11017945 0.05854299 0.0016613161 0.04432961 0.12177558 0.0059981733
0.04901344 0.021388654 0.10139808 -0.017380035 0.07518665 0.11995166 -0.00067315897 0.024032112
0.039658133 0.25070375 0.15012431 0.07641577 0.10294927 -0.005172338 -0.00042290712 0.0049159564
0.14418586 0.23705678 0.025024833 0.11752663 0.124010004 0.2653519 0.023374856 -0.0052208737
0.056063615 0.03050528 0.27226666 0.015264201 0.008991808 0.12354472 -0.0111027425 0.014733374
0.07552307 -0.0056253164 0.027946485 0.037486497 -0.0050211656 0.12560274 -0.0073038503 0.06530216
0.14442733 0.0044188215 -0.011160732 0.047330555 0.05168001 0.0114074405 -0.004672044 0.22815791
0.097463824 0.29746988 -0.010709592 0.2712814 0.005657508 0.12846638 0.087573074 0.039059307
0.13850701 0.05085881 -0.0026226805 -0.0010512676 -0.0057745874 0.25616664 0.036844265 0.025016936
-0.007768617 0.09580574 -0.0077447905 0.00596052 0.18475394 -0.0055108615 -0.0037161547 0.015064149
0.07321177 0.010352111 0.019419944 0.121882655 0.07523518 0.03205 0.042009078 0.041040055
0.0061201756 -0.007054325 0.18660897 0.019706175

linear2.weight f4 [1, 108]
00000000: 5c4f 6a3e 9a75 273e 5e27 70bb 925d 5a3c
00000010: 51ca 20bb 3fc0 a13c 7c54 0a3d 17e8 133f
00000020: 61df a53c d745 a13f c9b9 c13c 90a7 b93f
00000030: 2eef 30bb 1263 2d3f 22fa c53d c10f 4b3e
00000040: 9524 803d a6d4 8e3d 4a93 3c3f 298c 9a3e
00000050: 3f9f c63b e641 4e3e 350e 243f ac0e 873d
00000060: 9127 8e3e 351f 903d 42ed 163f 13f9 8a3c
00000070: d058 973e d5e2 523f 6af5 c1bc 54d2 0d3e
00000080: 6bfe 673e 8ef6 8c3f e0bb 7e3f ecf7 dd3e
00000090: a8d7 f93e 9fa8 cb3c 39b8 403c d242 64bb
000000a0: 2d9d 6c3f 744a a73f 6c86 2e3e 44d1 0b3f
000000b0: c0c6 4b3f 07e4 a63f 57f1 d93d e824 45bc
000000c0: e6f8 6e3e a331 843e 9993 a33f 620a b23d
000000d0: 36d2 b33c e33d 613f 932c 63bc c658 f03c
000000e0: 8abe 003f be6f 4bbc 7880 743d fe73 f63d
000000f0: 164d 05bb f711 373f a626 5a3c a55f 903e
00000100: 49d9 813f e5c7 bd3c 2bde a1bb a812 513e
00000110: 0a57 903e 63e8 673d 1a17 093c f741 893f
00000120: cd9a 233f d08c b23f ffed 833c 5659 ea3f
00000130: f3c5 de3c 51cb 583f 04ba d03e 082f 4d3e
00000140: bcd8 203f 226d a43e 100c 1d3c 2f95 85bb
00000150: 050c 2abc 2726 963f 540b 233e e6a7 e53d
00000160: 595a a73c 1f31 c13e cf67 d0bb 3077 5f3c
00000170: 6c06 663f 3fac 1c3d 95b5 29bc 04f1 8c3d
00000180: 2f63 c43e 3cda df3d 2fbb ab3d 1f79 1a3f
00000190: f0e4 c33e d152 883d dba8 1d3e dd7d 263e
000001a0: 541b 773d a21f 3f3c 7727 a73f c0bd 0d3c
0.22881836 0.16353455 -0.0036644558 0.013327973 -0.0024534652 0.01974499 0.033771977 0.57776016
0.020248117 1.2599438 0.02364816 1.4504261 -0.002699803 0.67729294 0.0966685 0.19830228
0.062569775 0.06974153 0.73662245 0.3018506 0.006061464 0.20142326 0.6408418 0.06594595
0.27764562 0.07037202 0.58955777 0.016964471 0.29559946 0.8237737 -0.023676593 0.13849765
0.22655647 1.1012743 0.99505424 0.43353212 0.48797345 0.024860678 0.011762672 -0.0034829867
0.9242733 1.3069596 0.17043465 0.5461619 0.79600143 1.3038338 0.10641735 -0.012032725
0.23337135 0.2581912 1.2779418 0.086933866 0.021950822 0.87985057 -0.013865608 0.029339205
0.5029074 -0.012416778 0.05969283 0.120338425 -0.0020340136 0.7151179 0.013314879 0.2819797
1.0144435 0.023166606 -0.0049398146 0.20417273 0.28191406 0.056618106 0.008367324 1.0723256
0.6390808 1.3949223 0.016104696 1.8308513 0.027193999 0.84685236 0.4076692 0.20037472
0.6283071 0.32114512 0.009585395 -0.004076622 -0.010378842 1.1730393 0.1592229 0.11213665
0.020428823 0.3773279 -0.006360031 0.013639256 0.8985355 0.038250204 -0.010358234 0.068819076
0.3835692 0.10930297 0.08385312 0.60341066 0.38260603 0.06656421 0.15396444 0.1625895
0.060328797 0.011665257 1.3058919 0.008651197
