model_m5ALL_new_56000_132.pth (torch, 96075 bytes, 3 tensors)

linear1.weight f4 [108, 216]
00000000: 5fe7 85bb 3d2b 0539 e950 6abc 71db 17bc
00000010: d626 883c fcff 19bb cfb4 59bc 0a10 9cbc
00000020: 416d 493c b2db 523c 78f3 eabb 7acb 0bbb
00000030: d03c 18bc 6d73 93bb e38e b53b 2f9a 94bb
00000040: be7a 543c a601 863c 42b9 1cb9 40e1 bebb
00000050: 1d1a 61bb 4716 f03b a1f3 12bc 88f8 bfbc
00000060: 217c 983b 0e30 293c adb5 17bc 29c9 223c
00000070: e3be b3bb c8be eaba 5cac 11bc 5e67 c8ba
00000080: 61e6 9f3a 240c 283c 8c32 beba 9c82 3dbb
00000090: ec00 d03c d329 4b3c cc4d 54bc 26e2 5d3c
000000a0: 2476 36bc 25fa 90bb 8b3a bfbb 97f6 4abc
000000b0: c36b 2fbc 1f4b 83bb 6c22 e63b a888 c8bc
000000c0: 34b2 95bb 1f76 8ebb 0c11 c6bb 815f f93b
000000d0: cd56 0dbc f2cb bcbc fa7a 59bb 0bf8 0abb
000000e0: f713 a5b8 aa0e 413c 0a5f f33b 245a 3dbc
000000f0: e492 3d3c d09f d9ba eed3 363b 3418 9a39
00000100: 904f 80bc e29c 8a3c 0f52 ac3a 0a87 953b
00000110: 828a a7bb fa33 8c3b 2d58 02bb 6b21 3ebc
00000120: b5f8 873a 26bb 923c 4532 123b 7182 36bb
00000130: 8054 36ba 3dcb 11bc 1f33 d63b ba93 093c
00000140: 70c7 753c e7b4 fdbb a873 6f39 af51 6b3c
00000150: 9000 fa3b 04c8 ef3b 3a86 3e3b 6ecf 07bd
00000160: 8438 b2bb 64f0 503b 00d6 6d3b 1194 61b9
00000170: c2f8 a03b 7b4b 49bc 1bc7 9e3c 9b4e 923c
00000180: 6976 89bc 9d67 42bc 17c7 debb a0d5 a4bb
00000190: d6ee cabb 2fd5 66bc 219c 8dbb df02 693c
000001a0: 69f9 863a 4453 493c ff66 8dbc 4436 85bb
000001b0: 18cf a8bb 7747 d23b 7b60 b93a 9a1f b23b
000001c0: 64e6 05bc 4458 1cbc 571a c63c 55c7 3bbc
000001d0: be5e 803b 43c4 afbc d8f8 3f3c bd12 143a
000001e0: ce1b 9fba 5fa1 39bc 96f9 193c 3c64 aabb
000001f0: decc 67bc 6450 88bc 3b27 50bc 4214 4c3c
00000200: 230f 0e3c 1842 853c a43a 433a 3a6d 03bb
00000210: 773e 30bc ceb9 7d3b 1ebc 8ebb 10d7 153b
00000220: c327 b9b9 7a50 c3bb daa6 9ebb 6fb8 32bc
00000230: bfde 1d3a 9269 1fbc 5e43 c7bb 7d8d c0ba
00000240: f942 b73b 915b a93b 3c48 5fbc 228c 7a3b
00000250: 9ddb 24bc bed0 f0bb d80c 1e3c 4c1d 83ba
00000260: c20d b5bb f935 02bb 268f e73b 1022 30ba
00000270: 186d 7f3b 919d fa3b bba6 9e3c cf78 9c3b
00000280: b802 5ebc 3973 22bc 2caf 5dbc c38c 82b9
00000290: e235 213a 9267 b4ba fe33 5fbc df78 213c
000002a0: 5a04 5f3b 986c 7d3a 9e64 b0bb 67be a6b9
000002b0: 9b04 843c 6a0f 09ba 99f5 9a3a a069 20bc
000002c0: 4eba 843c fa9f c2bb 552d c53b 5e18 74bc
000002d0: fbb3 50bb 02f1 ae3b 3ef5 bab8 fac6 763b
000002e0: 2db4 1dbc 9f34 c13b fbe2 55b9 9401 a0bb
000002f0: 2a66 6b3c bf45 0abc 8e56 a9bc 275a be3b
00000300: 83a6 44bc b491 02bc 4559 a8bb 6c5b 1ebc
00000310: f19d 49b9 5caf 0eb9 35c0 72bb ce88 ff3b
00000320: 7ca9 5fbc 93b4 313c cce4 f239 c3b0 d9bc
00000330: c71a 5cbb e26e 813b 6533 2239 4ee2 e7bb
00000340: 4680 3dbc 9ca2 6abb 9883 373c 2321 473a
00000350: 63aa 41bc 9311 35bc 56be a4bb 1587 c9bb
00000360: 2637 38bc 5bbc 1139 5af2 463b 5ba6 1bbb
00000370: c363 56bb e758 ba3b 631d 873b 4951 1c3c
00000380: 2b1d 9c3c a726 373c b519 a03b 2f41 fb3b
00000390: 371d 253a e2dc 8b3c 3138 b83b d754 07bc
000003a0: 46b5 d83a 11ec 253c ee58 79ba a8e4 f7bb
000003b0: 9057 4dbb 5b92 e8bb 867c 7e3b 28e4 01ba
000003c0: 2be5 ba3b a23e 473c 9c80 513c 0750 8c3c
000003d0: fd48 d2b9 f5d2 153b 7b81 1ebc 4535 c2bb
000003e0: ba71 d33c 982f cf3c 6fd3 92bc c26c b1b9
000003f0: ba2d 843c 048d 5f3c d5c6 e73b 7242 ea3b
-0.0040864195 0.00012699976 -0.014301517 -0.0092686275 0.01662008 -0.0023498526 -0.013287737 -0.019050617
0.012294115 0.012869762 -0.007170137 -0.0021330998 -0.009291843 -0.004499844 0.005540715 -0.0045349817
0.012968717 0.016358208 -0.00014946333 -0.0058251917 -0.003434784 0.0073268744 -0.0089692185 -0.023433939
0.004653469 0.010326399 -0.0092596235 0.009935656 -0.005485402 -0.001790964 -0.008891191 -0.0015289595
0.0012199396 0.010256801 -0.0014510914 -0.002891696 0.025391065 0.012400108 -0.012958001 0.0135426875
-0.011136565 -0.004424351 -0.0058358363 -0.012387893 -0.010706845 -0.004006758 0.0070231464 -0.024479225
-0.0045683626 -0.004347577 -0.0060445126 0.007610262 -0.008626652 -0.023046467 -0.0033184872 -0.0021204974
-7.871532e-05 0.011783281 0.007427101 -0.011557136 0.011570666 -0.0016603414 0.0027897316 0.00029391202
-0.015662938 0.01692051 0.0013147014 0.004563217 -0.005112947 0.004278657 -0.0019888983 -0.011604647
0.0010373803 0.017911505 0.0022307795 -0.0027848745 -0.00069553405 -0.008898553 0.006536856 0.008397037
0.015001163 -0.0077425125 0.00022835901 0.014362737 0.0076294616 0.007317545 0.0029071704 -0.033156805
-0.005438866 0.0031881565 0.0036290884 -0.00021512831 0.0049124667 -0.012286062 0.01938205 0.017859748
-0.016780095 -0.011865524 -0.0067986357 -0.005030349 -0.0061930222 -0.014088913 -0.0043215905 0.014221876
0.0010297719 0.0122879185 -0.017261026 -0.004065307 -0.0051516406 0.0064172107 0.0014143133 0.005435896
-0.008172605 -0.009542529 0.024182482 -0.011461099 0.003917544 -0.02145589 0.011717044 0.0005648544
-0.0012139024 -0.011329978 0.009397885 -0.005199937 -0.014147965 -0.016639896 -0.012704666 0.012456002
0.008670601 0.016266868 0.0007447398 -0.0020054118 -0.01075708 0.0038715485 -0.0043559214 0.0022863783
-0.00035315574 -0.0059605213 -0.0048416676 -0.01090823 0.00060222665 -0.00972976 -0.006081029 -0.0014690604
0.0055927006 0.0051683863 -0.013628062 0.0038230498 -0.0100621255 -0.0073491028 0.009646617 -0.0010003238
-0.0055253217 -0.0019868596 0.007066625 -0.0006718943 0.0038974937 0.007648178 0.019366613 0.0047751437
-0.013550453 -0.009915167 -0.013530534 -0.00024900408 0.0006149692 -0.0013763777 -0.013623236 0.009855478
0.0034029693 0.0009667366 -0.0053830883 -0.00031803848 0.016115477 -0.0005228432 0.0011822461 -0.009790808
0.016202118 -0.005939481 0.006017367 -0.014898388 -0.0031845558 0.005338789 -8.914851e-05 0.003765522
-0.009625477 0.0058961655 -0.0002039782 -0.0048830006 0.0143676195 -0.00843948 -0.020671155 0.005809087
-0.01200259 -0.007969309 -0.005137595 -0.009665351 -0.00019227692 -0.00013607502 -0.0037040834 0.007798291
-0.013651248 0.010846275 0.00046328304 -0.026573544 -0.0033585296 0.003949986 0.0001546867 -0.007076538
-0.011566227 -0.003580249 0.011200808 0.00075961853 -0.0118204085 -0.011051553 -0.0050275726 -0.0061501362
-0.011243617 0.00013898445 0.0030356855 -0.0023750279 -0.0032713271 0.0056868675 0.004123376 0.009540864
0.019056877 0.011178649 0.004885877 0.0076676826 0.0006298604 0.017073099 0.005621933 -0.0082599735
0.0016533516 0.010127083 -0.0009511848 -0.0075650997 -0.003133271 -0.007097525 0.0038831546 -0.00049549574
0.0057035885 0.012160929 0.0127870105 0.017128004 -0.00040108702 0.0022861336 -0.009674425 -0.0059267604
0.025811065 0.02529125 -0.017923085 -0.00033841102 0.016135085 0.013644461 0.007073263 0.007149034

linear1.bias f4 [108]
00000000: d592 dfba aee8 7cbb d9c4 d53d 4d09 64bc
00000010: 09a2 833e f455 77bb a0eb 4c3c dbcc 053d
00000020: ac93 b73c c0e0 ce3d 908d e83c 464f ba3d
00000030: 3083 1a3e 33bc 6d3c 7bb6 883b 1749 653d
00000040: 447e 193d 0002 2bbb cb78 193d 8a90 ff3d
00000050: d952 53bb 51d5 943d 0104 ec3d e57b 443e
00000060: c245 4c3b d631 563e 419f 623e 9919 1f3c
00000070: f774 ae3b f242 853d 57d4 8cba e753 9a3d
00000080: ab62 293e 62bf d23d 7049 f6ba 2cc0 603e
00000090: 553b d13d 6b45 5d3c a876 8d3c ff04 1bbc
000000a0: 9308 ee3d 654d c63b 58b8 a938 6ee4 18bc
000000b0: 0500 943d e022 7a3e d5fa af3d 4790 023d
000000c0: 7d9d faba 3dde df3d c3ce 97bc 8f6c 6d3d
000000d0: 49cd 353e 06a3 91bc 4b5b fa3d a917 053e
000000e0: 6626 30bb 8734 e6bb 8b51 713c 4f8a 09bc
000000f0: b0df 45bc a874 c63d 4d0a 7cbc 5afc a63d
00000100: 730d 583d ee5a 80bc 67e7 963c ce69 653c
00000110: 06d6 fabb 0be9 bb3c 4374 2b3e a07a bd3d
00000120: 6d41 3c3d 9002 1aba 9030 d73d aa72 a73d
00000130: b600 a63d 71bc 183d 8020 8c3c db77 fb3d
00000140: a235 6b3d 6cf5 333c 3694 ac3c fdeb bf3e
00000150: c098 893c 5631 03bc 9bc0 093e 257d d33d
00000160: 3d67 683c 0f8d f43d 93c6 bd3b b143 b93c
00000170: 92de 3f3c f9c0 213b 2463 573d c6b7 523d
00000180: 111e d7bb b410 3a3e f122 c13c 983a 1cbc
00000190: e128 8b3b ef8a ce3d 9218 733e 4556 143c
000001a0: c7f7 04bc b216 acbc 5633 b8bb f565 933d
-0.0017057309 -0.0038590836 0.10437936 -0.013918233 0.2570956 -0.003774044 0.012507349 0.03266607
0.022409283 0.101014614 0.028387815 0.090971515 0.15089107 0.014510202 0.004172144 0.055977907
0.037473932 -0.0026093721 0.037468713 0.124787405 -0.0032245426 0.072672494 0.11524201 0.19187887
0.0031169509 0.20917448 0.22131063 0.009710693 0.005324002 0.065069094 -0.0010744435 0.07535534
0.16541545 0.102904096 -0.0018790197 0.21948308 0.10216395 0.01350532 0.017268494 -0.00946164
0.11622729 0.0060517066 8.092885e-05 -0.009331806 0.07226566 0.24427366 0.08592764 0.031875875
-0.0019120421 0.109310605 -0.018531209 0.057964858 0.17754091 -0.017777931 0.12224444 0.12997307
-0.0026878356 -0.0070253047 0.014728914 -0.008394792 -0.012077257 0.09690219 -0.015383315 0.08153601
0.0527472 -0.015668359 0.018420888 0.014002277 -0.007654908 0.022938272 0.16743569 0.092519045
0.045960832 -0.00058750156 0.105073094 0.08176167 0.08105604 0.037289087 0.017105341 0.1227872
0.057424195 0.010983806 0.021066766 0.37484732 0.01679647 -0.008007368 0.1345238 0.10326604
0.01418477 0.11940967 0.005791494 0.022615286 0.01171078 0.002468167 0.052584782 0.05144479
-0.0065648635 0.18170434 0.023576232 -0.009535454 0.0042468165 0.10085093 0.23739842 0.009053771
-0.008115715 -0.021006916 -0.005621354 0.07197181

linear2.weight f4 [1, 108]
00000000: 898c 74bc 2e5c a13c 74a8 063f b685 1e3d
00000010: ff59 993f 8321 d03c 61fa 873d a89a 183e
00000020: ea6c 4f3d f8d7 103f 3b4d 043e 39e6 e33e
00000030: e908 3f3f e634 d13d 52ff 733c c615 9e3e
00000040: 5cee 393e 305e af3c 0d88 193e 2060 3f3f
00000050: 9c66 d43c e687 b33e f131 1c3f 68a9 773f
00000060: a57e e53c 4a61 823f a655 6f3f 6fb2 d53a
00000070: 9fec 533c 44d3 be3e 4e91 bb3c 1f89 b93e
00000080: 1fab 6b3f d833 1d3f 5f05 8e3c 89aa 7b3f
00000090: 8346 003f f1e1 283c 9ab3 9c3d 039f a93c
000000a0: 1dda 2f3f b1c0 833d cf38 6ebc 2774 323d
000000b0: 86b2 893e e349 963f 11cf d83e afc6 143e
000000c0: 142a d93b 8ad1 0d3f 78f2 e13a ab93 983e
000000d0: 42de 813f 4b92 8dbc 1a1c 1c3f 4a99 1b3f
000000e0: fbca 613b c704 7e3c ef32 0d3d 15fa 85bc
000000f0: 7ae8 093d aeb4 ec3e b0f3 70bc 8e9d bf3e
00000100: 996f 803e b419 e439 91c9 e63d a64b 3b3d
00000110: 8de5 3c3d 4aa4 093e dc12 633f bd44 d93e
00000120: 99bb 463e 2e75 a73c 0aeb 0b3f a22f e23e
00000130: b8e7 db3e 3e26 453e be8b cf3d ed9f 1a3f
00000140: d07b a73e 6309 0d3d 8e02 9b3d 564b c63f
00000150: 177f 063d 32b6 f73c bcac 2b3f 7ffd f43e
00000160: 8a13 7b3d 0529 243f af68 093d 86f7 b03d
00000170: cce0 b33d d8e2 bcbb 304b 9e3e af8d ac3e
00000180: f471 9e3c b270 883f 4c1f cc3d 5d85 6f3c
00000190: 243e 153c 7f43 073f 9c18 a83f 2e14 913c
000001a0: 00a8 3abc 3274 c6bb 96e6 cd3b 2a80 e73e
-0.014926084 0.019697275 0.5260079 0.038701735 1.198059 0.025406605 0.06639553 0.14902747
0.050640978 0.5657954 0.12920086 0.44511583 0.7462297 0.10215168 0.014892416 0.30875987
0.18157333 0.021407217 0.14993306 0.7475605 0.025927834 0.3506462 0.61013705 0.9674287
0.02801449 1.018594 0.93490064 0.0016303788 0.012934833 0.37270558 0.022896435 0.36237428
0.92057985 0.6140723 0.017336546 0.9830709 0.5010759 0.010307775 0.07651444 0.020705706
0.6869219 0.06433237 -0.014539911 0.043567803 0.26894015 1.1741298 0.4234548 0.14528917
0.0066273306 0.55397856 0.0017238399 0.29800162 1.0145953 -0.017281672 0.6098038 0.60780776
0.0034453261 0.015504069 0.034472402 -0.0163546 0.033668973 0.46231598 -0.014706537 0.37424892
0.25085142 0.000435067 0.112689145 0.04572644 0.046117354 0.13441578 0.8870065 0.42435256
0.194075 0.020441618 0.54655516 0.44176966 0.42950225 0.1925287 0.101340756 0.6040028
0.3271165 0.03443278 0.07568847 1.5491741 0.032836046 0.030238245 0.67060447 0.47849652
0.06129793 0.6412509 0.0335471 0.08640961 0.08783111 -0.0057643466 0.3091674 0.33701846
0.019341446 1.0659392 0.09966907 0.014619199 0.009109054 0.52837366 1.313251 0.017709818
-0.011392593 -0.006056332 0.0062835915 0.4521497
