model_m5ALL_new_68000_795.pth (torch, 96075 bytes, 3 tensors)

linear1.weight f4 [108, 216]
0	0x3bde1f48	0.0067786314
1	0x3c63a680	0.013894677
2	0x3c97703e	0.018486138
3	0xbc156a42	-0.009119572
4	0xbc318a7c	-0.01083624
5	0xbac55cd8	-0.0015057577
6	0x3b8a8ba8	0.004228074
7	0x3c554fc8	0.01301951
8	0xbb6b4f03	-0.003590525
9	0x3c349491	0.011021749
10	0xba22f04f	-0.00062156183
11	0xbadb2f1a	-0.0016722411
12	0xbbe70b94	-0.0070509408
13	0xbb83c580	-0.0040213466
14	0xbb593a0a	-0.0033146166
15	0x3bc9c6d8	0.006157737
16	0xbabdbed4	-0.0014476427
17	0x3c258cae	0.010104341
18	0xbbf9ecc6	-0.0076271025
19	0xbbe3c22b	-0.006950637
20	0xbc71eb5e	-0.014765589
21	0xbb210b1f	-0.002457328
22	0x3bf291b3	0.0074026226
23	0x3952a484	0.00020088447
24	0xba10fa45	-0.0005530457
25	0x3ac0f7b8	0.0014722263
26	0x3bb9eb05	0.0056737685
27	0xbb7b46a8	-0.0038341675
28	0xbb87950c	-0.004137641
29	0x3c86caa1	0.016454043
30	0x3c28f33c	0.010311898
31	0x3bf50a87	0.0074780616
32	0xbbb67ef1	-0.005569332
33	0x3bee1e7f	0.007266819
34	0x3beb0439	0.0071721342
35	0xbc10eab1	-0.008845017
36	0xbc35fcca	-0.011107633
37	0xbb2a01a6	-0.0025940924
38	0xbab80202	-0.0014038684
39	0xbc3670af	-0.011135264
40	0x3b6e303b	0.0036344666
41	0xbcb59ea6	-0.022170376
42	0xbab6c367	-0.0013943732
43	0x3affef2f	0.0019526238
44	0x3c0d0b29	0.008608618
45	0x3bb4e2f2	0.005520218
46	0xbb511e19	-0.0031908809
47	0x3cc35972	0.023846362
48	0x3bad498b	0.005288308
49	0x3a27f2d0	0.00064067263
50	0x3c6feaec	0.014643412
51	0xbc1ad032	-0.009449052
52	0x38824de8	6.213394e-05
53	0x3b880304	0.00415075
54	0x3c7d851e	0.015473632
55	0x3c11f971	0.008909569
56	0x3c72bda6	0.0148157235
57	0x3b88a999	0.0041706082
58	0x3c75a514	0.014992971
59	0x3c00b177	0.007854811
60	0x3caf2c07	0.021383299
61	0x3b5e35c0	0.003390655
62	0xbc32e7a9	-0.01091949
63	0x3c16a78d	0.009195221
64	0x3c926c23	0.01787383
65	0x3b085091	0.0020799974
66	0x3bb3bb45	0.0054849708
67	0x3b0f7adc	0.0021893298
68	0xbbefb1fd	-0.007314919
69	0xbbe9f75c	-0.0071400832
70	0xbc2a6ce3	-0.010401937
71	0x3b242f22	0.0025052507
72	0xbba5b92c	-0.0050574746
73	0xbc0b100c	-0.008487713
74	0xbc43bc15	-0.011946698
75	0xbb40bde1	-0.0029410052
76	0xbbb9e84b	-0.0056734434
77	0x3cca7e0c	0.024718307
78	0xbc878e7e	-0.016547438
79	0x3b8f7487	0.004377905
80	0xbc1c09a6	-0.009523785
81	0x3c4e864b	0.01260526
82	0x3be2fc3f	0.0069270427
83	0x3cb05ffa	0.02153014
84	0x3c08d996	0.008352658
85	0x3c85994d	0.016308451
86	0xbc3a59ee	-0.01137398
87	0x3cbc7034	0.023002721
88	0x3c1a9195	0.0094341235
89	0xbaaee699	-0.001334387
90	0xba9ec02c	-0.0012111715
91	0xbc3fad7d	-0.011699078
92	0x3c0c1e16	0.008552095
93	0x3a325a6c	0.0006803635
94	0xbb90aa40	-0.0044148266
95	0xbbd10271	-0.006378465
96	0xbcaf430a	-0.021394271
97	0xbbe31a74	-0.0069306437
98	0x3bbb02de	0.005707129
99	0xbc36c8c1	-0.011156262
100	0x3b779a31	0.0037781114
101	0xbbd7d305	-0.006586435
102	0x3b4da911	0.003138129
103	0xbc142b8e	-0.009043587
104	0xbc38292c	-0.011240285
105	0xb97395c7	-0.00023230082
106	0xbbd20835	-0.0064096698
107	0xbc1b0d0c	-0.00946356
108	0x3c5b2a79	0.0133768255
109	0x3bbbcc45	0.005731138
110	0xbb3de47a	-0.0028975294
111	0xbcb93a9b	-0.022610953
112	0xbb887119	-0.004163873
113	0x3915b296	0.00014276276
114	0xba8838ed	-0.0010392942
115	0xb9515760	-0.00019964343
116	0xbbe883ec	-0.0070958044
117	0x3c3f99aa	0.011694351
118	0xbb059193	-0.0020380958
119	0xbb28233c	-0.0025655767
120	0x3b25c10d	0.002529207
121	0x3bcf79db	0.006331665
122	0xbb93fbca	-0.0045160996
123	0xbb0d6ab8	-0.0021578502
124	0x3b849a4f	0.0040467153
125	0x3c880bbd	0.01660716
126	0xbc1f6b62	-0.009730192
127	0x3b0a3208	0.002108695
128	0xbbed7644	-0.0072467644
129	0x3c173fde	0.009231536
130	0x3c1fa247	0.00974328
131	0xbb3c3cce	-0.0028722766
132	0x3c1d03d5	0.009583433
133	0xbba1d4da	-0.004938704
134	0xbb71bd05	-0.0036886346
135	0x3aff6433	0.0019484818
136	0xbcf3d435	-0.029764274
137	0xb94d0c01	-0.00019554795
138	0xbbddf65e	-0.006773754
139	0x3c888cea	0.016668756
140	0x3c3d6664	0.011560056
141	0xbb29fcad	-0.002593796
142	0xbc62090d	-0.013796103
143	0x3bee88b6	0.007279481
144	0x3cc17122	0.023613516
145	0xbc555a98	-0.0130220875
146	0x3b04275f	0.0020165069
147	0xbbaa85ee	-0.005203954
148	0x3c4468e9	0.011987903
149	0x3b5bcdfa	0.003353952
150	0x3bd9f049	0.0066509587
151	0x3ad34743	0.001611926
152	0xba6a9b37	-0.00089495204
153	0xbc845aa2	-0.016156498
154	0x3bf9d52b	0.0076242886
155	0xbb92ef27	-0.0044840756
156	0xbb07bafa	-0.0020710812
157	0x3bf30de7	0.007417429
158	0x3c0d6004	0.008628849
159	0x3d045cb3	0.032314967
160	0xbc585bd2	-0.013205485
161	0x3c494078	0.012283437
162	0xb9737716	-0.00023218649
163	0x3ccd5df0	0.025069207
164	0xbc9c2fb1	-0.01906571
165	0x3bf3266c	0.0074203517
166	0xbb352d03	-0.0027645237
167	0x3c95ba1f	0.018277226
168	0xbb925c80	-0.0044665933
169	0x3c0d10dc	0.008609977
170	0x3bcfdc80	0.0063434243
171	0xbb9afc08	-0.0047297515
172	0x3b073d5f	0.0020635945
173	0xbbb46596	-0.005505274
174	0xbbb0c5ac	-0.005394658
175	0xbbd39b4b	-0.0064577213
176	0xbc147cd5	-0.009062965
177	0x3bbef850	0.005827941
178	0x3c980af8	0.018559918
179	0xbc16b417	-0.00919821
180	0xbbc24754	-0.005928913
181	0x38175818	3.608325e-05
182	0xbb2b27d0	-0.002611626
183	0x3c0820dc	0.008308616
184	0x3c2273f5	0.009915342
185	0x3bc75590	0.006083198
186	0xbb344c3c	-0.002751126
187	0x3a854326	0.0010167107
188	0x3ba36eed	0.0049875886
189	0x3a2e13bd	0.00066405145
190	0x3aa48899	0.0012552916
191	0xbb83dab7	-0.0040238756
192	0x3bf080d0	0.0073395744
193	0xbb8ea8d1	-0.0043536206
194	0xba4bed87	-0.000777923
195	0xbadc3639	-0.0016800828
196	0x3c224f92	0.009906666
197	0xbabcac2c	-0.0014394573
198	0xbb8ea642	-0.0043533156
199	0x3aace0f0	0.0013189595
200	0x3b582afa	0.00329846
201	0xbb29b537	-0.0025895366
202	0xbbd50ac4	-0.0065015275
203	0x3be194d7	0.006884198
204	0x3c4f7039	0.012661033
205	0xbbd2d09a	-0.0064335587
206	0x3bf07d76	0.007339175
207	0x3c64d2e7	0.013966299
208	0xbbdcd1bd	-0.00673887
209	0xbae8f06a	-0.0017771844
210	0x3b7c706a	0.0038519152
211	0xbbddb3e8	-0.0067658313
212	0xbbfd2e47	-0.007726464
213	0x3b34bfcb	0.0027580138
214	0xbc8f02d0	-0.017457396
215	0xbad2b7e8	-0.0016076537
216	0xbcb45b0f	-0.022016076
217	0xbd8cc095	-0.068726696
218	0xbd03fec4	-0.032225385
219	0xbd7c096d	-0.061532427
220	0xbd24ff36	-0.04028245
221	0xbdc7117a	-0.0972013
222	0xbda7d7b0	-0.08195436
223	0xbd3d4863	-0.04621161
224	0x3d602b99	0.054729078
225	0xbc0f2f7b	-0.008739348
226	0xbcb9a681	-0.022662403
227	0xbc0f7e9c	-0.008758213
228	0x3d4fe186	0.050752185
229	0x3c90cf37	0.017676933
230	0xbc987753	-0.018611586
231	0x3afdc772	0.0019361807
232	0x3c682698	0.014169358
233	0x3c9500ae	0.0181888
234	0x3c985529	0.018595295
235	0x3cd22bb9	0.025655614
236	0x3c2ac796	0.010423562
237	0x3c114667	0.008866883
238	0x3d35708d	0.04429679
239	0x3d5f4845	0.05451228
240	0x3da333f6	0.07968895
241	0xbc838dbf	-0.0160588
242	0x3d248566	0.04016628
243	0xbd50ca73	-0.05097432
244	0xbbe3131d	-0.0069297687
245	0x3c3bb994	0.0114578195
246	0xbd41ee01	-0.04734612
247	0x3c0c4dd1	0.008563475
248	0x3dfe9e1b	0.124325
249	0x3d39443b	0.045231085
250	0xbc26bb67	-0.010176516
251	0x3d5fc467	0.054630663
252	0x3d16805c	0.036743507
253	0x3d01afcc	0.031661794
254	0x3d8a8a20	0.067646265
255	0x3b8a136a	0.00421374

linear1.bias f4 [108]
0	0xbbd04836	-0.0063562645
1	0x3dade1a3	0.084903024
2	0x3e30f9a1	0.17282726
3	0x3cd3e5d2	0.025866423
4	0x3e2dc93e	0.16971299
5	0x3cbe063f	0.023196338
6	0x3e273a28	0.16330779
7	0x3da6b80f	0.08140575
8	0x3e05674a	0.13027683
9	0x3c5cacd5	0.013468941
10	0x3c943b70	0.018094748
11	0x3ab57cf0	0.0013846438
12	0x3e2bb1dc	0.16767067
13	0x3e083917	0.13303028
14	0x3dab1f10	0.08355534
15	0xbbbc2339	-0.0057415036
16	0x3e5464e2	0.20741609
17	0x3bdd8a54	0.0067608748
18	0x3d9393f9	0.07205958
19	0x3e2ef2bd	0.17084785
20	0x3bc366e0	0.0059631914
21	0x3c88ad7a	0.016684283
22	0x3d2b9841	0.041893248
23	0x3d3ef95e	0.046624534
24	0x3ddd3021	0.108001955
25	0x3da12af7	0.07869523
26	0x3d06d529	0.03291813
27	0xbbcd3474	-0.0062623564
28	0x3d52cb05	0.051463146
29	0x3dba0196	0.09082334
30	0x3e132cb9	0.14372529
31	0xbc4d0795	-0.012514015
32	0x3d2cda55	0.042200405
33	0x3d195326	0.037432812
34	0x3d3fab5e	0.046794288
35	0x3d3605b7	0.044439044
36	0x3cd8cc91	0.026464732
37	0xbb5f9f82	-0.0034122174
38	0x3d350d4b	0.04420213
39	0x3d495749	0.049155507
40	0x3c446a66	0.011988258
41	0x3cc871b6	0.024468284
42	0x3cad9e66	0.021193694
43	0x3e3c6c2c	0.1840064
44	0x3b8237ac	0.0039739218
45	0x3be57f52	0.007003703
46	0x3b5edb6c	0.0034005297
47	0x3e420d4c	0.18950385
48	0x3cd741ae	0.026276436
49	0xbca9d238	-0.020730123
50	0xbc3be036	-0.01146703
51	0x3dfd06a5	0.12354783
52	0x3e19d1e7	0.15021478
53	0xba9aea4c	-0.0011819093
54	0x3caed57f	0.021342037
55	0x3e5036f8	0.20333469
56	0x3e4364ef	0.19081472
57	0x3bdee05d	0.0068016485
58	0x3b2c3c5e	0.0026281099
59	0x3d1db76c	0.038505003
60	0xbb619762	-0.0034422507
61	0x3d7c62c6	0.061617635
62	0xbbc341ae	-0.0059587574
63	0x3bc61a94	0.006045649
64	0x3d5d014e	0.053956322
65	0x3e339389	0.17536749
66	0x3daed6e7	0.08537083
67	0xbbb708bb	-0.0055857575
68	0x3d72750e	0.059193663
69	0x3bf55da9	0.007487972
70	0x3b8b70f4	0.0042554084
71	0x3cd18e0d	0.02558043
72	0xbbc98011	-0.0061493
73	0x3e5aa7bb	0.21353047
74	0xba8147ec	-0.0009863353
75	0x3de6064d	0.112316705
76	0x3c93ba2e	0.018033113
77	0x3b5088ba	0.0031819777
78	0x3c0a4da1	0.00844136
79	0xbc04ee01	-0.008113385
80	0x3d978d88	0.07400042
81	0x3c370451	0.011170463
82	0x3b86f9f8	0.004119154
83	0x39616603	0.00021495674
84	0xbaad142a	-0.0013204862
85	0x3c378f42	0.011203589
86	0x3c0f6235	0.008751442
87	0x3d9e77ff	0.07737731
88	0x3ce4411e	0.027863082
89	0xbb2bdf2e	-0.0026225555
90	0xbace36ee	-0.0015732923
91	0x3e5678f4	0.20944577
92	0x3a804d17	0.00097886
93	0x3c1ad9e4	0.009451363
94	0x3bff2c1b	0.00778724
95	0xba59897a	-0.00082983787
96	0x3c2f5e08	0.010703571
97	0x3d34208c	0.04397635
98	0x3cac6a1f	0.021046696
99	0x3a59e3b8	0.0008311826
100	0x3a44bbd3	0.00075047946
101	0x3b86b19a	0.004110527
102	0x3e94080a	0.28912383
103	0x3e7d3f9c	0.24731296
104	0x3b911a0f	0.0044281553
105	0xbc5ce6e1	-0.01348278
106	0x3e87f950	0.26557398
107	0x3abf4a8c	0.001459436

linear2.weight f4 [1, 108]
0	0x3c542acb	0.012949656
1	0x3ed57a5b	0.41694912
2	0x3fae61b2	1.3623564
3	0x3e051ca1	0.12999202
4	0x3f7694a0	0.96320534
5	0x3d7d3f3a	0.061827876
6	0x3f90b9f6	1.1306751
7	0x3eaf381f	0.34222504
8	0x3f137f90	0.5761652
9	0x3c6ef32d	0.014584345
10	0x3dde89bc	0.108661145
11	0x3d1e0a7e	0.038584225
12	0x3f3a5b0f	0.72795194
13	0x3f881a79	1.0633079
14	0x3eeca9ef	0.462234
15	0x3d89e0b4	0.06732312
16	0x3fdbdd76	1.717696
17	0x3de38c23	0.11110713
18	0x3eef4d21	0.46738532
19	0x3f99709a	1.1987488
20	0x3c67a8fa	0.014139408
21	0x3d89bb48	0.06725174
22	0x3e1b3ea3	0.15160613
23	0x3e30de6b	0.17272346
24	0x3f4aa78c	0.79161906
25	0x3ea7c007	0.32763693
26	0x3e3f6908	0.1869241
27	0x3c8f82f8	0.017518505
28	0x3e8fc146	0.28077143
29	0x3ece8a78	0.40340018
30	0x3f09bb66	0.5380157
31	0x3ad42cf3	0.0016187712
32	0x3dcd545b	0.10025855
33	0x3db74a87	0.08949762
34	0x3e44e8e2	0.19229463
35	0x3e212105	0.15735252
36	0x3e65370f	0.22384284
37	0x3cb28238	0.021790609
38	0x3e7e5157	0.24835716
39	0x3e22fc7c	0.15916628
40	0x3c8d5912	0.017254386
41	0x3c69acf7	0.014262429
42	0x39f40a55	0.00046547005
43	0x3f82e10d	1.022493
44	0xbc55ed77	-0.013057104
45	0x3dc3cdd9	0.09560747
46	0x3db4dd08	0.08831221
47	0x3fd281d9	1.6445876
48	0x3db72c49	0.089439936
49	0x3cd778f7	0.026302798
50	0x39113e5d	0.0001385151
51	0x3f1e3501	0.6179963
52	0x3f2a6dcf	0.66573805
53	0x3ccdd9a9	0.025128203
54	0x3dd1d4b3	0.10245647
55	0x3f6143ea	0.87994254
56	0x3fbd1581	1.4772187
57	0xbb45d5a1	-0.0030187147
58	0x3cf62478	0.030046687
59	0x3e2b2c86	0.16716203
60	0x3bcfcc99	0.0063415286
61	0x3e8ae11d	0.27124873
62	0x3d89e735	0.06733552
63	0x392c9dc2	0.00016461968
64	0x3e1e3fdb	0.15454046
65	0x3f88d3e2	1.0689662
66	0x3ed2b23d	0.4115161
67	0x3c984739	0.01858865
68	0x3e94cd8b	0.29063067
69	0xba2c162c	-0.0006564583
70	0xbb7b78e7	-0.0038371624
71	0x3dce5777	0.10075276
72	0xbc1fd06e	-0.009754283
73	0x3f9555a7	1.1666764
74	0x3e121e8d	0.14269467
75	0x3ec8b96c	0.39203966
76	0x3e4fba43	0.20285897
77	0x3d3827c1	0.044959787
78	0x3d11789d	0.035515416
79	0x3c037bf7	0.008025161
80	0x3e738de5	0.23784597
81	0x3ddc07d8	0.107436836
82	0x3d0485de	0.03235423
83	0x3d238cc0	0.03992915
84	0x3ca179c0	0.019711375
85	0x3dbf7c7a	0.09349914
86	0xbc0e5c18	-0.008688949
87	0x3ef8c769	0.48589638
88	0x3e3fd67b	0.18734162
89	0xbc60cbf3	-0.0137205
90	0x3c8fe409	0.01756479
91	0x3fdac931	1.7092649
92	0x3ca73248	0.020409718
93	0xbbc7a7c3	-0.006092997
94	0x3c630204	0.013855461
95	0xbc0f0af2	-0.008730637
96	0xbb1a55bb	-0.0023549634
97	0x3e6217da	0.22079411
98	0x3d3d6e6e	0.046247892
99	0x3cad2504	0.021135814
100	0xbbad0969	-0.005280663
101	0x3c1a217b	0.009407396
102	0x3fb7fe4e	1.4374483
103	0x3fab85b9	1.3400184
104	0x3d75260d	0.05985074
105	0x3d65105a	0.055923797
106	0x3f985eb9	1.1903907
107	0xbbd79417	-0.006578933
