model_m5ALL_new_18000_799.pth (torch, 96075 bytes, 3 tensors)

linear1.weight f4 [108, 216]
-0.043893617 -0.015978845 -0.0030109885 0.006101577 -0.020196155 -0.0147479 -0.00019839981 0.0064018113
-0.012275258 0.020767516 -0.02153869 -0.008235927 0.005341945 0.008845616 0.003558599 0.019431004
0.005037355 -0.036456395 -0.0021600702 -0.030016553 0.0044827727 -0.0023260063 0.008192118 -0.005575993
0.002892569 -0.0074065044 0.0036347795 0.013593866 -0.008117655 0.0023671105 -0.014464608 -0.0022939155
0.008306934 0.0075297984 0.00682883 -0.00088090915 -0.0058555277 0.006441639 0.0041829594 0.011032794
-0.010522636 0.0057879835 0.0010717113 -0.0014045758 0.001818347 -0.007493987 0.012969575 -0.0060952706
0.014282943 0.007272449 0.0011586616 -0.010974739 -0.006982512 0.0150962295 -0.006358734 0.0018775142
-0.016692469 0.0034983465 -0.00022291687 0.005838954 0.0139885545 0.004964183 0.008953785 0.0055092094
0.004148787 0.004472185 -0.045247924 -0.0040124636 -0.061659176 -0.033784352 -0.061805915 -0.050290868
-0.014045659 -0.0087877475 0.012608961 -0.004715696 -0.007938241 -0.014661245 -0.006743659 0.011694567
-0.011001485 0.0010091292 0.0061182603 0.008534438 -0.0019629642 0.0017509613 0.0124148885 -0.013580302
-0.0014836922 -0.012454217 0.0068139946 -0.018937549 -0.014189619 0.014116626 -0.014533292 0.0015935394
-0.0016248698 0.010651732 0.015914494 -0.006294752 0.006883856 0.015180932 -0.004023026 0.012805742
0.017323798 0.0053727375 -0.0057658935 -0.0022579147 -0.005782656 0.00072331 -0.0037698385 -0.0061451006
0.004768495 0.011222766 -0.02058924 0.028083898 0.008467325 0.0072108284 0.005114441 0.012086288
-3.6823194e-06 -0.0072537814 -0.014422717 0.010944388 0.00046121716 -0.0100805545 -0.0015387064 -0.0016975612
0.0006760164 0.010820426 0.015398443 0.011424931 0.016653113 0.0064123864 0.00513333 -0.004481102
-0.00061867776 -0.0028149355 -0.0048182346 -0.011661668 0.019408597 -0.014029652 -0.0046379645 -0.0124779735
-0.0013247861 0.008099983 -0.041704588 -0.00017841769 0.0038008331 -0.005116375 0.0072118114 0.0029724063
-0.0039876522 -0.003724927 -0.006147833 0.011247488 0.011816824 0.004709026 0.009082029 -0.004727202
-0.021306764 0.006130167 -0.038261414 -0.026759326 -0.06917603 -0.02888863 -0.053087268 -0.046956025
-0.0015063247 0.007828866 0.017022295 0.018571507 -0.00043245178 -0.014519724 0.012075197 -0.0040478325
-0.0030188411 -0.000761988 -0.00054506306 0.012037302 0.021061953 0.009389255 -0.011303713 -0.0036491486
0.0058927005 0.0055367863 0.0043578767 0.012708997 -0.0069775395 0.010266749 -0.0018233738 -0.0031825826
-0.023115069 -0.04818496 -0.03204048 -0.034829903 -0.049059197 -0.05782001 -0.046275847 -0.020632567
0.0024647412 0.013246388 0.0012979431 0.011160397 -0.0074390913 -0.0013148288 -0.011395662 -0.0008912628
-0.30814305 -0.25331974 -0.22945014 -0.232084 -0.22048447 -0.19240434 -0.20315802 -0.21413958
-0.026025062 -0.06560543 -0.028523825 -0.018355265 0.021658294 0.013868275 -0.0077187167 -0.04091107
0.10451057 0.050490536 -0.005354674 -0.023361934 0.04711042 0.023369085 0.052845173 0.04641256
0.010521445 0.0023886568 0.021961445 0.033938553 0.015384414 0.02456028 0.0057645016 0.071110524
0.1507395 -0.008692145 0.058703605 -0.0020461031 -0.015334812 0.020224959 -0.005479677 0.056756534
0.18116657 0.08707832 -0.0063699065 0.076886356 0.0824888 0.07489166 0.122780666 0.029614145
00000000: cbc9 33bd 11e6 82bc 0154 45bb bdef c73b
00000010: 6872 a5bc 2da1 71bc 8b09 50b9 49c6 d13b
00000020: 2a1e 49bc a320 aa3c e871 b0bc fbef 06bc
00000030: 7c0b af3b 34ed 103c 6237 693b c52d 9f3c
00000040: 6510 a53b 4d53 15bd f78f 0dbb 46e5 f5bc
00000050: 39e4 923b e96f 18bb 3c38 063c d2b6 b6bb
00000060: 4191 3d3b 43b2 f2bb 7b35 6e3b ceb8 5e3c
00000070: eaff 04bc 8621 1b3b f7fc 6cbc 8455 16bb
00000080: ce19 083c 87bc f63b 61c4 df3b d0ec 66ba
00000090: badf bfbb 6214 d33b 3511 893b e4c2 343c
000000a0: 2267 2cbc 20a9 bd3b aa78 8c3a be19 b8ba
000000b0: 9a55 ee3a 1f90 f5bb 577e 543c d6ba c7bb
000000c0: 0103 6a3c b94d ee3b 3bde 973a 64cf 33bc
000000d0: 8ecd e4bb 2d56 773c ed5c d0bb ec16 f63a
000000e0: a5be 88bc 8444 653b cbbe 69b9 b254 bf3b
000000f0: 4030 653c 96aa a23b e5b2 123c 9986 b43b
00000100: 8cf2 873b 688b 923b e355 39bd fc7a 83bb
00000110: 558e 7cbd 7661 0abd 3328 7dbd ccfd 4dbd
00000120: c41f 66bc 7cfa 0fbc d195 4e3c 2086 9abb
00000130: 650f 02bc b835 70bc e9f9 dcbb 929a 3f3c
00000140: 933f 34bc c244 843a b07b c83b 07d4 0b3c
00000150: 13a5 00bb 8380 e53a d167 4b3c ea7f 5ebc
00000160: 7378 c2ba c60c 4cbc ee47 df3b eb22 9bbc
00000170: 937b 68bc 6c49 673c 0b1d 6ebc 4fde d03a
00000180: 95f9 d4ba 9a84 2e3c 1d5f 823c 3544 cebb
00000190: f891 e13b 72b9 783c 97d3 83bb 2dcf 513c
000001a0: a3ea 8d3c ca0d b03b d2ef bcbb 86f9 13bb
000001b0: 6f7c bdbb 839c 3d3a 650f 77bb d75c c9bb
000001c0: 0941 9c3b b1df 373c c4aa a8bc 3410 e63c
000001d0: 89ba 0a3c d048 ec3b 0a97 a73b 9105 463c
000001e0: c41d 77b6 21b1 edbb 424d 6cbc 1750 333c
000001f0: 85cf f139 e928 25bc 6bae c9ba b480 deba
00000200: b136 313a 2848 313c c049 7c3c a22f 3b3c
00000210: 1c6c 883c ff1e d23b 7e35 a83b 35d6 92bb
00000220: c32e 22ba c87a 38bb 48e2 9dbb 9510 3fbc
00000230: c7fe 9e3c a0dc 65bc 11fa 97bb 6a70 4cbc
00000240: 72a4 adba cbb5 043c 6ed2 2abd a215 3bb9
00000250: 6617 793b 44a7 a7bb 0f51 ec3b b4cc 423b
00000260: daaa 82bb e81d 74bb c373 c9bb 6247 383c
00000270: 5a9b 413c 2c4e 9a3b cacc 143c a5e6 9abb
00000280: 868b aebc 91df c83b 00b8 1cbd 6036 dbbc
00000290: 2aac 8dbd d9a7 ecbc 0972 59bd f654 40bd
000002a0: df6f c5ba a544 003c 5772 8b3c 4623 983c
000002b0: b2ba e2b9 23e4 6dbc 0cd7 453c aea3 84bb
000002c0: c0d7 45bb 26c0 47ba 90e2 0eba 1b38 453c
000002d0: 1e8a ac3c 64d5 193c 3533 39bc 8e26 6fbb
000002e0: 8e17 c13b ee6d b53b 85cc 8e3b 6639 503c
000002f0: d8a3 e4bb de35 283c 46fe eeba e092 50bb
00000300: d05b bdbc 985d 45bd e13c 03bd cda9 0ebd
00000310: 4cf2 48bd add4 6cbd be8b 3dbd a105 a9bc
00000320: 7f87 213b 6107 593c be1f aa3a 19da 363c
00000330: 9fc3 f3bb 5556 acba dfb4 3abc a2a3 69ba
00000340: edc4 9dbe 20b3 81be faf4 6abe 6ea7 6dbe
00000350: aec6 61be a505 45be a808 50be 6847 5bbe
00000360: 8332 d5bc 245c 86bd ccaa e9bc c85d 96bc
00000370: bc6c b13c c337 633c 4aed fcbb 5e92 27bd
00000380: a309 d63d 2acf 4e3d 4376 afbb 8761 bfbc
00000390: dbf6 403d 8670 bf3c 2e74 583d 191b 3e3d
000003a0: 2462 2c3c 038b 1c3b 7de8 b33c 2703 0b3d
000003b0: e90e 7c3c a432 c93c 25e4 bc3b 65a2 913d
000003c0: 755b 1a3e 8069 0ebc 3173 703d ea17 06bb
000003d0: dd3e 7bbc d0ae a53c dd8e b3bb 8a79 683d
000003e0: bb83 393e 1e56 b23d a6ba d0bb 9876 9d3d
000003f0: e3ef a83d cc60 993d 6e74 fb3d 5d99 f23c

linear1.bias f4 [108]
-0.043225296 0.12157558 0.03470356 0.21817602 -0.009684383 -0.035657063 -0.0058687837 -0.0265064
-0.051162478 0.005647004 0.1100129 0.0032490478 0.0043637794 0.153289 -0.009310987 -0.010380618
0.1467641 -0.008807955 -0.02458823 0.4404753 -0.08127344 0.010272441 0.0021677883 0.0033210749
-0.063680775 0.0038984844 0.016262064 0.08067667 0.19883192 -0.06970867 0.009102649 -0.0015917302
0.01227986 -0.0018331402 -0.0135578355 0.097870186 0.22519381 0.06280499 0.38411784 0.064840704
-0.020303674 0.0049743727 0.053875733 -0.011999535 0.2980536 0.08950726 0.16975011 -0.003326152
0.0048971158 -0.006149938 0.038394995 -0.010978274 -0.021143349 0.13434938 0.09373564 0.0067430795
-0.04100519 0.15245478 0.07655045 0.27867717 0.37278408 -0.020870559 -0.01295833 -0.0080149295
0.003897224 0.47958034 0.045889854 0.0052472563 0.12539628 0.3494224 0.068963274 -0.009276332
0.16682146 0.06483791 0.12905973 0.0008269378 0.014155785 0.04147589 0.12791376 0.0035321715
0.13702169 0.22773491 0.08608282 -0.0007304037 -0.007866383 0.10134931 -0.027438711 -0.008997758
-0.013453177 0.3418013 -0.033469517 -0.04788043 -0.0038131014 0.0195559 0.020949349 -0.0003619859
0.009545773 0.073972344 0.24255785 -0.0035615722 -0.0037876654 -0.014833167 0.006621382 -0.006761666
-0.014313916 -0.0014673611 0.29182395 -0.005523411
00000000: 020d 31bd 9efc f83d 5225 0e3d 8969 5f3e
00000010: 3fab 1ebc 240d 12bd ed4e c0bb f323 d9bc
00000020: bf8f 51bd 810a b93b 714e e13d faed 543b
00000030: 09fe 8e3b cbf7 1c3e 1c8d 18bc 7813 2abc
00000040: 5449 163e 3e4f 10bc 416d c9bc fb85 e13e
00000050: b072 a6bd be4d 283c 7411 0e3b 64a6 593b
00000060: 116b 82bd b77d 7f3b 0538 853c cf39 a53d
00000070: 989a 4b3e 6bc3 8ebd 4723 153c 9aa1 d0ba
00000080: 7731 493c fa45 f0ba af21 5ebc 2a70 c83d
00000090: 3599 663e e79f 803d 18ab c43e 34cb 843d
000000a0: e453 a6bc 1000 a33b cdac 5c3d b399 44bc
000000b0: 7b9a 983e 954f b73d f9d2 2d3e 92fb 59bb
000000c0: fc77 a03b 6b85 c9bb 1244 1d3d 38de 33bc
000000d0: d134 adbc e292 093e 79f8 bf3d 0df5 dc3b
000000e0: 0ff5 27bd 1b1d 1c3e 7bc6 9c3d c6ae 8e3e
000000f0: 8edd be3e bcf8 aabc 2d4f 54bc 0d51 03bc
00000100: 9268 7f3b 8e8b f53e 00f7 3b3d 2df1 ab3b
00000110: e267 003e 7ee7 b23e 9e3c 8d3d c2fb 17bc
00000120: 3fd3 2a3e bdc9 843d 3c28 043e dbc6 583a
00000130: aaed 673c 9fe2 293d d3fb 023e 017c 673b
00000140: 6a4f 0c3e 5733 693e 314c b03d 9078 3fba
00000150: 00e2 00bc 3a90 cf3d 26c7 e0bc 556b 13bc
00000160: b76a 5cbc 9400 af3e 5517 09bd 451e 44bd
00000170: 3ae5 79bb b233 a03c f89d ab3c edc8 bdb9
00000180: e065 1c3c d07e 973d 1661 783e 4469 69bb
00000190: 7b3a 78bb d006 73bc 2ef8 d83b f790 ddbb
000001a0: ea84 6abc 7854 c0ba f369 953e bbfd b4bb

linear2.weight f4 [1, 108]
0.19112954 0.530942 0.039013118 0.47827005 0.015666466 0.37707 -0.009254899 0.008248269
0.2253871 -0.005020673 0.23307213 0.03145574 0.07676436 0.68324333 0.028787633 0.112146616
0.60710716 0.028296165 -0.03346022 1.7655618 0.40099105 0.012912577 0.004579443 0.016590593
0.9952686 0.47719654 0.3815829 0.42732814 0.35945982 0.5543277 0.029872362 0.02434094
0.03065555 0.046462156 0.02619504 0.32281262 1.390105 0.3374597 1.3684614 0.3326717
-0.003274537 0.030685442 0.08436424 0.010289252 1.172176 0.4954991 0.7119147 0.011674852
0.0075681396 0.028153826 0.15056734 -0.016014542 0.05741787 0.31534064 0.39230123 0.004749917
0.10718957 0.73000014 0.11199145 1.1062167 1.4918379 -0.0067077456 0.002276148 -0.006157114
0.29943204 2.083746 0.13990209 0.03451258 0.5949969 1.4141192 0.07714917 0.10459258
0.42266217 0.22036266 0.47497237 0.00761236 0.08745399 0.05262329 0.5851231 0.042574625
0.21791446 0.8387282 0.53272206 0.010145909 -0.013575783 0.1360295 0.42414883 -0.0036631294
0.032509595 1.533004 0.05749906 0.0033050403 -0.0077728066 0.01047665 0.016829267 -0.007993
-0.010798975 0.35440323 0.7663162 -0.0006844813 -0.004685898 -0.024607632 0.042553708 0.0013592669
0.004281397 -0.011395012 1.3856027 -0.0031909833
00000000: 76b7 433e d1eb 073f 38cc 1f3d d0df f43e
00000010: f656 803c 520f c13e dca1 17bc bf23 073c
00000020: e0cb 663e 7584 a4bb 76aa 6e3e bcd7 003d
00000030: a236 9d3d 09e9 2e3f 0bd4 eb3c 20ad e53d
00000040: 606b 1b3f 5ccd e73c 950d 09bd eefd e13f
00000050: b34e cd3e 468f 533c 270f 963b ffe8 873c
00000060: ecc9 7e3f 1b53 f43e d55e c33e c1ca da3e
00000070: 1e0b b83e 6ce8 0d3f e2b6 f43c a766 c73c
00000080: 5921 fb3c 1a4f 3e3d fb96 d63c b247 a53e
00000090: f6ee b13f 85c7 ac3e be29 af3f f253 aa3e
000000a0: 9d99 56bb 0960 fb3c 29c7 ac3d 4094 283c
000000b0: dd09 963f 0fb2 fd3e 0b40 363f e147 3f3c
000000c0: 28fe f73b daa2 e63c 532e 1a3e ee30 83bc
000000d0: 002f 6b3d 5474 a13e b5db c83e 31a5 9b3b
000000e0: 3586 db3d 4ae1 3a3f c65b e53d 8298 8d3f
000000f0: 8bf4 be3f a6cc dbbb 6d2b 153b 9ec1 c9bb
00000100: 284f 993e 185c 0540 7e42 0f3e 105d 0d3d
00000110: b851 183f dc01 b53f 6200 9e3d a234 d63d
00000120: 2d67 d83e c0a6 613e 942f f33e 1b71 f93b
00000130: 141b b33d 858b 573d a1ca 153f bb62 2e3d
00000140: f824 5f3e e4b6 563f 7960 083f 073b 263c
00000150: f66c 5ebc 514b 0b3e 092a d93e 1d11 70bb
00000160: c828 053d 7a39 c43f 2284 6b3d 6099 583b
00000170: 07b3 febb 41a6 2b3c 88dd 893c 12f5 02bc
00000180: 2fee 30bc 5774 b53e 4c2d 443f c36e 33ba
00000190: 298c 99bb f295 c9bc cc4c 2e3d 6e29 b23a
000001a0: f64a 8c3b 25b2 3abc 6e5b b13f d11f 51bb
