model_m5ALL_new_14000_127.pth (torch, 96075 bytes, 3 tensors)

linear1.weight f4 [108, 216]
00000000: 8875 813c eeae aebc 2134 193c 2e9b 82bc
00000010: 2ba6 b2bc ce48 c3bb 1b42 ffbc 5adf 8cbd
00000020: 8d0e 283e 54d9 593d 0ed6 923d 699b 953d
00000030: 8937 9a3d 188a 623d 5fd7 9b3d ad1a 563d
00000040: bd6d 6e3d 5e91 133d c441 c33d 01ba a83d
00000050: f525 6d3d 597e 563d cd3b b63d 9a25 013e
00000060: a606 1d3e 221d 293b 418d aa3d ed52 833d
00000070: 45cb fc3c 415d 633d 6383 043d db17 e03d
00000080: 3287 693e 0071 d43d 6b18 9e3d 2312 103e
00000090: 719b e13d 2c87 cb3d a877 473e 9ac9 c23b
000000a0: a818 113e 696d a03d ba94 113d dff6 d43d
000000b0: 534b 813d 84c6 803d 551e 6c3d 161e 193e
000000c0: faa9 c83d 5cc4 2d3d f799 643d dd69 a33d
000000d0: 9e48 cd3d 9398 d43d 5bd2 c03d 7d90 4f3d
000000e0: 4576 223e d0ef 113d e59c 4b3d 6abf 883d
000000f0: 5f14 313d b19e ff3d 816c b03d 48af 073d
00000100: c546 ce3d d141 503d ede7 523d 9bd3 883d
00000110: 7ab6 d53d cb6c 013d cc48 613d 882b de3d
00000120: 3861 08bc 8bd8 a03d 4ede 623d eeab e33d
00000130: aca7 6c3d c2f3 ac3d 2392 9a3d 3706 e63c
00000140: 3cb0 94bd 2da1 9b3d de10 0c3e 8322 9d3d
00000150: ed5a 723d d5b5 d53d 0dc2 5e3d d2de 923d
00000160: 9f38 093d 53b8 893d 64c6 9d3d 0823 9b3d
00000170: 4a17 ce3d ddec a93d 4bc1 6a3d c27a e73d
00000180: fed4 87bc 919b 233e ecb3 0d3e ec1a 6f3d
00000190: 271f 323e ecaf bc3d 1e11 9b3d 5be4 113e
000001a0: 548a 513d d275 e03d 57a2 bf3d 6f10 eb3d
000001b0: 8a2d 653c a3cb 603d 326c a13d fbf2 f43d
000001c0: 327f a83c 0826 073e a4be e33d 09e0 b03d
000001d0: 6fa7 113e 45e4 713d 44ff 843d 2f43 1a3e
000001e0: 08a3 e73c 89fb 923d ee7e fd3d 8d0f b93d
000001f0: 7dd3 d63d 13e2 263d 429c 293d 2122 9d3d
00000200: 2979 793d b5f3 203d 8938 973d f204 a73c
00000210: 2fbc 403d 513c 8c3d 1cd5 123d 06e7 573d
00000220: dbc0 973d ae43 743d e224 b43d d8bd 9d3d
00000230: 872e b03d fd35 203e 9c3f ae3d 94e9 c23d
00000240: 65c4 c93d 7c57 d33d a4c6 6d3d 28d9 163d
00000250: f0e6 8e3d cdab 0d3d 4fed 6d3d b3d8 fa3c
00000260: f43a ba3d ce0b 8a3d 8404 b13d 64c3 ae3d
00000270: 10b1 5f3d de1a 033e 1869 ed3d bc2a 7f3d
00000280: cb66 203d e64d 743d 1344 2a3d e637 d53d
00000290: 225e d83d 8bb3 943d 6bb3 8f3d 6547 cd3d
000002a0: f26b 7d3d f3fb d93d 0362 943d 7f54 bd3d
000002b0: ebfd a33d c927 7d3d c539 c33d e0c4 a73d
000002c0: 27e8 e63d b7e2 c33d ff17 ac3d de9e 623d
000002d0: ef0c 1b3d d40b 9e3d 05fc f63d 39be 513d
000002e0: 37b2 143d 92f7 963d 0771 ec3c 8e27 823d
000002f0: 7684 683d a6b7 cc3c 8e31 9a3d cfeb 5a3d
00000300: 8ef2 cd3d fda4 be3d a1e9 533d 0a90 8a3d
00000310: 157f 843c e87d a93d dd77 ba3d fc4e c33d
00000320: e671 df3c b90a d43d 78f0 9c3d 7bff ba3d
00000330: f31e 933d 260c ce3d 86da a23d c985 d53d
00000340: 2fa9 14bd 4a20 53bc 1288 42bc 535d 85bd
00000350: d82e 36bd 734f a0bc 3b3e 273c 3d03 46bd
00000360: 4382 40ba 1de5 1bbb f169 c9bb e275 4dbc
00000370: 7a52 deba a6c3 21bb af06 9f3b aa5b 643c
00000380: 1721 e73b 9c81 38bc 4054 2fba 5e00 a4bb
00000390: dfc8 a4bb 56fc d9bc 1ad6 823b 3ef4 1cbc
000003a0: 1195 81bc d5ce 5abc 229e 56bb 2fb3 0cbc
000003b0: 2940 21ba 5f8e 4cbc 71e7 15bb 935f 83bc
000003c0: 2bd6 87bb 0858 79bb 28ba f23c 21e8 3f3c
000003d0: 9103 693b 23f6 a13b 704e 573c 225d 8f3b
000003e0: 3c9d 3abb cb89 473b 5398 d7bb af31 b4bb
000003f0: 283d a6bb 88ef d6ba fff3 8b3b f8fb 353c
0.015803114 -0.021323647 0.009350807 -0.015943136 -0.02180775 -0.0059596067 -0.031159451 -0.068785384
0.164118 0.053185776 0.07169734 0.07305033 0.07530124 0.055307478 0.07609438 0.052271534
0.058210123 0.036027305 0.09534028 0.082386024 0.057897527 0.05236659 0.08898125 0.12612
0.15334567 0.0025804718 0.08327723 0.06412301 0.030858645 0.055508856 0.032351863 0.1094205
0.22805479 0.103731155 0.07719501 0.14069419 0.11015976 0.09937891 0.19479239 0.005944443
0.14169562 0.07833368 0.035542227 0.103986494 0.06313195 0.06287864 0.057646114 0.14952883
0.097980455 0.04242359 0.055810895 0.07979176 0.10023616 0.10380664 0.09415122 0.050674904
0.15865429 0.035629094 0.049710173 0.06677134 0.043232318 0.1248144 0.086144455 0.033126146
0.10072092 0.050844017 0.051490713 0.066809855 0.10435195 0.031597894 0.055001065 0.10848147
-0.00832396 0.07853802 0.055387788 0.11116777 0.05777709 0.084449306 0.075474046 0.028079135
-0.072601765 0.07599101 0.1367831 0.07672598 0.059168745 0.10435072 0.05438428 0.07171406
0.033501264 0.0672461 0.07703856 0.07575041 0.10063036 0.08297131 0.057313245 0.11302711
-0.016581055 0.15977313 0.13838166 0.058375284 0.17394696 0.09213242 0.07571624 0.14247267
0.05115731 0.109599724 0.09357136 0.11477744 0.013987908 0.054881703 0.07881965 0.11960407
0.020568464 0.13198102 0.11120346 0.08636481 0.14224027 0.059055585 0.064940006 0.15064691
0.028275982 0.07176883 0.123777255 0.09036169 0.10489557 0.040742945 0.041408785 0.07672525
0.060906563 0.039294917 0.0738383 0.0203881 0.047054466 0.06847442 0.03584777 0.052710555
0.07409831 0.059634857 0.08796097 0.077022254 0.086026244 0.15645595 0.08508226 0.09517208
0.098519124 0.10319421 0.058050767 0.03682819 0.069776416 0.03458767 0.058087643 0.030620908
0.09093276 0.06740533 0.086434394 0.085333616 0.05461222 0.12803218 0.11592311 0.062296614
0.03916053 0.059644602 0.041568827 0.104110524 0.105648294 0.072608076 0.07016643 0.10023383
0.061870523 0.106437586 0.07245257 0.09244632 0.080074154 0.06180552 0.09532503 0.08191848
0.11274748 0.09564727 0.084030144 0.05532729 0.03785413 0.077171 0.12059788 0.0512068
0.03630277 0.07371439 0.02886249 0.06355201 0.05676695 0.024989914 0.07528983 0.05344754
0.10056029 0.09308813 0.051736478 0.067657545 0.016173879 0.08275968 0.09104893 0.095365494
0.02727599 0.10353608 0.07663053 0.0913076 0.071836375 0.10060911 0.07951836 0.10425908
-0.03629416 -0.012886116 -0.011873262 -0.06511941 -0.044478267 -0.019569134 0.010207708 -0.048342932
-0.0007343629 -0.0023787685 -0.0061466624 -0.0125403125 -0.0016961836 -0.0024683266 0.0048530917 0.01393787
0.007053505 -0.01126137 -0.00066882744 -0.0050049266 -0.0050288285 -0.026609581 0.003992808 -0.009579716
-0.01581815 -0.013354977 -0.0032748063 -0.008587643 -0.0006151223 -0.012485116 -0.0022873546 -0.016036784
-0.004145404 -0.0038046855 0.029629782 0.011713059 0.0035555104 0.004942672 0.01314126 0.004375116
-0.0028475067 0.0030447121 -0.0065794378 -0.005499087 -0.0050732084 -0.001639829 0.00427103 0.011107437

linear1.bias f4 [108]
00000000: a67f 953e 1acb 053c 524b 9d3d ca4e acbb
00000010: 194a 053f 3d86 d83b 7c96 8c3d ddec 5cbc
00000020: 18bd 073d d4c5 69bc ec68 ab3e 8c0a c93e
00000030: 5ded c63e e91c 553e 3b08 89bb 935d bd3e
00000040: e5bd 4a3c cc4d c93c 1ca4 543d c8cc 593e
00000050: faa9 513a e05a cb3d f63a 093d de4f 4a3b
00000060: ce6f 6b3b f910 b93c 6343 e53d 49d8 753e
00000070: 4253 a43c 6f27 50bc cff5 a73c 5ef5 adbb
00000080: f193 973d 0916 e6bb 600f 533d 0612 dbba
00000090: 5db7 81bc d706 2b3d 831f 94bb 4a98 123d
000000a0: 7ce4 053d d996 933e 98b2 fb3c 80c5 943c
000000b0: 316a 1c3e b0f5 313c 31d6 1d3e 59f0 173d
000000c0: dc5e 413e 5454 9e3d 5465 293e c360 b9bb
000000d0: 5f0d ffbb 4c6d 743e 27da 933d 4a20 c23e
000000e0: c946 943e 1b88 333d e4a3 dd3e c000 9f3e
000000f0: f3a9 ab3a e11d 5f3e fdc0 053c 8adb 913e
00000100: 3345 a63e 44e5 7e3e 4796 c93c 6ca6 f03e
00000110: a75e ae3e cf10 283e 33d1 a13e 09cf 723e
00000120: 5fbd 853b 024a 6f3c dfbd 2b3d c6cf 993c
00000130: 5e1e 363e ce74 813e 9e1f 9c3e ff91 933b
00000140: feec 933b 4e21 113e 2c7f 743e 8e06 da3b
00000150: 419b c63d 742b 743e d455 823c 487c 3b3d
00000160: 3300 ae3b 3654 f63d c65a a53d 561f f3ba
00000170: d166 d73d fc08 e23d 32b2 ec3d e818 a2bc
00000180: 7c54 a93e e751 063e b9e6 be3d 4de7 543c
00000190: da4c e9ba 0d6a 383e 16d7 0c3e c29a 90bc
000001a0: 6023 083d 4fd5 8d3c e0db 273e 8679 c1bb
0.2919895 0.008166099 0.07680382 -0.005258416 0.5206619 0.0066077993 0.0686464 -0.013484207
0.03313932 -0.014268357 0.33478487 0.3926586 0.3885297 0.2081181 -0.0041818894 0.36985454
0.012374376 0.02457323 0.05191432 0.21269524 0.0007998046 0.099294424 0.033503495 0.0030870358
0.0035924795 0.022591101 0.111944936 0.24008287 0.020059232 -0.012704714 0.020502953 -0.005308791
0.074012645 -0.0070216698 0.051528335 -0.0016713745 -0.015834505 0.04175457 -0.004520358 0.035789765
0.032688603 0.28826025 0.030724809 0.018160582 0.15274884 0.010861799 0.15413739 0.037094448
0.18883842 0.07730928 0.1654256 -0.005657287 -0.0077835764 0.23869818 0.07219344 0.3791526
0.28960255 0.043830972 0.432891 0.3105526 0.0013096913 0.21788742 0.008163688 0.28487808
0.3247467 0.24892145 0.02460779 0.4700197 0.3405659 0.16412662 0.3160492 0.2371179
0.0040814127 0.014605047 0.041929122 0.018775832 0.17785022 0.25284427 0.30492872 0.004503488
0.0045143357 0.14172861 0.23876637 0.0066536134 0.09697581 0.23844701 0.015910067 0.04577282
0.0053100823 0.12027781 0.08073954 -0.0018548768 0.105176575 0.1103687 0.115574256 -0.019787267
0.3307227 0.13117181 0.093213506 0.0129945995 -0.0017799393 0.18009205 0.13753924 -0.01765192
0.03323686 0.017313628 0.1639247 -0.0059043793

linear2.weight f4 [1, 108]
00000000: 61ca 453f d230 a23a 5f9f 353e 9b17 713b
00000010: 75c1 a53f ae8b 213d 30e5 933e 86b4 c53a
00000020: 7856 3b3e 6f3b 47bb f474 513f 2897 793f
00000030: c7c6 713f c7af 073f b143 993a b742 6c3f
00000040: 3d2f 303c 31b5 b43d 5f56 123e 2b92 0a3f
00000050: cc19 e13c 04b3 773e ae0b e53d b55f ad3c
00000060: 9baa 033c cfe5 2b3d 2d65 9d3e 803f 123f
00000070: d77f 973d d5bd 4a39 f1ec 113d 4853 fa3b
00000080: 6def 8b3e f9a5 133c e6c2 d73d d8dc 13bb
00000090: 7796 d5bb df6c 0b3e fbde 493b 5df8 613d
000000a0: e056 943d 8e80 463f 1c0b 3c3d d820 2f3d
000000b0: 906e b73e f659 053d a738 c63e f6c0 b83d
000000c0: 2b0b e63e e03b 563e 4fcf 0c3f e599 31bb
000000d0: 2394 703b 5a10 1f3f 0b52 4a3e 9495 663f
000000e0: 5cf8 353f c1d1 e33d 9113 893f c93c 473f
000000f0: e8e7 783c d5ba 083f 7ae7 7c3b c222 303f
00000100: f46f 443f 2752 123f dfe3 823d ec9c 973f
00000110: dcd7 503f 971f 153f 88a7 783f 0b69 203f
00000120: 3057 723c a501 7e3c 0553 0f3e fc0e 7b3d
00000130: 4054 ea3e e916 1b3f dd61 823f d4e3 c33c
00000140: dbbf 0a3d 34d4 ba3e 08d9 453f 12f7 4a3b
00000150: 6254 743e 9290 1d3f d590 603d 5e97 283e
00000160: 148f 78bb 0df8 a43e 72da 903e 5bf7 dd3a
00000170: 4666 853e 364d 8e3e 5afc 8d3e 85ea 633c
00000180: b6c5 653f fedb 9e3e fa0b 663e 6f88 333d
00000190: da71 893d 4e99 fa3e 6df1 b13e 5c41 363c
000001a0: 15f1 9e3d d476 0b3d dfb2 cb3e d0ef 7e3a
0.7726193 0.0012374169 0.17736576 0.0036787752 1.2949663 0.03943985 0.28885794 0.0015083707
0.18294704 -0.0030400415 0.8181908 0.9749627 0.94443935 0.5300259 0.0011693147 0.922893
0.01075345 0.08823622 0.1429076 0.54129285 0.027478121 0.24189383 0.11183868 0.0211638
0.008036281 0.04196721 0.30741253 0.57128143 0.073974304 0.00019334939 0.035626356 0.0076393224
0.27331105 0.009011739 0.10535221 -0.0022562053 -0.006518181 0.1361575 0.0030803073 0.0551685
0.072431326 0.7753991 0.045909032 0.04275593 0.3582654 0.032556497 0.38715097 0.090211794
0.44930395 0.20921278 0.5500383 -0.0027099785 0.003670939 0.62134326 0.1975786 0.9007199
0.7108209 0.11123992 1.0709096 0.77827126 0.0151920095 0.53410083 0.003859012 0.68803036
0.76733327 0.57156605 0.06391119 1.1844764 0.81579375 0.5825133 0.9713063 0.6266028
0.014791295 0.015503322 0.13996513 0.061293587 0.45767403 0.60581833 1.0186116 0.023912348
0.033874374 0.36490023 0.7728429 0.003097002 0.23860314 0.6154872 0.054825623 0.16463992
-0.0037927078 0.32220498 0.2829166 0.001693468 0.2605459 0.27793282 0.2773159 0.013910894
0.8975481 0.31027216 0.22465506 0.043831285 0.067111686 0.48945087 0.34754506 0.011123981
0.077608265 0.03404887 0.39784905 0.0009725066
