model_m5ALL_new_34000_797.pth (torch, 96075 bytes, 3 tensors)

linear1.weight f4 [108, 216]
0	0xbd5f427e	-0.05450677
1	0xbd617405	-0.055042285
2	0xbcb0b229	-0.021569328
3	0xbc6ae5b5	-0.014336993
4	0xbc47bb90	-0.0121907145
5	0xbd76c69c	-0.060248002
6	0xbd7e9fa5	-0.062163968
7	0xbd9b567a	-0.075848535
8	0x3d17b08d	0.037033606
9	0xbceaec02	-0.02867699
10	0xbd1417fc	-0.036155686
11	0xbc73561f	-0.014852076
12	0x3cfbd6aa	0.030742008
13	0x3cc85ae6	0.024457406
14	0x3beba719	0.0071915505
15	0x3ca65c24	0.020307608
16	0x3d11165f	0.035421725
17	0x3c833143	0.0160147
18	0x3d071fc9	0.032989297
19	0x3cd510d3	0.026008999
20	0x3c963173	0.018334126
21	0x3c0606c8	0.008180328
22	0x3ce9eb92	0.028554711
23	0x3cf80d4a	0.030279774
24	0x3dc5869c	0.09644815
25	0xbc67b14f	-0.014141395
26	0x3c29aee4	0.010356639
27	0xbc052b1b	-0.008127953
28	0xbcf909e0	-0.030400217
29	0x3c7f3548	0.015576668
30	0xbcd4605a	-0.02592485
31	0x3d00336e	0.031299047
32	0x3df04d68	0.11733514
33	0x3d252f90	0.040328562
34	0xbd045b3e	-0.032313578
35	0x3d5b01fc	0.05346869
36	0x3d14b9e4	0.03631009
37	0x3d325b96	0.043544374
38	0x3daa1f8f	0.083068006
39	0xbc43e429	-0.011956253
40	0x3d946d9b	0.07247468
41	0x3c982fce	0.018577483
42	0x3cfd61f6	0.0309305
43	0x3ce86078	0.028366312
44	0x3cfce53d	0.030871028
45	0x3cacd025	0.021095345
46	0x3c93ef76	0.01805852
47	0x3d27d2e4	0.040972605
48	0x3bdee928	0.0068026967
49	0x3c86f2c8	0.016473189
50	0x3b8e9b6b	0.0043520234
51	0x3cc8c751	0.024509104
52	0x3cfce992	0.030873094
53	0x3c2861b0	0.010277197
54	0x3c9b0688	0.018924013
55	0x3d01a4c2	0.031651266
56	0x3d11dd5e	0.035611503
57	0x3c10cb93	0.008837598
58	0x3c2a076f	0.010377749
59	0x3c81afb0	0.015830845
60	0x3c6ebab6	0.014570883
61	0x3d065c36	0.032802783
62	0x3adf1078	0.0017018458
63	0x3ce1d70a	0.027568359
64	0x3d90181b	0.07035848
65	0xbb99fce0	-0.0046993345
66	0x3bb9f9fe	0.0056755533
67	0x3cd47484	0.025934465
68	0x3d0fc620	0.035101056
69	0x3cdefbc1	0.027219655
70	0x3b1a3ee0	0.0023536012
71	0x3ccd7b59	0.02508323
72	0xbcb48129	-0.022034245
73	0x3cfef456	0.031122368
74	0xbc82de63	-0.015975183
75	0x3d2216c0	0.039572477
76	0xbd46300d	-0.04838567
77	0x3acedc69	0.001578224
78	0x3cb09fb1	0.021560522
79	0xbce70b9d	-0.02820378
80	0xbd24fc04	-0.040279403
81	0x3cc4811c	0.023987345
82	0x3d177c9a	0.036984064
83	0x3ce2b402	0.027673725
84	0x3c2bd64a	0.010488102
85	0x3d140bb2	0.036143966
86	0x3d00c46f	0.031437334
87	0x3cf77f98	0.030212209
88	0xba0ef7c8	-0.00054537924
89	0x3cf4fc15	0.029905358
90	0x3cd8d1f4	0.026467301
91	0x3d1b7ed9	0.03796277
92	0x3cf11d3b	0.029432883
93	0x3d0bcfa3	0.034133565
94	0x3d0a41bc	0.033754095
95	0x3cae0485	0.02124239
96	0xbd313a01	-0.043268207
97	0x3d8374b3	0.06418743
98	0x3d60ea0c	0.054910704
99	0xbcce3f41	-0.025176646
100	0x3d4e3a51	0.050348584
101	0x3d1cd9c8	0.03829363
102	0x3d0b9cf0	0.034085214
103	0x3d66417e	0.056214802
104	0x3c0631e1	0.008190603
105	0x3d64cd4a	0.05585984
106	0x3d4ce4bd	0.05002283
107	0x3d2c4535	0.04205819
108	0x3c9250fe	0.017860886
109	0x3c44c157	0.012008986
110	0x3d3d0f8c	0.046157405
111	0x3d72b2e6	0.059252642
112	0xbbb70957	-0.00558583
113	0x3d9673b1	0.07346285
114	0x3d3fbd30	0.046811283
115	0x3cbaee8c	0.022818826
116	0x3d3f7b07	0.046748187
117	0x3c425a87	0.011862404
118	0x3d0b04c9	0.03394011
119	0x3d463622	0.04839147
120	0x3bbcc90a	0.0057612704
121	0x3d3360e8	0.04379359
122	0x3d0d32f8	0.034472436
123	0x3cc88f70	0.024482459
124	0x3cfae1d0	0.030625254
125	0xba86fdc0	-0.0010299012
126	0x3c7dcada	0.015490258
127	0x3cdd58f5	0.027019957
128	0x3c8a0990	0.016850263
129	0x3cd6d111	0.026222738
130	0x3d394b68	0.04523793
131	0x3cd66906	0.026173126
132	0x3ce1679b	0.027515223
133	0x3aeffced	0.0018309631
134	0x3c6dc9c2	0.014513435
135	0x3d3a2120	0.045441747
136	0xbb4ed71d	-0.0031561323
137	0x3d2e095c	0.042489395
138	0x3d0b7205	0.034044284
139	0x3c4bd53d	0.012440977
140	0x3cb5a078	0.022171244
141	0x3d0a4ee5	0.033766646
142	0x3d0c4e4c	0.034254357
143	0x3c8a716e	0.01689979
144	0x3cdc8a55	0.02692143
145	0x3c44acca	0.012004087
146	0x3c976845	0.018482337
147	0x3cb2740b	0.02178385
148	0x3ce32714	0.027728595
149	0x3d3706e1	0.044684295
150	0x3a743526	0.0009315781
151	0x3cb91c18	0.022596404
152	0x3ccc029c	0.024903588
153	0x3c43a974	0.011942256
154	0x3cb2ff2b	0.02185019
155	0x3d0c9e44	0.03433062
156	0x3c8a9739	0.016917812
157	0x3ceed599	0.029154586
158	0x3cb37114	0.021904506
159	0x3cb9bf1e	0.02267414
160	0xbbbca695	-0.005757163
161	0x3c582385	0.013192062
162	0x3afb572b	0.0019175758
163	0x3d132daa	0.03593222
164	0x3c4c69dc	0.012476411
165	0x3b44aebc	0.0030011376
166	0xbbd4eefd	-0.006498216
167	0x3cedd192	0.029030595
168	0x3ced27c2	0.028949622
169	0x3d5c2144	0.053742662
170	0x3c8de6e2	0.017322008
171	0x3cb3eeea	0.021964509
172	0x3c9332b4	0.017968513
173	0x3cdbab02	0.026814941
174	0x3a1d7d83	0.00060077774
175	0x3d3b5bc1	0.0457418
176	0x3d3b0f2e	0.045668773
177	0x3d283c49	0.041073117
178	0x3c687306	0.01418758
179	0x3cb6e01f	0.022323666
180	0x3cf593ee	0.029977765
181	0x3d39b9ac	0.045343086
182	0x3d82d198	0.06387633
183	0x3c9f720a	0.019463558
184	0x3c85bdc6	0.016325843
185	0x3c0c4f43	0.008563819
186	0xbb856b27	-0.0040716114
187	0xbaf0e5ff	-0.0018379091
188	0x39b0beb0	0.0003371141
189	0x3c4904fc	0.012269255
190	0x3ca4970c	0.020091556
191	0x3c0ec80f	0.00871469
192	0x3cdf67a3	0.027271098
193	0x3c6a666d	0.014306647
194	0x3ce95b87	0.028486026
195	0x3d105616	0.035238348
196	0x3c60fe3d	0.01373249
197	0x3c55a25d	0.013039199
198	0x3c18e60d	0.009332192
199	0x3cc46176	0.023972254
200	0x3cad5fd2	0.021163855
201	0x3cb90587	0.022585643
202	0x3c885b7d	0.016645188
203	0x3cd7aee3	0.02632851
204	0x3cfba451	0.030718
205	0x3d58bee4	0.052916422
206	0x3ce6d5d6	0.028178137
207	0x3d3ab6eb	0.0455846
208	0xbce38a22	-0.027775828
209	0xbc8a7f52	-0.016906414
210	0xbcde5401	-0.027139666
211	0xbc526436	-0.012841275
212	0xbcaa5557	-0.020792646
213	0xbbc2c4cf	-0.0059438716
214	0xbc343ee1	-0.01100132
215	0xbaf0077c	-0.0018312777
216	0xbba50e5c	-0.005037112
217	0xbcb58cc9	-0.022161858
218	0xbbede76f	-0.007260255
219	0xbb177493	-0.0023110255
220	0x3c9fe37c	0.019517653
221	0x3b7f2708	0.0038933177
222	0x3ad0d792	0.0015933386
223	0xbcb8b4cc	-0.022547148
224	0xba12e56c	-0.00056036445
225	0xbaa2c858	-0.0012419326
226	0xbb6fb5a5	-0.0036576774
227	0xbc9d4add	-0.019200737
228	0x3b82ec45	0.0039954507
229	0xbb4e918b	-0.0031519856
230	0xbc5c8a95	-0.013460775
231	0x3cc24d34	0.023718454
232	0xbbe47352	-0.006971755
233	0xbbdac832	-0.006676697
234	0xbbd03a8e	-0.0063546365
235	0x3be7cc88	0.0070739426
236	0x3cb3db66	0.021955203
237	0xbcbda8b5	-0.023151735
238	0x3b2e29f5	0.0026575301
239	0xbb528f17	-0.0032128745
240	0x3c46030b	0.012085686
241	0x3a61a143	0.0008607099
242	0x3c5e8779	0.013582104
243	0xbc463cb3	-0.012099433
244	0x3b44f621	0.003005393
245	0xbaa2c000	-0.001241684
246	0x3c48d626	0.012258088
247	0x3c5d96a8	0.013524689
248	0x3c9c7301	0.019097807
249	0x3c0a5eea	0.008445481
250	0xbaeb91f4	-0.0017972575
251	0xbba482d3	-0.0050204783
252	0x3c6ef3a2	0.014584454
253	0xb9f2d230	-0.0004631444
254	0x3b16eed4	0.0023030536
255	0xbb7191ac	-0.003686051

linear1.bias f4 [108]
0	0x3daa81ce	0.083255395
1	0x3c517244	0.012783591
2	0xbc32930d	-0.010899317
3	0x3db0f9a7	0.086413674
4	0xbbfcc734	-0.0077141766
5	0x3e6d744a	0.23188892
6	0x3c4e1505	0.012578254
7	0x3d4a691f	0.049416658
8	0x3d017c08	0.031612426
9	0xbc8556fe	-0.016276833
10	0x3cab246c	0.02089139
11	0x3d094083	0.03350879
12	0xbb3500a4	-0.002761879
13	0xbbec1218	-0.0072043054
14	0x3b55376e	0.003253426
15	0x3ab2b289	0.001363353
16	0x3e258653	0.16164522
17	0x3e2e3f57	0.1701635
18	0x3bdc7a10	0.006728418
19	0x3e42b5c0	0.19014645
20	0xba927560	-0.0011173896
21	0xbb6010fb	-0.0034189809
22	0x3de65f49	0.11248643
23	0x3c8a79eb	0.016903838
24	0xbc0462bf	-0.0080801835
25	0x3df76595	0.12079922
26	0x3ca81d3b	0.02052175
27	0x3d0d8aab	0.034556072
28	0x3cbbe3ab	0.022935709
29	0x3d2296ef	0.039694723
30	0x3cca1a05	0.02467061
31	0x3ca2be90	0.019866258
32	0x3cecb64c	0.02889552
33	0x3e1de97b	0.15421097
34	0x3e754328	0.239514
35	0xbc00d161	-0.00786242
36	0x397ead28	0.00024287833
37	0x3dd81828	0.105514824
38	0x3db1c620	0.086803675
39	0x3dfa4569	0.1222027
40	0x3db63534	0.088968664
41	0x3d33f968	0.043939024
42	0x3ec84745	0.39116874
43	0x3c3f85cc	0.0116896145
44	0x3dad3da6	0.08459024
45	0x3df09a1b	0.11748143
46	0x3d95235a	0.072821334
47	0x3c8b9087	0.01703669
48	0x3e8bb96d	0.27289906
49	0x3db41ad3	0.08794179
50	0xbc6c7e11	-0.014434353
51	0x3dc89da1	0.0979569
52	0x3c815926	0.01578958
53	0x3e0f4ea7	0.13994847
54	0x3dd503e9	0.104011364
55	0x3d12a3cf	0.03580075
56	0x3e0680be	0.13135049
57	0x3cee382d	0.029079521
58	0x3e129c50	0.14317441
59	0x3d96cfd9	0.073638625
60	0x3e032127	0.12805615
61	0x3bdfb58d	0.0068270625
62	0x3d2d98bb	0.042381983
63	0x3e535299	0.20636977
64	0x3de86341	0.11347056
65	0x3e467d79	0.19383802
66	0x3d9a2342	0.07526256
67	0xbc920437	-0.017824275
68	0x3c8bec0b	0.017080327
69	0x3b90861c	0.0044105183
70	0xbb36c6b1	-0.0027889425
71	0xbadb6d9c	-0.001674104
72	0xbbed7c6b	-0.007247498
73	0x3e02a3f2	0.12757853
74	0x3bb5e8a1	0.005551413
75	0x3dd4e104	0.10394481
76	0x3a414f68	0.0007374198
77	0x3e2cf836	0.1689156
78	0xbc07980b	-0.008275996
79	0x3c461c3b	0.012091692
80	0x3d24019b	0.040040594
81	0x3cb3978e	0.021922853
82	0x3c67af83	0.014140966
83	0xbb159063	-0.0022821657
84	0x3d8454e3	0.06461503
85	0x3df2e3f0	0.11859882
86	0x3e08d9ab	0.13364284
87	0x3d28ba74	0.04119344
88	0x39358c3b	0.00017313745
89	0x3d0d4ef7	0.034499135
90	0x3ca0f415	0.019647637
91	0x3dcc9b61	0.09990574
92	0x3d91636d	0.07099042
93	0x3d1195ef	0.03554338
94	0x3eaaecd4	0.3338381
95	0x3c734103	0.014847043
96	0xbb906fe9	-0.004407872
97	0x3bb2e516	0.005459438
98	0x3d150ad6	0.036387287
99	0x3d4e3be9	0.050350104
100	0x3e37d376	0.1795176
101	0x3d203837	0.03911611
102	0xbbd7122d	-0.006563446
103	0x3d5eda39	0.054407332
104	0x3e50cc7f	0.20390509
105	0x3c995c0d	0.018720651
106	0x3e019f1c	0.12658352
107	0x3e804d7c	0.25059116

linear2.weight f4 [1, 108]
0	0x3eb22c5f	0.34799477
1	0x3d37b01a	0.044845678
2	0xbaf13a2c	-0.0018404177
3	0x3ee94377	0.45559284
4	0xbc986b65	-0.018605897
5	0x3f87e2cc	1.0616088
6	0x3d42e606	0.04758265
7	0x3e82b0ae	0.2552542
8	0x3dd2bfd7	0.10290497
9	0xbb233433	-0.002490294
10	0x3db27ad5	0.087148346
11	0x3dfe640b	0.124214254
12	0x3d607871	0.054802362
13	0x3c37ab52	0.01121028
14	0x3c1c3ad0	0.009535506
15	0x3cb3e89f	0.021961508
16	0x3f255eae	0.64597595
17	0x3f313f91	0.6923762
18	0x3d614271	0.054995004
19	0x3f5a49b7	0.8526873
20	0x3b8a66c7	0.004223678
21	0x3c00ca08	0.007860668
22	0x3ee2080c	0.44146764
23	0x3d4166e9	0.047217283
24	0xbc4b7801	-0.012418748
25	0x3f141f6b	0.5786044
26	0x3d3936e8	0.04521838
27	0x3e27f85c	0.16403335
28	0x3de5f4e7	0.11228352
29	0x3e478194	0.19483024
30	0x3df95e2a	0.121761635
31	0xbc09f38d	-0.008419883
32	0x3d8116de	0.0630319
33	0x3f3b2e15	0.7311719
34	0x3f84f768	1.0388002
35	0x3b1a31c6	0.0023528202
36	0x3a7f8531	0.0009747325
37	0x3f088165	0.5332244
38	0x3ead7109	0.338753
39	0x3f0a37d4	0.53991437
40	0x3ec9a741	0.39385417
41	0x3e271626	0.16317043
42	0x4006f8a6	2.1089263
43	0x3d9a1b2b	0.07524713
44	0x3ecbcdb1	0.39805368
45	0x3f115887	0.56775707
46	0x3e9cee97	0.3065078
47	0x3cb609f5	0.022221545
48	0x3f9fb87a	1.2478173
49	0x3ec4801f	0.38379
50	0xbc10bbdc	-0.008833852
51	0x3eccb6e7	0.39983293
52	0x3c655952	0.013998346
53	0x3f23df20	0.64012337
54	0x3ef32ddc	0.47495925
55	0x3e54c690	0.2077887
56	0x3f0b4470	0.544013
57	0x3e024a21	0.1272359
58	0x3f43472d	0.7628048
59	0x3e99ee75	0.3006474
60	0x3f11d6c0	0.5696831
61	0x3c008bf5	0.007845868
62	0x3e6600e6	0.2246128
63	0x3f6a19c8	0.9144559
64	0x3f085477	0.53253883
65	0x3f685628	0.90756464
66	0x3ec4390a	0.38324767
67	0x38a04cb8	7.6436845e-05
68	0x3a926d35	0.0011171462
69	0x3bf560c4	0.007488342
70	0x3d4a6d08	0.049420387
71	0xbbff6cba	-0.0077949436
72	0xbbf625ec	-0.007511845
73	0x3f17033f	0.5898933
74	0xbc4cd3fd	-0.012501714
75	0x3eff1f51	0.4982858
76	0x3b8a11b2	0.004213535
77	0x3f54f790	0.8319025
78	0xbc006c6c	-0.00783835
79	0x3d00ecaf	0.03147572
80	0x3e553095	0.20819314
81	0x3de269f5	0.11055366
82	0x3e0fd568	0.14046252
83	0xbc8696f2	-0.016429398
84	0x3eaca95f	0.3372297
85	0x3f019cc9	0.5062986
86	0x3f1d6ef0	0.614974
87	0x3e310062	0.17285302
88	0xbadd2d61	-0.0016874486
89	0x3e0f3123	0.13983588
90	0x3cc6087a	0.024173964
91	0x3ed5e526	0.4177639
92	0x3ea77a86	0.32710665
93	0x3e4f3dc7	0.2023841
94	0x3fc109b0	1.5081081
95	0x3d28e69b	0.041235548
96	0x3c6ba167	0.014381743
97	0x3cabd582	0.020975832
98	0x3e292c98	0.16520917
99	0x3e87b82f	0.26507708
100	0x3f536488	0.82575274
101	0x3e72b785	0.2370282
102	0x39e7587a	0.00044125674
103	0x3e692aa0	0.22770166
104	0x3f741b6b	0.95354337
105	0x3de9d1e5	0.11416987
106	0x3f28633d	0.65776426
107	0x3fa443b9	1.2833167
