model_m5ALL_new_70000_796.pth (torch, 96075 bytes, 3 tensors)

linear1.weight f4 [108, 216]
-0.01317107 -0.015992453 0.025551954 -0.011921718 0.03597177 0.0082235485 0.042525914 0.010565444
0.15105869 0.014141725 0.011114968 0.046170264 0.071216576 0.054093614 0.05472839 0.030763613
0.028745055 0.02335367 0.03259461 0.041450884 0.055247936 0.037303455 0.04155781 0.07444554
0.24273191 -0.0028093674 0.07463496 0.01253586 0.03538858 0.04159918 0.026923036 0.10828925
0.29210576 0.09795956 0.010621777 0.083247885 0.10967399 0.0712022 0.13188404 0.04031938
0.22585227 0.05667341 0.0459758 0.06851566 0.05225189 0.0723925 0.068089806 0.0674023
0.054606605 0.028870264 0.05356512 0.056874458 0.05777977 0.058904905 0.05234372 0.06773582
0.17053087 0.035314605 0.046511814 0.0383313 0.045564134 0.046316545 0.08009903 0.053709477
0.1009496 0.007958683 0.054025475 0.040379964 0.07899453 0.061958354 0.050027918 0.012620355
0.021281261 0.08650358 0.05370383 0.0902542 0.024304401 0.063688844 0.062032193 0.01927234
-0.036743633 0.08678111 0.093062 0.072316855 0.04867742 0.070383996 0.071943864 0.0603969
0.019127358 0.08915876 0.08300358 0.06413521 0.07647888 0.071730934 0.048479743 0.06405169
-0.06494184 0.14232159 0.102552 0.03684689 0.10984595 0.078668386 0.057896215 0.120374374
0.010634508 0.13236764 0.12386443 0.07917365 0.023118274 0.046573557 0.07383139 0.08078525
-0.042972263 0.1567621 0.11065097 0.08045565 0.074136056 0.04515789 0.05612157 0.089671396
0.026263867 0.09460363 0.081158735 0.06543813 0.06260306 0.047656924 0.032727268 0.06803766
0.053915992 0.046019115 0.07860537 0.024434427 0.05548428 0.03319134 0.025227623 0.038255263
0.02321767 0.053562917 0.116634846 0.0803429 0.056806445 0.08347915 0.03256839 0.032365013
0.037143204 0.015877798 0.040611196 0.06342671 0.05527779 0.050010886 0.044176124 0.0496404
0.033710342 0.044440985 0.04844224 0.0746215 0.06627287 0.07898723 0.076604396 0.040890023
0.032951135 0.033944637 0.027963473 0.04951199 0.06719475 0.06075489 0.06357426 0.06274825
0.02464873 0.072370626 0.04852102 0.06979757 0.073265165 0.062041055 0.05432122 0.12802199
0.11308869 0.09704334 0.06585807 0.06094486 0.03712578 0.07994104 0.08656551 0.06411938
-0.0048140595 0.06606414 0.014064748 0.039857186 0.027323628 0.009457328 0.023479296 0.025012542
-0.0029212434 0.03392468 0.035146516 0.046406563 0.045197695 0.07943572 0.05712931 0.062135283
0.02954186 0.01439072 0.032904137 0.064142846 0.08442889 0.06074991 0.08471752 0.065967664
-0.08535926 -0.012791517 -0.035827942 0.00014090631 0.011007137 -0.008469164 -0.006949937 -0.039713886
-0.01303979 -0.039788824 0.024202907 0.026913596 0.05442259 0.03381052 0.04244342 0.015793059
0.24128379 0.04248611 0.0411559 0.06935234 0.123916395 0.07847539 0.092739195 0.0694682
0.053334374 0.019940231 0.0395789 0.05611681 0.08968461 0.06964438 0.072174065 0.13198404
0.4018452 0.018452635 0.13753432 0.065996654 0.0328221 0.08303452 0.052395824 0.16725825
0.4771696 0.15310079 0.040751707 0.14080054 0.15867367 0.13035555 0.18397641 0.04766847
00000000: 79cb 57bc 9b02 83bc 5552 d13c 4f53 43bc
00000010: 2257 133d 10bc 063c a72f 2e3d af1a 2d3c
00000020: 21af 1a3e b2b2 673c 8e1b 363c 081d 3d3d
00000030: ffd9 913d 4491 5d3d e02a 603d f903 fc3c
00000040: c07a eb3c 3250 bf3c ed81 053d 67c8 293d
00000050: a94b 623d 82cb 183d 8638 2a3d e776 983d
00000060: b78e 783e 5d1d 38bb 37da 983d 3563 4d3c
00000070: 9ef3 103d e763 2a3d b38d dc3c c1c6 dd3d
00000080: e38e 953e 069f c83d f606 2e3c de7d aa3d
00000090: c29c e03d 76d2 913d 9c0c 073e ef25 253d
000000a0: d145 673e 6122 683d 1f51 3c3d f051 8c3d
000000b0: 1406 563d 8542 943d ab72 8b3d 380a 8a3d
000000c0: 2dab 5f3d 5581 ec3c 1967 5b3d 31f5 683d
000000d0: 7baa 6c3d 4546 713d 5e66 563d 14b9 8a3d
000000e0: a59f 2e3e 0ca6 103d 2c83 3e3d 4801 1d3d
000000f0: 75a1 3a3d 6bb6 3d3d f60a a43d 78fe 5b3d
00000100: aabe ce3d 2365 023c d149 5d3d 7665 253d
00000110: e2c7 a13d 0bc8 7d3d 13ea 4c3d 9bc5 4e3c
00000120: 0a56 ae3c ca28 b13d 8cf8 5b3d 32d7 b83d
00000130: 061a c73c 4c6f 823d 7815 7e3d 07e1 9d3c
00000140: 7e80 16bd 4bba b13d 4a97 be3d dc1a 943d
00000150: f961 473d 7c25 903d 4e57 933d bd62 773d
00000160: fab0 9c3c de98 b63d c8fd a93d 5259 833d
00000170: f6a0 9c3d abe7 923d b292 463d 882d 833d
00000180: 3a00 85bd c0bc 113e c806 d23d c4ec 163d
00000190: eaf6 e03d e41c a13d 9524 6d3d d786 f63d
000001a0: 5c3c 2e3c 628b 073e a2ac fd3d cb25 a23d
000001b0: 8962 bd3c eac3 3e3d e934 973d bd72 a53d
000001c0: af03 30bd 3e86 203e fa9c e23d efc5 a43d
000001d0: a5d4 973d 7bf7 383d bbdf 653d a3a5 b73d
000001e0: 5227 d73c 8cbf c13d 8d36 a63d 6d04 863d
000001f0: 0836 803d e833 433d 070d 063d 5457 8b3d
00000200: 04d7 5c3d 8a7e 3c3d dafb a03d b52a c83c
00000210: 7c43 633d a4f3 073d 29aa ce3c 8db1 1c3d
00000220: fc32 be3c ca64 5b3d 40de ee3d d18a a43d
00000230: e0ad 683d 1ef7 aa3d 6f66 053d 2d91 043d
00000240: 7923 183d 2812 823c ed57 263d dde5 813d
00000250: f76a 623d 37d8 4c3d 06f2 343d bb53 4b3d
00000260: db13 0a3d c007 363d 5f6b 463d 28d3 983d
00000270: 12ba 873d 0fc4 a13d c4e2 9c3d 4c7c 273d
00000280: c5f7 063d 8809 0b3d a713 e53c 16cd 4a3d
00000290: 679d 893d 1fda 783d 3933 823d 2882 803d
000002a0: 22ec c93c 0d37 943d fabd 463d 07f2 8e3d
000002b0: 0c0c 963d c31e 7e3d ed7f 5e3d 3218 033e
000002c0: 0b9b e73d a9be c63d 99e0 863d 51a1 793d
000002d0: 3411 183d 21b8 a33d 4249 b13d 0651 833d
000002e0: 42bf 9dbb a34c 873d d46f 663c 4a41 233d
000002f0: cdd5 df3c e9f2 1a3c a757 c03c 1ae7 cc3c
00000300: 5572 3fbb 9bf4 0a3d cbf5 0f3d cf14 3e3d
00000310: 3821 393d 32af a23d 6c00 6a3d 9181 7e3d
00000320: c501 f23c 0ec7 6b3c 7dc6 063d 535d 833d
00000330: 0ee9 ac3d e6d4 783d 6180 ad3d 0e1a 873d
00000340: d6d0 aebd 8393 51bc 52c0 12bd 40c0 1339
00000350: 4757 343c 40c2 0abc 4cbc e3bb 07ab 22bd
00000360: d8a4 55bc 9bf9 22bd 2d45 c63c e779 dc3c
00000370: 39ea 5e3d e67c 0a3d 27d9 2d3d 7260 813c
00000380: 1913 773e ea05 2e3d 1793 283d 9a08 8e3d
00000390: e1c7 fd3d b5b7 a03d 0cee bd3d 5845 8e3d
000003a0: 2575 5a3d b259 a33c 7c1d 223d bdda 653d
000003b0: 91ac b73d b6a1 8e3d ffcf 933d d326 073e
000003c0: a7be cd3e fb29 973c ccd5 0c3e 4129 873d
000003d0: 7770 063d 010e aa3d 019d 563d bf45 2b3e
000003e0: 934f f43e 74c6 1c3e 43eb 263d 042e 103e
000003f0: 5a7b 223e ed7b 053e 5064 3c3e 0340 433d

linear1.bias f4 [108]
0.11235014 0.16094671 0.058045812 0.09161183 0.010160667 0.16417225 0.097581185 0.0021950542
0.042814884 0.0062811486 0.10176769 0.013944912 0.033634864 -0.001024537 -0.008693347 0.07333465
-0.011968893 -0.00091531454 0.030032173 0.12283474 0.03928377 0.01577397 0.14361306 0.0073898495
-0.0017991454 0.0062946207 0.018951876 0.017854728 0.15990458 0.013836156 0.048691 0.14515191
0.003327509 0.15663336 0.00025064647 0.007956277 -0.013212347 0.055428658 0.007565884 0.11862674
0.008998358 0.26897836 -0.0011021346 -0.0027277358 0.029039474 0.027428702 -0.0044509997 0.052789554
0.0012325377 0.003370983 0.043440644 0.040483616 0.114921495 0.0017624797 0.23969741 -0.0029008398
0.028257545 0.20200872 0.054399323 0.29846448 0.09382904 -0.006081182 0.004641353 0.0031828363
-0.02038751 -0.0021693525 0.0054169046 -0.009186493 -0.024867283 0.25373596 0.0044750073 0.000448876
0.020812364 -0.0021603801 0.038718004 0.17648546 0.009978192 0.11449135 -0.016864894 0.10568066
0.01900613 0.003392778 0.13837223 0.22445515 0.08632597 0.0020359 0.07060468 -0.007753601
0.060606614 0.12516716 0.074189395 -0.0032891554 0.06602615 0.012436313 0.22285421 -0.009429358
-0.007642996 0.35708126 0.03367241 -0.01685949 0.14222734 0.12295652 0.14215848 -0.0011537566
0.046554226 0.003103205 0.03980792 0.06473686
00000000: d517 e63d 37cf 243e 72c1 6d3d fc9e bb3d
00000010: ed78 263c c51c 283e a5d8 c73d e6da 0f3b
00000020: a95e 2f3d 18d2 cd3b 946b d03d 3379 643c
00000030: b6c4 093d c249 86ba 8a6e 0ebc 7a30 963d
00000040: 2d19 44bc b8f1 6fba 0806 f63c c890 fb3d
00000050: 05e8 203d 6a38 813c 4d0f 133e 8d26 f23b
00000060: 4dd1 ebba 1b43 ce3b f740 9b3c 1444 923c
00000070: 07be 233e 0bb1 623c 3770 473d b4a2 143e
00000080: 5612 5a3b 7f64 203e 3369 8339 0b5b 023c
00000090: 9a78 58bc 2909 633d 3ceb f73b 94f2 f23d
000000a0: d96d 133c 88b7 893e 8075 90ba d0c3 32bb
000000b0: 31e4 ed3c 28b2 e03c b1d9 91bb dc39 583d
000000c0: 1a8d a13a b6eb 5c3b d1ee 313d 26d2 253d
000000d0: f65b eb3d 0103 e73a 3d73 753e 041c 3ebb
000000e0: 5e7c e73c 60db 4e3e d3d1 5e3d 56d0 983e
000000f0: 7129 c03d a744 c7bb 7e16 983b 2297 503b
00000100: b503 a7bc b22b 0ebb 4a80 b13b f282 16bc
00000110: 79b6 cbbc aee9 813e 15a3 923b 1e57 eb39
00000120: b17e aa3c 2a95 0dbb c596 1e3d 9bb8 343e
00000130: 927b 233c 717a ea3d 3f28 8abc 1a6f d83d
00000140: beb2 9b3c 5f59 5e3b 73b1 0d3e 92d7 653e
00000150: accb b03d bc6c 053b 3099 903d eb11 febb
00000160: a43e 783d d22b 003e 9cf0 973d df8e 57bb
00000170: b838 873d adc1 4b3c e533 643e 987d 1abc
00000180: 1972 fabb 5bd3 b63e 15ec 093d ea1c 8abc
00000190: 0ba4 113e a1d0 fb3d fe91 113e a639 97ba
000001a0: a5af 3e3d 245f 4b3b a10d 233d c294 843d

linear2.weight f4 [1, 108]
0.5947151 1.0052552 0.44441375 0.8565735 0.022106534 0.6538164 0.6275621 0.02350508
0.27831265 0.053143203 0.45617822 0.024638712 0.0688425 0.08123203 -0.001535221 0.23889962
0.06513387 -0.0011490233 0.08129495 0.68970096 0.18499826 0.02417404 0.963656 0.039679743
0.0039022383 0.032704324 -0.023124214 0.054676183 0.6403615 0.033387437 0.25128463 1.2415556
0.0299395 0.641478 -0.02165074 0.016739568 0.010164648 0.24909478 0.025341874 0.7546087
0.040266052 1.2690651 0.022985842 0.02934603 0.1159752 0.14058995 -0.05699074 0.1511648
0.044984728 0.04360071 0.15065987 0.15118548 0.5522272 0.007702275 1.5438569 0.0030739706
0.12839484 0.9120395 0.25137213 1.1680259 0.40743288 0.023111895 -0.009841997 -0.005191926
-0.020998213 0.020980993 0.008123226 0.0028513593 0.014410607 1.5502539 -0.021683991 0.004175725
-0.019806478 0.007227012 0.16821319 0.69947386 -0.002316433 0.6758517 -0.014782827 0.67226744
0.10148823 0.023201594 0.535143 0.87453425 0.5565785 0.041471623 0.3336438 0.042100012
0.28532988 0.73980284 0.48820177 0.030382708 0.25939384 0.022964234 1.378417 0.005683009
0.009599626 1.4974446 0.382025 0.03904663 0.742867 0.47611156 0.8859305 0.014229802
0.20331065 0.020377895 0.15490699 0.2110579
00000000: 403f 183f 34ac 803f 338a e33e 6748 5b3f
00000010: c318 b53c 8360 273f e9a7 203f ba8d c03c
00000020: ff7e 8e3e b0ac 593d 3190 e93e 20d7 c93c
00000030: 4cfd 8c3d fb5c a63d 7839 c9ba 1aa2 743e
00000040: e864 853d d39a 96ba f77d a63d 3e90 303f
00000050: 2f70 3d3e a308 c63c 29b2 763f 3a87 223d
00000060: b2bc 7f3b f8f4 053d fe6e bdbc 22f4 5f3d
00000070: bbee 233f 44c1 083d 61a8 803e 4beb 9e3f
00000080: af43 f53c e737 243f e55c b1bc 6b21 893c
00000090: a089 263c b412 7f3e c399 cf3c 092e 413f
000000a0: 04ee 243d ba70 a23f ce4c bc3c 1667 f03c
000000b0: 6884 ed3d d0f6 0f3e 1f6f 69bd f2ca 1a3e
000000c0: e841 383d a896 323d 9546 1a3e 5ed0 1a3e
000000d0: c35e 0d3f 5e63 fc3b 1a9d c53f ab74 493b
000000e0: f079 033e 6c7b 693f d9b3 803e df81 953f
000000f0: 0b9b d03e 2855 bd3c 5440 21bc 0821 aabb
00000100: 7204 acbc 55e0 ab3c 4817 053c dfdd 3a3b
00000110: 771a 6c3c b86e c63f a0a2 b1bc 85d4 883b
00000120: 3241 a2bc 92d0 ec3b 1440 2c3e b810 333f
00000130: 4ccf 17bb 9e04 2d3f ac33 72bc b819 2c3f
00000140: 10d9 cf3d 4511 be3c 22ff 083f 7ae1 5f3f
00000150: ee7b 0e3f 26de 293d 5cd3 aa3e 1071 2c3d
00000160: c216 923e b863 3d3f 95f5 f93e 28e5 f83c
00000170: 45cf 843e 7d1f bc3c f86f b03f 8938 ba3b
00000180: c047 1d3c 44ac bf3f c898 c33e 5cef 1f3d
00000190: 882c 3e3f e5c4 f33e 57cc 623f 1e24 693c
000001a0: ab30 503e 8bef a63c f09f 1e3e 901f 583e
