model_m5ALL_new_28000_126.pth (torch, 96075 bytes, 3 tensors)

linear1.weight f4 [108, 216]
00000000: 2e95 523c 9060 c2ba aa95 793c dd08 c83a
00000010: 9799 173c b23b f33b 536c 293b 0f64 193c
00000020: a86a e33c ea8a 6fbc 4e6b b93c 5675 063c
00000030: 534d 063c a459 36bb 3766 3d3b 83cc 1ebb
00000040: ca7b 8a3c c09a f73a f97e a43b d05f 91bb
00000050: eeba 2c3b 1eb4 ee3b fe9e a33b 363a 953c
00000060: 95bc 3c3d 1011 dabb 674f 3bbc 9997 b43a
00000070: 5eea 7a3c 8f88 34bb 35af 67b9 cdc3 8bbb
00000080: 9175 2d3c 959e 0abc 2f8e 8dbc 98a0 003c
00000090: 896e 973a 05cc 79b9 2233 a63c e8c0 f0bb
000000a0: 14ba 17bc 7783 f1b8 fd4f eb3b e9b0 113c
000000b0: 14f8 ba3b 7081 6f3a 583e 1abb f745 de3a
000000c0: 181c 5f3c dfd7 1e3b 1dac 61bb 73bd e4ba
000000d0: 85dd a33a 5881 daba fbfc 01bc 684c 21bc
000000e0: 6298 1c3b 907f 9ebb b86e a6ba 54f9 843c
000000f0: c6a7 743c 1305 8aba ff53 5cbb c00c b43c
00000100: fb69 ac3c 1154 43ba a65c 933b 4a9d c4bb
00000110: c21f 95bb e215 953b 1915 a63c b652 02bc
00000120: 8e8b 4c3c e4fd 65bc e40f a83b e00e a7bb
00000130: bba8 3e3c 84d5 a539 c3ce 233b 1601 003b
00000140: ff82 78bc 73d4 043c 6903 773b 1b3b eb3b
00000150: b490 573a ea94 3e3b 4335 15bc 979a 1d3c
00000160: 03ce 61bb b724 d83c 28d9 9a3b fdde d13b
00000170: 5e7e 20bb 4b5b de3b a9c5 b53b 08fc 923b
00000180: 2519 353c 45d1 a53c 7325 b93b 2cdf 47bc
00000190: 5f4e 4c3b 049e 9e3c 2884 653b 68cb b63b
000001a0: 7b0d b2bb 5a32 70bb 12e9 7e3c 5a11 763c
000001b0: 1aea 77bc 53eb efba c2bf 583c c36b 2b3c
000001c0: 5417 063c 8e86 8f3a 5ced a03b 4c39 68ba
000001d0: 7f24 46bc f8cf 8e3a 7966 b2bb 896f 903c
000001e0: 53b1 8bbc 9f7d c2bb 8054 47bb 66cb babb
000001f0: 43fc f03b 1ee4 aa3b 4948 38bb 35e7 75bb
00000200: 5d7d f3b9 406c d53b 1ec9 9f3c f2b6 5d3c
00000210: 7d5b 373c 0f4c a13b 1e2e 403c 3264 96bc
00000220: ba09 4ebb 75c9 d2ba 0a82 e33b 7c7e 0fbc
00000230: ec62 333b d5f5 833c c40c 303c fc6d 36bb
00000240: e42a aebb 403f 043c ba4b 82bc 6284 083c
00000250: 9227 203c e361 c43c 3c65 a5bc 3e71 e339
00000260: b29e 4f3c feeb 8e3c af7c 183b 44e8 913c
00000270: feb0 23bc 7335 6a3b 982c 473a 8eaf 26bb
00000280: d9f6 67ba 0229 67bb 2420 ed3b cc57 5abc
00000290: 66c3 873c be63 dc3c b879 b33b 2907 ac3c
000002a0: 5690 7e3b 230c fd3a 1a20 52bc eedb fdb9
000002b0: fc05 11bb 6855 2b3c 447e e93b 79a8 40bb
000002c0: a3f6 f5bb 0e71 9c3b d6b5 9eba 5203 03bc
000002d0: 8a90 89bb 4dc5 b23c 6577 b2bb 4317 b3bb
000002e0: 56ed 9a3c 9342 383c 6ff3 79bc 94ec 483c
000002f0: 5647 b6bb 20d1 25ba 3ba6 ac39 78dc d93b
00000300: d909 5e3b 0d65 0abc 6d99 453b 4126 783c
00000310: a395 8f3c ce63 c2ba 90d3 093c 2d2e 523c
00000320: 332b 133c d32c 523b 58d6 e73c e637 f43b
00000330: 79be 953a 514b a6bb 2209 8a3b 5d88 cb3b
00000340: c5d8 2bbc f519 ed3b a2d9 623a 07af 3dbb
00000350: 4133 72bc 1533 833b 6046 e2bb 8308 e6bc
00000360: d0f1 0cbc 5dba 93bc a002 d13c 2db7 313d
00000370: 0527 123d 89df d6bc 4da0 f7bc 5d52 5abd
00000380: 9819 563e af02 b43c 20dc d73c 3c24 b13d
00000390: e890 c13d 38a5 c93d 6344 c13d 2b86 813d
000003a0: 1948 673d 9e93 953c 5611 fa3c f329 9e3d
000003b0: 2f02 be3d 0264 7b3d 569b 453d 6aa4 a93d
000003c0: cd65 8f3e 6192 b43c 9674 923d 4dc7 003d
000003d0: 15bf 883d a0d2 393d d30c 023d 5e84 cf3d
000003e0: 195f da3e c490 e03d 6a60 543d 9632 f43d
000003f0: b969 e63d d931 053e cf72 723e 38e3 373d
0.01285295 -0.0014829803 0.015233437 0.001526143 0.009252927 0.0074228877 0.002585192 0.009362235
0.027760819 -0.014620522 0.022634175 0.008206686 0.0081971465 -0.0027824426 0.0028900036 -0.0024230785
0.01690473 0.0018890724 0.005020019 -0.0044364706 0.0026356536 0.0072846552 0.0049933186 0.018216234
0.046078283 -0.006654866 -0.011432505 0.001377809 0.015314667 -0.0027547216 -0.00022095146 -0.0042652846
0.010587112 -0.00846066 -0.017279712 0.0078507885 0.0011553328 -0.00023822494 0.020288054 -0.007347215
-0.009260673 -0.00011516263 0.007181166 0.008892276 0.0057058427 0.0009136414 -0.0023535695 0.0016958107
0.013617538 0.0024237556 -0.0034434863 -0.001745148 0.0012501931 -0.0016670628 -0.00793385 -0.009844877
0.0023894538 -0.004836984 -0.0012697792 0.01623217 0.014932578 -0.0010530077 -0.0033619402 0.021978736
0.02104663 -0.00074511865 0.0044971285 -0.0060001956 -0.004550905 0.004549728 0.020273732 -0.00795429
0.012484444 -0.014037583 0.0051288474 -0.005098209 0.011636908 0.00031630334 0.0024995066 0.0019531897
-0.015167951 0.0081072925 0.0037691242 0.007178677 0.00082231616 0.002908046 -0.009106937 0.009619377
-0.0034455068 0.026384695 0.004725594 0.006404756 -0.0024489383 0.0067857853 0.0055472446 0.004485611
0.011053358 0.020241389 0.0056502162 -0.012199204 0.0031174642 0.019362457 0.0035021398 0.005578447
-0.005433736 -0.0036651106 0.015558498 0.015018785 -0.015131498 -0.0018304385 0.013229312 0.010462704
0.008184273 0.0010950135 0.004911108 -0.00088586356 -0.012093662 0.001089572 -0.0054443446 0.01763131
-0.017052328 -0.0059353854 -0.0030415356 -0.0057005165 0.0073542907 0.005215182 -0.0028119257 -0.0037521843
-0.00046441975 0.0065131485 0.01950508 0.013532387 0.011191246 0.004922397 0.011729745 -0.018358324
-0.0031438903 -0.0016081767 0.006942992 -0.008758184 0.0027372194 0.016108433 0.010745231 -0.0027836552
-0.0053151716 0.008071721 -0.01590525 0.008332344 0.009775059 0.023972457 -0.020189874 0.00043381186
0.012672113 0.017446514 0.0023267677 0.017810948 -0.009990929 0.0035737425 0.00075978925 -0.0025434229
-0.0008848734 -0.0035272245 0.0072364975 -0.0133265965 0.016572665 0.02690303 0.0054771565 0.020999508
0.0038843355 0.0019305985 -0.012825036 -0.0004841978 -0.002212881 0.010457374 0.0071256477 -0.0029397293
-0.007506208 0.0047742194 -0.0012108635 -0.007996397 -0.0041981386 0.021822596 -0.005446362 -0.0054654195
0.018911999 0.011246341 -0.015255793 0.012263436 -0.005562703 -0.00063254125 0.00032930248 0.0066485964
0.0033880381 -0.008446944 0.0030151263 0.015145839 0.017527407 -0.001483077 0.008412257 0.012828392
0.008982467 0.0032070174 0.02830045 0.0074529527 0.0011424563 -0.0050748964 0.0042125145 0.006211324
-0.010488694 0.0072357603 0.00086536456 -0.0028943436 -0.014782728 0.004003892 -0.006905362 -0.02808023
-0.0086025745 -0.0180332 0.025513947 0.04338758 0.035681743 -0.026229637 -0.030227805 -0.053301204
0.209082 0.021973936 0.026350081 0.08649489 0.09451467 0.09845966 0.09436872 0.06324419
0.056465242 0.018258866 0.030525845 0.07722845 0.0927776 0.06137467 0.048243843 0.082833126
0.28007355 0.022042455 0.07151143 0.031440068 0.06677071 0.045366883 0.03175051 0.10132669
0.4265068 0.10965112 0.05184976 0.11923711 0.11250634 0.13007297 0.23676609 0.044894427

linear1.bias f4 [108]
00000000: 4845 573c fd45 743e 9b7f a03e 9faf c43c
00000010: 1377 e7b8 774f fe3d 3a7a 44bc 8b55 f43c
00000020: 17cb b13d eb6f 82bb 72cf 963b bf1f 2d3d
00000030: fa61 db3d 91d0 713e f124 223c e2ef 0d3c
00000040: e121 1cbc b347 263d 7bb5 20bc 548a ad3c
00000050: 1892 9fbc a72b 6d3e b2aa 763c 6471 67bb
00000060: 2752 6a3d d29a 09bc e4b4 d33d 0e8c a73d
00000070: c0b0 313e 2f42 ed3d 029c 2339 508f acbc
00000080: 9b8c 23bb 53d7 0b3d 9339 c13c f7ec ba3e
00000090: 41a1 cb3c 42a9 a73d d400 d53c 9373 6a3d
000000a0: 5444 2d3e fa5f 6d3c 1840 153b eb44 f13e
000000b0: b98f cc3c f330 88bc 87db 9d3e 87d3 853e
000000c0: 3b36 203d d9a4 9f3d 6bd1 9a3d 664a 39bc
000000d0: 9d39 b43d e970 973d ec02 1e3c 799a 973d
000000e0: b8d4 dcbb dca4 8a3e 376f 923d 3f6d 4e3e
000000f0: e5fa 883d e386 043e d388 533e 0a94 ba3c
00000100: c428 c43c 288b db3d 2046 9f3d 15df 0a3e
00000110: 2af4 73bc 68f1 e2bc 7b59 d73d 7cc3 6eba
00000120: ebf9 7e3b e39d 103c f4e5 6c3e c871 f63d
00000130: 41d8 3a3e cd35 33bb f846 eb3d 410a d03d
00000140: 5b0d 123d 2a5a 153c 673c aa3c bfbd f23c
00000150: 1529 a23c 210f 213d c074 6139 6093 06bc
00000160: 7eec 9b3e 4ed0 963d 2414 083e d91f 7e3d
00000170: 2bfb 7a3a ee88 a43d e0bf ee3c b97b 163d
00000180: 1cd9 a03e 72ae 253c ff96 e83d ed89 233b
00000190: 2d24 4d3e afa1 2d3d 22a8 c93d 526d 23bc
000001a0: c2a1 5c3c 9fa3 19bb c72c 63bc d027 4d3c
0.0131390765 0.23854823 0.31347355 0.024009524 -0.00011037118 0.124175005 -0.011992032 0.029825946
0.086813144 -0.003980627 0.004602366 0.042266604 0.10712047 0.23614718 0.009896503 0.00866315
-0.009529562 0.04059572 -0.009808893 0.021184124 -0.019478843 0.23161183 0.015055345 -0.0035315389
0.057207253 -0.008398728 0.103372365 0.0818101 0.17352581 0.11584889 0.00015603009 -0.02106443
-0.0024955634 0.034140896 0.023587024 0.36508915 0.024857165 0.0818658 0.026001371 0.057239126
0.16920596 0.014488215 0.0022773799 0.47122893 0.024970876 -0.016624903 0.3083155 0.26137945
0.03911422 0.07795114 0.075594746 -0.011309242 0.08800051 0.07394583 0.009644251 0.0740251
-0.0067392252 0.27078903 0.07150119 0.20158862 0.06688479 0.1294208 0.20657663 0.022775669
0.02394522 0.10719901 0.07777047 0.13561662 -0.014889756 -0.027703002 0.10515114 -0.0009108109
0.0038906287 0.008826706 0.23134595 0.12033421 0.18246557 -0.00273453 0.114881456 0.10158206
0.035657268 0.009115735 0.020780755 0.029631494 0.01979498 0.03932107 0.00021501165 -0.008213848
0.30453867 0.0736395 0.13288933 0.06204209 0.000957417 0.0803393 0.029144228 0.036739085
0.3141564 0.010112392 0.11356925 0.0024954036 0.20033331 0.04239052 0.09846522 -0.009974794
0.0134663 -0.0023443473 -0.013865656 0.012521699

linear2.weight f4 [1, 108]
00000000: 36ef 333d d943 603f 3062 933f 96b0 e53d
00000010: e82b a23c b619 2d3f 561e 883a 87e9 4c3d
00000020: 31c8 d33e da7b 773c cfce b23a d6b0 3d3e
00000030: ddeb cf3e ea19 733f 4f10 043d 1d71 1d3d
00000040: 9898 95bb 821d 5d3e 5f99 c23b 8386 223e
00000050: 50e4 c63b 7c13 623f bfbb ac3b 69a5 22ba
00000060: daab 163e a669 cbbb c584 e83e 2d4f 973e
00000070: 3d0f 103f 0075 023f 4430 273c 3a4f 763b
00000080: 2e64 b93b fc33 a93d 7366 8d3d 339e d33f
00000090: 1ef1 f53d b78a b93e 0c4b 8e3d 9a80 793e
000000a0: 2947 433f 25c0 323d 9c9f 2f3d 1862 dc3f
000000b0: 290e c73d d6c7 52bc e7a1 913f 4960 753f
000000c0: 10ce 3d3e 21bb 963e be40 b73e 80a7 f73b
000000d0: e5e1 e43e d5ea 883e 23a9 6d3d 1b91 713e
000000e0: b757 b03c deb6 6e3f cf7a 7f3e f24d 323f
000000f0: ef9c 9a3e 5a18 ea3e 449a 413f 7903 043e
00000100: c95b 2e3d b565 ad3e 0637 ca3e 9318 1c3f
00000110: 789f d33b a98a 8cba 2913 bf3e c1cd 5d3c
00000120: 174b 29bc 836a a53d 9f64 5b3f ca6d 3c3f
00000130: 5870 153f e199 5f3d 5e28 033f 68d7 003f
00000140: f4cc 2e3e 35b7 313c 0769 a83d 6cb6 413d
00000150: 498a ca3d 8847 fc3d 83ba 923c e426 823c
00000160: d616 883f be81 8d3e 3472 153f 5f8b 833e
00000170: 59ca 623c 1f6f 983e 73f1 9f3d 308b 073e
00000180: 9927 993f be8d 283d 5d4f f53e 5b9f e03a
00000190: 4c1b 3b3f fbf5 1f3e f558 123f 215b 3f3c
000001a0: ca6e 623c 4d05 44bc 1c74 a6ba 80ef 9f3c
0.0439293 0.8760353 1.151434 0.11215322 0.019796327 0.67617357 0.0010385017 0.050027397
0.4136367 0.015105212 0.0013641956 0.18524489 0.40609637 0.94961417 0.032242116 0.03843795
-0.0045653097 0.21593288 0.0059386934 0.15871625 0.0060696974 0.8831098 0.0052714045 -0.00062044576
0.14713994 -0.0062076626 0.45413795 0.29552594 0.5627325 0.5095978 0.0102043785 0.0037583844
0.0056576943 0.08261868 0.06904306 1.6532654 0.1200888 0.36238644 0.06947908 0.24365464
0.76280457 0.043640275 0.042876825 1.7217436 0.09719498 -0.012865027 1.1377534 0.95850044
0.18535638 0.29439643 0.35791582 0.0075578094 0.44703594 0.26741663 0.05802263 0.2359051
0.0215262 0.93247783 0.24949192 0.69650185 0.30197856 0.45721704 0.75626016 0.1289195
0.042568002 0.3386666 0.39495105 0.60975 0.006458219 -0.0010722476 0.37319306 0.013537825
-0.010332844 0.08076956 0.8570041 0.73605025 0.5837455 0.05459011 0.5123347 0.50328684
0.17070371 0.010846903 0.082231574 0.04729311 0.09889657 0.12318331 0.017911201 0.015887685
1.0631969 0.27638048 0.58377385 0.2569227 0.013842189 0.2977228 0.07809725 0.1323669
1.1965209 0.0411508 0.47912112 0.0017137335 0.73088527 0.15621178 0.5716699 0.011679442
0.0138203595 -0.011964154 -0.0012699398 0.019523382
