model_m5ALL_new_10000_126.pth (torch, 96075 bytes, 3 tensors)

linear1.weight f4 [108, 216]
0.01495534 -0.0019261292 0.0147252055 -0.001447559 0.007331351 0.0060288436 0.00031393958 0.005991338
0.0241494 -0.014868685 0.022426557 0.00858624 0.008016958 -0.004000665 0.0038348895 -0.0027812407
0.016028948 0.0027044024 0.0058169123 -0.004346456 0.0018650363 0.008195897 0.00678426 0.018966531
0.041964993 -0.006293234 -0.009970784 0.00057611265 0.01522457 -0.00076695636 2.5676029e-05 -0.0036602274
0.003343427 -0.008204886 -0.017876016 0.007782021 -0.0005565647 -0.001437695 0.018132688 -0.0053340243
-0.016603664 -0.0009722937 0.00658461 0.008801751 0.0053212866 0.0002461841 -0.0027477553 0.0010934754
0.012525796 0.002308736 -0.004185429 -0.0023893695 0.001115818 -0.0022517266 -0.007946506 -0.010074308
-0.0041934773 -0.0051646135 -0.0016578035 0.0151907215 0.014207272 -0.0017871408 -0.004177317 0.021440284
0.018890897 -0.00016100648 0.0046193562 -0.0055375174 -0.0053624604 0.0047379173 0.02062048 -0.0062678996
0.010337911 -0.013900609 0.004201736 -0.004016681 0.011689089 0.002035076 0.0016504547 0.0031334374
-0.011948895 0.008713759 0.004402123 0.007229771 0.002275662 0.002129709 -0.0076550464 0.008908122
-0.0024889484 0.024659183 0.003047149 0.00499917 -0.0023074113 0.0053030867 0.004746103 0.0037496598
0.014002685 0.018757552 0.0053341226 -0.009814194 0.0033287287 0.017948022 0.0028748515 0.0019607265
-0.00023334504 -0.0020571384 0.01850538 0.015136915 -0.016054468 -0.004044515 0.009427616 0.007544857
0.010233164 -0.0035082214 0.0029722604 -0.00159612 -0.013832634 -0.00047085594 -0.0070601813 0.014681696
-0.01714146 -0.00799949 -0.005236514 -0.0061850604 0.0069110193 0.004672787 -0.003180009 -0.0043543023
-0.0005216875 0.00505966 0.016362473 0.012521546 0.009991059 0.0041750795 0.011118583 -0.020101756
-0.002579088 -0.003210991 0.004557483 -0.010185566 0.0032531503 0.015252543 0.010351945 -0.0024847493
-0.005146952 0.008459105 -0.016974038 0.007352055 0.009943487 0.024112284 -0.020048322 0.0007666475
0.012824665 0.017357124 0.00094036007 0.015193654 -0.011143261 0.0032673704 0.00037890527 -0.0025534215
-0.0008241976 -0.0036247738 0.0068950313 -0.013682247 0.016071152 0.026993219 0.005405858 0.021086736
0.004066207 0.0010802262 -0.014243623 -0.00042047357 -0.0028762685 0.009685698 0.0072393357 -0.0053163623
-0.009941964 0.0036024177 -0.0017686374 -0.010496423 -0.0067521627 0.019191314 -0.008974474 -0.0063170525
0.019085674 0.008983597 -0.015643198 0.011936694 -0.005584792 0.00022281129 0.00029268992 0.0071095633
0.0047692917 -0.009064453 0.0019988497 0.014789192 0.018028658 -0.0006666323 0.009203016 0.011326831
0.011337738 0.0026243955 0.029068101 0.0062657213 0.00052035594 -0.0070444797 0.0028717506 0.004972511
-0.0072664735 0.010067217 0.0029268235 -0.0015523094 -0.014284673 0.0053594597 -0.0056675426 -0.024148703
0.055821154 -0.014006047 0.031685457 0.0027005845 0.019522108 -0.015443564 -0.022679394 -0.12693942
0.12598144 0.065668955 0.024003522 0.107782185 0.09093212 0.09587307 0.10708584 0.084677234
0.040990848 0.034138322 0.04387014 0.081328675 0.07891585 0.086890586 0.0915014 0.10713515
0.18553123 0.05837427 0.10629722 0.023748381 0.08057381 0.089904696 0.06458852 0.111278675
0.25554505 0.11785058 0.080742285 0.11690426 0.07386496 0.11685749 0.18688808 0.08102554
00000000: 3e07 753c 2c76 fcba fd41 713c 05bc bdba
00000010: d43b f03b 9b8d c53b 4298 a439 fc52 c43b
00000020: f6d4 c53c c99b 73bc e6b7 b73c 4dad 0c3c
00000030: 8f59 033c 0318 83bb c552 7b3b 7a45 36bb
00000040: 244f 833c 583c 313b cc9b be3b b76c 8ebb
00000050: 3c74 f43a 1548 063c 7f4e de3b b35f 9b3c
00000060: 7ce3 2b3d 7937 cebb 805c 23bc 4406 173a
00000070: 7a70 793c 920d 49ba da62 d737 6de0 6fbb
00000080: 661d 5b3b c96d 06bc b970 92bc 5300 ff3b
00000090: 6de6 11ba 0a71 bcba 018b 943c 0ac9 aebb
000000a0: 6804 88bc 87e1 7eba b6c3 d73b 3835 103c
000000b0: 305e ae3b 4512 8139 af13 34bb f252 8f3a
000000c0: ff38 4d3c 2a4e 173b ec25 89bb f896 1cbb
000000d0: a440 923a b491 13bb 1032 02bc b60e 25bc
000000e0: 7069 89bb eb3b a9bb a84a d9ba 81e2 783c
000000f0: 9ec5 683c 7f3e eaba e0e1 88bb 89a3 af3c
00000100: 15c1 9a3c d9d3 28b9 f85d 973b 1074 b5bb
00000110: 94b7 afbb 8840 9b3b 48ec a83c f462 cdbb
00000120: 5760 293c 61bf 63bc b7ae 893b 5d9e 83bb
00000130: 9883 3f3c e95e 053b 1254 d83a 5b5a 4d3b
00000140: 4cc5 43bc 27c4 0e3c af3f 903b b7e7 ec3b
00000150: 4623 153b 9792 0b3b 2fd7 fabb 5ff3 113c
00000160: a01d 23bb 0e02 ca3c adb2 473b 14d0 a33b
00000170: f037 17bb 84c5 ad3b 3385 9b3b dabc 753b
00000180: 856b 653c 70a9 993c ddc9 ae3b b7cb 20bc
00000190: cd26 5a3b bb07 933c 0168 3c3b 887f 003b
000001a0: 15ae 74b9 0ed1 06bb 9898 973c d300 783c
000001b0: a984 83bc da87 84bb 4a76 1a3c d93a f73b
000001c0: 00a9 273c 30ea 65bb 41ca 423b e634 d1ba
000001d0: 46a2 62bc 37dd f6b9 1859 e7bb 7f8b 703c
000001e0: 3f6c 8cbc 4b10 03bc 1097 abbb 0cac cabb
000001f0: d575 e23b 2e1e 993b b367 50bb 89ae 8ebb
00000200: dbc1 08ba 81cb a53b 980a 863c 2c27 4d3c
00000210: 8ab1 233c 1bcf 883b b82a 363c 70ac a4bc
00000220: eb05 29bb 7d6f 52bb f056 953b 5ce1 26bc
00000230: ce32 553b cde5 793c 349b 293c 2dd7 22bb
00000240: c3a7 a8bb 0f98 0a3c 230d 8bbc 82e9 f03b
00000250: 02ea 223c 2087 c53c 613c a4bc d8f8 483a
00000260: 8b1e 523c 8730 8e3c 7f82 763a ceee 783c
00000270: 3992 36bc 6121 563b cea7 c639 4e57 27bb
00000280: f70e 58ba 9d8d 6dbb b7ef e13b 812b 60bc
00000290: a6a7 833c e220 dd3c a023 b13b 17be ac3c
000002a0: d13d 853b 6096 8d3a 165e 69bc 0273 dcb9
000002b0: c77f 3cbb c3b0 1e3c f337 ed3b e134 aebb
000002c0: 9fe3 22bc 8a16 6c3b a0d1 e7ba 30f9 2bbc
000002d0: 3f41 ddbb 1a37 9d3c ac09 13bc 47ff cebb
000002e0: 8f59 9c3c f02f 133c 2a26 80bc 2092 433c
000002f0: a100 b7bb 73a2 6939 2d74 9939 57f7 e83b
00000300: b847 9c3b 1283 14bc 22ff 023b 5e4e 723c
00000310: d6b0 933c f0c0 2eba 3fc8 163c 2c94 393c
00000320: ebc1 393c 0dfe 2b3b 3a20 ee3c ae50 cd3b
00000330: 7f68 083a 61d5 e6bb fb33 3c3b 72f0 a23b
00000340: 991b eebb f8f0 243c f3cf 3f3b dc76 cbba
00000350: 430a 6abc 689e af3b cbb6 b9bb 80d3 c5bc
00000360: b9a4 643d 9e79 65bc 9cc8 013d 4afc 303b
00000370: d4ec 9f3c 0107 7dbc 23ca b9bc 68fc 01be
00000380: 4701 013e 727d 863d 09a3 c43c e8bc dc3d
00000390: 9f3a ba3d 1a59 c43d d24f db3d 426b ad3d
000003a0: 05e6 273d a0d4 0b3d 2db1 333d a68f a63d
000003b0: a29e a13d b1f3 b13d 1665 bb3d ac69 db3d
000003c0: e6fb 3d3e dc19 6f3d 5bb2 d93d f78b c23c
000003d0: e203 a53d f41f b83d fc46 843d 13e6 e33d
000003e0: cdd6 823e a55b f13d 365c a53d 806b ef3d
000003f0: 8346 973d fb52 ef3d 975f 3f3e b8f0 a53d

linear1.bias f4 [108]
0.015770625 0.30844256 0.39869386 0.034714602 0.0016246033 0.19997223 -0.011846978 0.034162894
0.12463953 -0.004613099 0.004879282 0.04556295 0.13743499 0.2786324 0.010582164 0.007963076
-0.009675379 0.051909655 -0.009210649 0.022491848 -0.019244745 0.30198708 0.015427775 -0.003367536
0.06814188 -0.0084681595 0.11793634 0.103576876 0.21631622 0.15400627 0.00074367435 -0.020822331
-0.0025223275 0.035463076 0.0282624 0.5571071 0.028688125 0.09847899 0.029303905 0.077334955
0.20948534 0.014089545 0.004455073 0.6150794 0.034934726 -0.017367708 0.39428478 0.33394408
0.044146072 0.1028454 0.08978383 -0.010511026 0.113506466 0.09450744 0.012034434 0.09424697
-0.005423369 0.34137928 0.089893006 0.25301003 0.09285341 0.1685994 0.26201004 0.026117828
0.026189605 0.13281155 0.09465028 0.16888462 -0.01459819 -0.027664185 0.13248385 -0.0005590742
0.0039824545 0.012146883 0.3014427 0.2065143 0.22589223 0.00025025677 0.16671814 0.15893313
0.04821756 0.008813399 0.030178308 0.032920495 0.021630125 0.042385336 0.0010970898 -0.008592602
0.38274208 0.083071545 0.16666873 0.07269206 0.0023228396 0.10181881 0.03086821 0.047889747
0.4021898 0.013980942 0.13295698 0.00268132 0.25447258 0.05343471 0.15128683 -0.009524435
0.0135171395 -0.0029135393 -0.013859569 0.013560841
00000000: 6631 813c 2fec 9d3e 9a21 cc3e e630 0e3d
00000010: a4f0 d43a 85c5 4c3e d419 42bc 64ee 0b3d
00000020: 0343 ff3d 7b29 97bb 62e2 9f3b 37a0 3a3d
00000030: c2bb 0c3e e8a8 8e3e d060 2d3c 9077 023c
00000040: 7b85 1ebc 389f 543d 43e8 16bc d340 b83c
00000050: 28a7 9dbc 0d9e 9a3e c7c4 7c3c e1b1 5cbb
00000060: f88d 8b3d 09be 0abc 9c88 f13d 1d20 d43d
00000070: 0082 5d3e d2b3 1d3e 24f3 423a 9893 aabc
00000080: a24d 25bb bb41 113d 8c86 e73c 929e 0e3f
00000090: 5c03 eb3c 5aaf c93d be0e f03c ca61 9e3d
000000a0: 5383 563e d6d7 663c dcfb 913b d875 1d3f
000000b0: b717 0f3d b946 8ebc b2df c93e b8fa aa3e
000000c0: 83d2 343d 9ca0 d23d 96e0 b73d 7036 2cbc
000000d0: 1476 e83d 1e8d c13d 132c 453c 8e04 c13d
000000e0: 84b6 b1bb 44c9 ae3e d319 b83d 888a 813e
000000f0: ee29 be3d 52a5 2c3e 2e26 863e 0ef5 d53c
00000100: 958b d63c c0ff 073e 02d8 c13d 17f0 2c3e
00000110: 3f2d 6fbc 00a0 e2bc d9a9 073e d68e 12ba
00000120: 407f 823b b803 473c b356 9a3e 7c78 533e
00000130: 4b50 673e e534 8339 29b8 2a3e 5ebf 223e
00000140: c77f 453d 1366 103c 8038 f73c a4d7 063d
00000150: a931 b13c 3f9c 2d3d 3acc 8f3a fcc7 0cbc
00000160: c5f6 c33e 6a21 aa3d 35ab 2a3e 93df 943d
00000170: c83a 183b 6186 d03d 54df fc3c 0a28 443d
00000180: d2eb cd3e 5210 653c e025 083e 16b9 2f3b
00000190: 3b4a 823e 5bde 5a3d efea 1a3e 600c 1cbc
000001a0: fe76 5d3c 14f1 3ebb 3f13 63bc 4a2e 5e3c

linear2.weight f4 [1, 108]
0.044584285 1.0284998 1.3393297 0.11545627 0.02395849 0.7149194 0.0027359135 0.06288887
0.4013052 0.013100635 0.004168536 0.15885371 0.4725171 0.85227174 0.036448687 0.04511029
-0.0034117717 0.18836349 0.00881221 0.1285997 0.0059106965 1.0374491 0.005036243 0.003018451
0.18126376 -0.00592435 0.3959788 0.34381488 0.6516314 0.59561265 0.012869081 0.006747308
0.008581084 0.076144286 0.07662026 1.864878 0.10514483 0.32009742 0.07704147 0.26668605
0.70352346 0.042347383 0.04271105 2.0213785 0.09350201 -0.0065629985 1.3318641 1.1154103
0.15674984 0.32699952 0.32910967 0.0030250947 0.4133243 0.31616035 0.05747522 0.26617363
0.022190427 1.0925918 0.2898697 0.81820226 0.33999017 0.53484404 0.8742005 0.11543403
0.045669485 0.40751144 0.3480335 0.55255187 0.005787411 -0.001545545 0.43100685 0.014669763
0.001057745 0.07132044 1.0024521 0.7229832 0.68968827 0.05899455 0.5796753 0.5559685
0.19670343 0.01308261 0.08496984 0.056193464 0.088529654 0.10890562 0.013603804 0.016851695
1.2435173 0.23975708 0.53297293 0.23497474 0.014038514 0.34895924 0.07085276 0.16074346
1.3899642 0.047620602 0.4221537 -0.001442644 0.85842544 0.16899 0.5493059 0.014766665
0.0137024755 -0.011206296 -0.0006448349 0.026357852
00000000: 039e 363d e2a5 833f 286f ab3f 5674 ec3d
00000010: 9844 c43c f504 373f 034d 333b e1cb 803d
00000020: e077 cd3e 0ca4 563c 3798 883b 8caa 223e
00000030: c3ed f13e 7b2e 5a3f 384b 153d 91c5 383d
00000040: 0898 5fbb 5ce2 403e 1661 103c a4af 033e
00000050: 84ae c13b 22cb 843f 1107 a53b 34d1 453b
00000060: 359d 393e 0d21 c2bb bcbd ca3e 8108 b03e
00000070: 51d1 263f 127a 183f d7d8 523c 8618 dd3b
00000080: ad97 0c3c 89f1 9b3d 15eb 9c3d 53b4 ee3f
00000090: 2c56 d73d cfe3 a33e ebc7 9d3d 138b 883e
000000a0: 1d1a 343f 7374 2d3d c8f1 2e3d 445e 0140
000000b0: fb7d bf3d 6c0e d7bb 867a aa3f c4c5 8e3f
000000c0: 0883 203e 7b6c a73e 1081 a83e ab40 463b
000000d0: 3e9f d33e c5df a13e 236b 6b3d e947 883e
000000e0: b3c8 b53c 0cda 8b3f cd69 943e b475 513f
000000f0: 3113 ae3e 8aeb 083f 9bcb 5f3f ad68 ec3d
00000100: ed0f 3b3d 57a5 d03e 7231 b23e 0a74 0d3f
00000110: 52a4 bd3b e293 caba eeac dc3e 7259 703c
00000120: 08a4 8a3a 7310 923d 5a50 803f 6d15 393f
00000130: 698f 303f 45a4 713d 9a65 143f f453 0e3f
00000140: a06c 493e 7258 563c ab04 ae3d 1e2b 663d
00000150: 094f b53d e909 df3d 7de2 5e3c 910c 8a3c
00000160: 932b 9f3f e182 753e ea70 083f 389d 703e
00000170: cc01 663c c9aa b23e 401b 913d ef99 243e
00000180: 59ea b13f d20d 433d 8824 d83e 1a17 bdba
00000190: c5c1 5b3f b70b 2d3e 509f 0c3f e2ef 713c
000001a0: 5980 603c 9d9a 37bc 230a 29ba 6cec d73c
