model_m5ALL_new_14000_805.pth (torch, 96075 bytes, 3 tensors)

linear1.weight f4 [108, 216]
000000 40 07 49 bc 4d 38 00 bc d7 b8 b9 bb 32 c4 15 ba
       -0.012269795 -0.007825923 -0.0056677866 -0.00057131343
000010 5f 79 8d 3a be 4a 88 bc ff 61 28 bc 04 8f 03 3c
       0.0010793618 -0.016637202 -0.01027727 0.008029703
000020 8c aa 9a 3a 99 6c 40 bb 31 69 bf 3b 38 7b 6a bc
       0.0011800095 -0.0029361604 0.005841397 -0.014311604
000030 12 65 eb 3b 43 5f bf bc 7f 7f 93 3a 26 51 02 bc
       0.0071836794 -0.023360854 0.0011253207 -0.007953918
000040 73 89 81 3c 06 60 f7 38 09 13 0e 3c 0d d2 41 bb
       0.015812611 0.000117957636 0.0086715305 -0.0029574663
000050 ee 30 08 3c d7 e8 d3 b9 0c 22 a1 bb b8 42 1c 3c
       0.008312447 -0.00040418535 -0.004917389 0.009537391
000060 66 79 3d bc b3 60 0f bb b9 0f 83 3b d6 ad 91 3b
       -0.011564588 -0.0021877706 0.003999677 0.0044457717
000070 6c 86 4b 3b 96 d2 3b 3c a2 b5 9d 3c 6e 47 50 37
       0.0031055463 0.011463782 0.019251648 1.2414397e-05
000080 f3 7e 13 bb e7 7a e3 bb 7a f4 1f 3c 5d 82 ab 3b
       -0.0022506088 -0.0069421413 0.009762878 0.0052340464
000090 45 ba 85 3b c5 99 66 3c c8 6c 64 3c 49 38 1b 3c
       0.004081043 0.014074747 0.013941951 0.009473869
0000a0 90 9f c5 3b 45 6e d9 b7 4d 02 a8 bb ee 8c 73 bc
       0.006030984 -2.5919764e-05 -0.0051272274 -0.014865143
0000b0 6d 94 63 ba 29 55 0a 3c 15 d6 7a 3c 9a 96 79 3c
       -0.000868148 0.008443155 0.01530983 0.01523366
0000c0 b7 9f 25 3c ad 46 c9 bb 20 81 7b 3b 0a 5c 54 bb
       0.01010888 -0.0061424584 0.0038376525 -0.0032403492
0000d0 6c ce 16 3c 8e a4 a1 3c fa e0 5f 3c e2 fb bc 3a
       0.009204488 0.019731786 0.013664478 0.0014418329
0000e0 23 12 e5 bb 6c 27 a6 bc 0d ae 87 bc f8 3d b8 bb
       -0.0069906875 -0.02028247 -0.016562486 -0.0056226216
0000f0 8c 4a 46 bc 4e ee 4a 3b ee af 9b bb c5 02 35 3c
       -0.012102734 0.0030964795 -0.004751197 0.011048024
000100 e6 aa ce 3b c4 1c 85 ba b7 c7 54 3c fe ff 81 3a
       0.006306994 -0.0010155668 0.012987069 0.000991821
000110 3c fd 4d ba 16 44 9d 3b 1e a3 95 bc 8b 49 87 3c
       -0.0007857864 0.0047993762 -0.018266257 0.01651456
000120 bf 13 37 bc 74 ab de 3b 1a fd 2d bc 00 e7 06 3b
       -0.011174141 0.006795341 -0.010619426 0.0020584464
000130 fb e6 28 b5 5e 39 34 3c e8 11 16 bb 96 3c 7b bc
       -6.2921e-07 0.0110000055 -0.0022898857 -0.015334269
000140 2f 44 20 3c 6d aa 81 3b 14 58 5d bc 19 08 6d 3a
       0.009781881 0.003957084 -0.013509769 0.0009042039
000150 c2 e8 96 3c d1 dd db bc 7e 83 15 3c e7 82 f4 bb
       0.018421534 -0.026839169 0.009125588 -0.007461894
000160 e5 72 16 bc 9b 45 b7 3b 4f 48 d6 bb 8c 63 70 bb
       -0.009182666 0.0055930144 -0.0065393816 -0.0036680428
000170 9d 33 02 3c 53 5d e1 3b d6 f6 8e 3c 48 48 a4 3b
       0.007946876 0.00687758 0.017451685 0.0050134994
000180 25 5a 5c bc dc 5a cb bb 14 78 e5 bb 13 23 5b 3b
       -0.0134492265 -0.0062058996 -0.00700284 0.0033437654
000190 fd f5 51 bc cc c7 40 bc da 07 39 3c bb 96 d7 3c
       -0.012814996 -0.011766385 0.011293376 0.026316991
0001a0 1c ce 1a 3c f7 62 73 3c 08 77 2f 3c 0a 3e fa 3a
       0.009448554 0.014855138 0.010709532 0.0019091975
0001b0 ce 5b 12 3a 96 b2 ce bb e3 ff 81 bc e2 35 f2 3b
       0.0005583138 -0.00630791 -0.015869087 0.0073916772
0001c0 9f 2f 0a bb 18 df c3 3b af d7 7e bb 30 3c 9c ba
       -0.0021085513 0.0059775226 -0.0038885882 -0.0011919793
0001d0 88 bd a2 bb fb 66 98 3b 41 c6 20 3c 33 84 18 3c
       -0.0049664415 0.004650948 0.009812892 0.0093088625
0001e0 19 6c 56 39 8b 10 14 bc 1e cc 34 3c e3 64 f6 3b
       0.000204489 -0.009037147 0.011034993 0.007519351
0001f0 5c 4f f4 3b aa 44 cb 3b ec 2b 85 3b 44 42 60 3c
       0.0074557494 0.0062032538 0.004064074 0.013687674
000200 97 e8 16 bc 8e ab 68 3c 8f f8 d3 ba 03 18 aa 37
       -0.009210727 0.014201058 -0.0016172099 2.027676e-05
000210 d0 9c f0 3a 4e 81 fe 3b 57 f4 c3 ba 7a fb 8f b8
       0.0018357281 0.007766879 -0.0014950138 -6.8656125e-05
000220 c4 b5 0b 3c d1 2c 61 bb bd ce 2f bc 8a 72 0d 3c
       0.008527223 -0.0034358988 -0.010730443 0.008633265
000230 54 66 98 3b 8c b1 3a 3b d3 1d 6e bc 5a e0 07 3b
       0.0046508703 0.0028487174 -0.014533478 0.002073309
000240 f2 5e 00 bb 93 34 a9 3c 17 b1 c3 3b 50 86 68 3b
       -0.0019587842 0.020654952 0.0059720385 0.0035480447
000250 72 09 97 bc 5d 03 9b bc 42 1d b4 3b 7e d7 2f bc
       -0.018437121 -0.018922502 0.005496652 -0.01073253
000260 31 a4 85 3b 83 64 04 3c 3a c7 95 3c f3 80 0c 3c
       0.004078411 0.0080806045 0.018283475 0.008575666
000270 92 b9 51 bb bf 9d b3 3b d2 54 0e 3b fa 1e 39 3b
       -0.0032001478 0.0054814513 0.0021718037 0.0028247223
000280 9b 74 9e bb 8f 74 76 bb fd ba 55 3c f5 2e 1a bc
       -0.004835678 -0.0037606095 0.01304507 -0.0094106095
000290 19 43 32 bc 38 cd a4 b8 f6 71 60 3c 9a 5a f8 bb
       -0.010880255 -7.8583544e-05 0.013699045 -0.00757916
0002a0 ee 5e 83 bb f2 0d 42 3c 27 3b 1a bc 8a 25 02 3d
       -0.0040091192 0.011844145 -0.009413517 0.03177408
0002b0 90 2f b2 bb 52 24 a3 ba 56 dc 2f 3c e9 9c 1b bc
       -0.005437799 -0.0012446737 0.0107336845 -0.0094978595
0002c0 7f 24 1b bc 0b b1 90 3c 2f 5a e5 3b 2a 83 13 bc
       -0.009469151 0.017662546 0.006999276 -0.00900344
0002d0 9f 6d 12 bc 61 6e e6 ba 17 0a fd 3b 8d 51 16 bb
       -0.0089372685 -0.0017580503 0.00772215 -0.0022936792
0002e0 97 12 52 3b 50 42 1d 3b d0 c6 31 bb d8 07 3d bc
       0.0032054537 0.0023995824 -0.0027126558 -0.011537515
0002f0 b3 ba 15 3c b5 f0 2a 3c 55 ed 13 bc 2a 30 d6 bb
       0.009138751 0.010433366 -0.009028752 -0.0065365033
000300 a5 57 39 3a b1 aa 21 ba d5 08 19 3b e0 75 90 3a
       0.000707025 -0.00061670976 0.0023351212 0.0011021458
000310 27 05 7c bc 43 a7 00 bc a4 b8 26 3c 9e ff 25 bb
       -0.015382088 -0.007852378 0.010175858 -0.0025329362
000320 ac 0b 32 bc 1d be 84 39 6b d1 06 bb 8f 5b 15 bb
       -0.010867041 0.00025318647 -0.00205716 -0.002279017
000330 54 22 90 3b ba d2 f9 3b e2 15 e0 bc b3 84 82 bb
       0.0043986235 0.0076239975 -0.027354185 -0.003983104
000340 89 68 37 bb ce 9d b9 3b a0 9e 4e 3c ce 1d 0c 3c
       -0.0027985892 0.0056645637 0.012611061 0.008552028
000350 3a 3c 9b ba 3e 90 63 3c db 15 84 3b 53 fa 91 bc
       -0.001184351 0.0138893705 0.0040309257 -0.01781956
000360 cb 60 6d 3c c6 15 ee bb 63 3e 50 bc 95 b0 45 bc
       0.014488409 -0.007265779 -0.012710187 -0.012066026
000370 77 f7 8a bc 33 d1 73 bc d1 d1 2e bc 71 51 f9 bc
       -0.016963704 -0.01488142 -0.010670141 -0.030434342
000380 9b 4c 1f 3d c4 d6 fe 3b 94 47 51 bc db 3f 04 3c
       0.038891416 0.007777067 -0.012773413 0.008071865
000390 2d fc a3 b9 bf 34 02 3b 46 59 44 3c ca 00 dd 3b
       -0.00031277668 0.0019867865 0.011984175 0.006744479
0003a0 48 81 df 3c 09 3b 5e 3c 24 6d 95 bc e8 ec f4 ba
       0.027283326 0.01356388 -0.018240519 -0.0018686326
0003b0 e2 a5 5a 3c ac 4a 65 3c 34 4c 26 3b e1 15 86 bb
       0.013345214 0.013994854 0.002537501 -0.0040919636
0003c0 fd 2f eb 3c df af 05 3c 96 dd 07 3c 64 97 03 bc
       0.028709406 0.008159607 0.008292576 -0.0080317
0003d0 1c 4f 42 3c d3 f9 21 bc 45 56 c2 3b 28 9e 12 3c
       0.011859681 -0.009886223 0.0059306943 0.00894884
0003e0 af 67 e7 3c e4 37 4d 3b 03 a5 3c 3c c2 f0 97 3c
       0.028247682 0.003131383 0.011513951 0.01854742
0003f0 42 21 3d 3c 98 8e c3 3c 51 63 b7 3c 13 43 81 3c
       0.011543574 0.023871705 0.022386225 0.015779054

linear1.bias f4 [108]
000000 4d 13 27 3c a0 20 b1 bb 5f 99 2e 3d 19 79 e7 3d
       0.010197473 -0.0054055005 0.042626735 0.113023944
000010 29 c5 40 3c f9 e6 77 3c 7e 1c 77 3d 0e 9a 21 3d
       0.011765757 0.015130752 0.060329907 0.03945356
000020 79 cd 79 3d ae ed 67 3e 2f 76 83 3c 99 8b 07 3e
       0.06098697 0.22649261 0.016047565 0.13236846
000030 72 50 2d 3e a8 5e 98 3c 0f db 92 3d 21 0c 15 3c
       0.16925219 0.018599823 0.07170688 0.00909713
000040 e5 80 b1 3e 55 3a 30 3d da 77 57 bc 52 22 42 3d
       0.3466865 0.04302438 -0.013151133 0.04739601
000050 39 24 0e 3e 2c 30 37 3e b2 65 c8 3e 70 25 72 bb
       0.13881005 0.1788947 0.39140087 -0.0036948584
000060 28 de b8 3d b5 97 b0 3d a4 31 18 3d 72 bf d3 3d
       0.09026748 0.08622686 0.037156716 0.1033925
000070 19 80 2b 3e 51 85 5b 3e 39 66 05 3d f9 e4 7d 3e
       0.16748084 0.21437575 0.03256819 0.24794377
000080 b0 3e 0d 3d 3e 7a c2 3c 1c 8f 41 3d dd 38 d7 3d
       0.03448361 0.02373993 0.04725562 0.10508893
000090 47 71 33 3d eb 7c 1a bc e9 2b c1 3d 28 4a 1f 3e
       0.0438092 -0.009429197 0.09432203 0.15555632
0000a0 a1 fb 74 3c cb b7 e4 3e 7e c6 e6 3c 46 d2 9c bc
       0.014952571 0.44671473 0.02817082 -0.019143235
0000b0 ec ba 48 3b a3 26 8d 3d 3d b1 9f 3d 3a 46 e2 3d
       0.0030628992 0.06892135 0.077974774 0.11048551
0000c0 71 f4 d2 3d 13 92 72 bb 38 62 1e 3e 09 d0 b0 3d
       0.1030053 -0.0037013337 0.15467155 0.086334296
0000d0 e2 0c b5 3c 73 30 37 bb ef 6f 65 3e a3 79 08 3e
       0.02210087 -0.0027952462 0.2240598 0.1332765
0000e0 d4 6d 87 3e f7 80 b7 3e 3b cc ab 3c 3a 35 53 3e
       0.2645098 0.3584058 0.020971408 0.20625773
0000f0 b4 07 ed 3c 15 02 8a 3e 0c 4c 5b 3c 7e 3b cd 3c
       0.028934337 0.26954713 0.01338483 0.025052782
000100 c3 f9 14 3d 7a 47 14 3d d0 f3 3b bc 17 14 32 3e
       0.036371004 0.036200978 -0.011471704 0.17390476
000110 a7 88 86 3e be 9a f4 3d 5f 3f ae 3d d6 57 51 3d
       0.26276132 0.11943577 0.08508181 0.051109158
000120 01 96 8e 3d b2 f8 44 ba 48 e9 11 3e ef 87 09 3d
       0.06962205 -0.0007513865 0.14249146 0.033576902
000130 06 04 54 3d 4a b5 81 3e ff 80 0f 3e 42 9d 02 3f
       0.05176165 0.25333625 0.14014052 0.51021206
000140 8c 30 a1 bb bc 07 a0 3a 05 90 07 3e 3a 39 78 3e
       -0.0049191173 0.0012209336 0.13238533 0.2424058
000150 70 b0 6b 3e da 9a 34 3c 19 47 48 bc 9f 22 be 3e
       0.23016524 0.011023248 -0.012223982 0.3713579
000160 df 74 05 3e 6b ab 1a 3d db 17 1b bc 56 9e e3 3b
       0.13032864 0.037761133 -0.009466137 0.0069463653
000170 d2 46 ab 3e bb 32 d7 3b 9c d0 b3 bb 1a 18 90 3e
       0.3345247 0.006567327 -0.0054875147 0.28143388
000180 9f 63 d4 3c 4d 21 d7 3c c2 d1 2e bc 46 7f 0a 3d
       0.02592641 0.026260996 -0.010670127 0.033812784
000190 26 fc 02 3d 05 b4 34 3d ff 39 53 3e c1 ae 64 3c
       0.03197875 0.044116993 0.20627593 0.01395768
0001a0 e1 01 3e 3c c7 94 05 3e 75 ac cf 3c 50 bd b4 3a
       0.011597128 0.13045035 0.025350789 0.001378933

linear2.weight f4 [1, 108]
000000 26 66 ad 3c 6e bc ac 3d 5b 6d 1e 3e 76 c9 c3 3e
       0.021166872 0.084343776 0.15471403 0.3823964
000010 d0 53 b7 3d 7b a5 6f 3d 25 d8 4d 3e a7 e4 2f 3e
       0.08951533 0.058507424 0.20101984 0.17177068
000020 c6 8e 83 3e 86 15 4c 3f 7d 34 8d 3d 6c f3 dd 3e
       0.25694865 0.7972034 0.06894777 0.4334978
000030 66 e7 26 3f e6 d2 dd 3c b2 44 91 3e 14 1e 41 bc
       0.65196836 0.027078103 0.28372723 -0.011786956
000040 42 cb a4 3f c8 e3 0b 3e f4 d8 51 3c 99 57 2a 3e
       1.2874529 0.1366111 0.012808073 0.16634978
000050 8a aa df 3e 03 70 37 3f 1e 9c b2 3f 0b 34 1c bb
       0.43684798 0.7165529 1.3953893 -0.002383473
000060 96 8b b8 3e 78 b8 83 3e 82 79 2e 3e cb 2a ce 3e
       0.36043996 0.25726676 0.17038539 0.40267023
000070 ff 33 1c 3f 22 32 58 3f cf fa d6 3d cf 04 6f 3f
       0.6101684 0.84451497 0.10497057 0.9336671
000080 cb 7a 14 3e 3d bc 00 3e cc 40 34 3e b5 11 c6 3e
       0.14499967 0.12571807 0.17602843 0.38685384
000090 01 53 4c 3e 4f 0f 42 3c 86 3f ae 3e 96 09 17 3f
       0.19953538 0.01184447 0.3403284 0.58999
0000a0 ad 3e e4 3d c0 1e d5 3f 1f 17 c1 3d 6f 66 8c bb
       0.11144767 1.6650009 0.09428238 -0.004284672
0000b0 e0 4b b4 3c 89 b1 69 3e f4 6b 8b 3e 3f 3e e2 3e
       0.022008836 0.2282163 0.272308 0.44188115
0000c0 07 6f a6 3e e0 93 a3 bb f0 ea 0d 3f f8 13 ba 3e
       0.32506582 -0.0049919933 0.5543661 0.3634336
0000d0 6e ac da 3d c2 f2 ae 3c 92 df 54 3f 58 68 d7 3e
       0.106774196 0.02135599 0.8315364 0.42071795
0000e0 3e 61 83 3f 6a dd b0 3f d3 f7 1c 3c 1c dc 3a 3f
       1.0264051 1.381757 0.00958057 0.7299211
0000f0 94 d5 ae 3d 79 3b 89 3f ef ea a3 3d a5 18 d7 3d
       0.085368305 1.0721275 0.080037944 0.105027474
000100 c4 d1 cf 3d bb 9d c9 3d c8 ac 87 bc 53 3b 1f 3f
       0.101474315 0.09844538 -0.01656188 0.62199897
000110 3f 0d 80 3f af 3c e5 3e 09 e5 ae 3e 8c 70 39 3e
       1.0004042 0.4477286 0.34159115 0.1810934
000120 a9 d6 84 3e 3b 07 a4 3b 62 4d 01 3f 50 e2 e4 3d
       0.25945023 0.0050057448 0.505087 0.11175978
000130 f1 23 58 3e 68 5a 68 3f 77 8f ef 3e 6d f4 f1 3f
       0.2110746 0.9076295 0.46789142 1.8902718
000140 78 54 3d bb 12 f1 9e 3b 42 70 fa 3e 6f 4c 61 3f
       -0.0028889459 0.004850515 0.4891377 0.88007253
000150 3e ea 55 3f 2d 9e 9e 3d 6e 1c ef 3b 71 ad a5 3f
       0.8356055 0.077450134 0.0072970903 1.2943555
000160 59 d7 00 3f 0c b5 c0 3d d4 ff ac 3b 8c 54 25 3d
       0.50328594 0.09409532 0.0052795205 0.040363833
000170 68 ec 9e 3f 85 de ac 3c 0d bb cf 3b 64 54 78 3f
       1.2415895 0.0211022 0.006339437 0.9700377
000180 60 f8 33 3d 43 39 99 3d 59 bb 31 bc a0 a0 68 3d
       0.04393804 0.07481625 -0.01084789 0.05679381
000190 85 27 82 3d de 74 2c 3e f0 93 43 3f 3b c0 69 3d
       0.06355194 0.16841456 0.7639761 0.05706809
0001a0 82 e0 9b 3d 8a 3d 04 3f 61 71 04 3e de d2 1c 3d
       0.07611181 0.516564 0.12933876 0.038287036
