model_m5ALL_new_44000_127.pth (torch, 96075 bytes, 3 tensors)

linear1.weight f4 [108, 216]
0.002763841 -0.16846874 -0.059935328 -0.10372314 -0.09090552 -0.17893822 -0.18509924 -0.14468743
0.17976308 0.0146337 -0.04129836 0.032054596 0.0781214 0.028121341 0.11004156 -0.02611885
0.06608755 0.054609913 0.08897574 0.083170764 0.067562275 0.038074177 0.0729867 0.12787132
0.24155651 -0.08352838 0.057086516 -0.06508866 -0.01714918 0.030100882 0.0094996 0.1736251
0.33826697 0.141382 0.03407872 0.12568574 0.12318588 0.09492282 0.166827 0.04120439
0.23861746 0.10194255 0.064808555 0.1107573 0.06650453 0.067837976 0.028429944 0.14376523
0.10060105 0.04305623 0.06338142 0.08907684 0.1047333 0.10210366 0.09760922 0.07627433
0.18571767 0.039885387 0.05886382 0.07128636 0.045723576 0.12537795 0.12549761 0.042497657
0.1289158 0.037060957 0.06766294 0.060317054 0.110158935 0.052327786 0.032201387 0.04147012
-0.15821941 0.055930544 0.0018334033 0.10707522 -0.08593289 0.08764672 0.07399901 0.0069827624
-0.12566157 0.07162435 0.11745203 0.064891994 0.019914148 0.040595587 0.09591968 0.07200509
0.014268958 0.081807226 0.09400737 0.0876114 0.11215189 0.11204154 0.04414232 0.10796069
-0.12178318 0.19317132 0.16569154 0.00921194 0.16834038 0.12586525 0.06661742 0.16026856
0.041728 0.15071052 0.11721767 0.112493165 0.023014551 0.060089964 0.09566902 0.11206173
0.0007839808 0.17496929 0.15495944 0.10359158 0.14258662 0.07608428 0.07086124 0.14938687
0.028369997 0.07933503 0.13224284 0.10555349 0.10948824 0.045829862 0.05005464 0.087587096
0.061303716 0.044130065 0.09661428 0.03815796 0.05873168 0.06870383 0.04340012 0.058193333
0.06303691 0.1145653 0.11270712 0.10636159 0.0756853 0.15369512 0.08793944 0.023110682
0.09433904 0.084300555 0.052900136 0.072087824 0.068127126 0.0683812 0.060960717 0.041650694
0.10349885 0.070282824 0.08131147 0.106554836 0.066141956 0.13893971 0.1341425 0.055130325
0.041621197 0.05939725 0.03827177 0.104260065 0.10405226 0.077842 0.067291886 0.1023473
0.066449106 0.10323082 0.06726865 0.09937814 0.10220036 0.08037032 0.10140481 0.17587233
0.12946133 0.111597754 0.06927963 0.07638638 0.07177115 0.09009064 0.14070727 0.07648354
0.02649742 0.063105054 0.018140715 0.0454834 0.05560406 0.022057591 0.042868234 0.035460934
0.08158213 0.07131887 0.09233066 0.051465064 0.057019062 0.0975933 0.08492212 0.092422105
0.0019496218 0.063788824 0.05462314 0.12390303 0.08622019 0.093583524 0.13385768 0.10097281
-0.15303218 -0.050973456 -0.027400048 -0.056130335 -0.06787194 -0.055305503 -0.05577101 -0.12803456
-0.0013390247 -0.0026932477 -0.0064096553 -0.0128327655 -0.0020014716 -0.0029586502 0.004324537 0.013541441
0.0069247573 -0.011164136 -0.00064820785 -0.0049441033 -0.005007415 -0.026481826 0.0040904856 -0.0097315265
-0.015845614 -0.013384383 -0.0032917596 -0.008603853 -0.00058220245 -0.0125205 -0.0022870954 -0.016051255
-0.004170542 -0.0037844675 0.029674564 0.011786982 0.0035854327 0.0050528995 0.013340266 0.0043484704
-0.002939142 0.0030952713 -0.006600652 -0.0054708933 -0.005047225 -0.0016245195 0.0043101194 0.011255779
00000000: 8f21 353b 1283 2cbe bf7e 75bd cc6c d4bd
00000010: ac2c babd 953b 37be a88a 3dbe f128 14be
00000020: d013 383e 30c2 6f3c 7828 29bd ae4b 033d
00000030: 1dfe 9f3d ba5e e63c 785d e13d 33f7 d5bc
00000040: e958 873d a5ae 5f3d ea38 b63d 6f55 aa3d
00000050: 175e 8a3d abf3 1b3d 0d7a 953d b3f0 023e
00000060: 975a 773e ed10 abbd 8dd3 693d 344d 85bd
00000070: 707c 8cbc 2096 f63c 36a4 1b3c c7ca 313e
00000080: 5431 ad3e 71c6 103e 2196 0b3d c3b3 003e
00000090: e148 fc3d e566 c23d b2d4 2a3e efc5 283d
000000a0: 2358 743e 41c7 d03d 59ba 843d b9d4 e23d
000000b0: 8733 883d a3ee 8a3d eae5 e83c 3137 133e
000000c0: ec07 ce3d bb5b 303d 1ece 813d eb6d b63d
000000d0: 6a7e d63d b91b d13d 58e7 c73d b735 9c3d
000000e0: c62c 3e3e dc5e 233d 301b 713d 95fe 913d
000000f0: a548 3b3d 1463 003e 7282 003e 0612 2e3d
00000100: 8102 043e 3bcd 173d de92 8a3d 040f 773d
00000110: 029b e13d a955 563d 9ae5 033d 93dc 293d
00000120: 4504 22be 6d17 653d ce4e f03a 414a db3d
00000130: 95fd afbd 2080 b33d cb8c 973d a8cf e43b
00000140: 6dad 00be caaf 923d b18a f03d 18e6 843d
00000150: ff22 a33c 8f47 263d 8a71 c43d 6877 933d
00000160: 59c8 693c 8c8a a73d f086 c03d 9b6d b33d
00000170: e4af e53d 0976 e53d 94ce 343d 7f1a dd3d
00000180: 7669 f9bd b4ce 453e 0bab 293e aded 163c
00000190: 6c61 2c3e d2e2 003e b76e 883d 711d 243e
000001a0: fbea 2a3d dc53 1a3e d10f f03d d162 e63d
000001b0: 0389 bc3c e520 763d 1fee c33d 9f80 e53d
000001c0: 1084 4d3a 262b 333e b0ad 1e3e d327 d43d
000001d0: 3a02 123e 13d2 9b3d b31f 913d dff8 183e
000001e0: 3268 e83c 677a a23d ab6a 073e 6e2c d83d
000001f0: 5f3b e03d 18b8 3b3d 1806 4d3d dd60 b33d
00000200: 9b19 7b3d bac1 343d b5dd c53d 854b 1c3d
00000210: a190 703d 98b4 8c3d 53c4 313d 225c 6e3d
00000220: 7f19 813d 36a1 ea3d fed2 e63d 1bd4 d93d
00000230: e500 9b3d 4162 1d3e 9819 b43d 9d52 bd3c
00000240: d434 c13d c5a5 ac3d d0ad 583d c8a2 933d
00000250: 3c86 8b3d 710b 8c3d f2b1 793d eb99 2a3d
00000260: 34f7 d33d 71f0 8f3d a186 a63d 6c39 da3d
00000270: 6f75 873d 3646 0e3e a75c 093e 56d0 613d
00000280: fd7a 2a3d 884a 733d dcc2 1c3d 4d86 d53d
00000290: 5a19 d53d a06b 9f3d 54d0 893d 769b d13d
000002a0: 7816 883d ae6a d33d 25c4 893d c486 cb3d
000002b0: 6c4e d13d 3299 a43d 53ad cf3d e017 343e
000002c0: 8391 043e 5d8d e43d 7be2 8d3d 7670 9c3d
000002d0: c1fc 923d 7181 b83d 9115 103e 67a3 9c3d
000002e0: 1e11 d93c 393d 813d d69b 943c cd4c 3a3d
000002f0: 15c1 633d 1fb2 b43c 9a96 2f3d 7c3f 113d
00000300: 8814 a73d a10f 923d db17 bd3d 08cd 523d
00000310: d28c 693d ffde c73d a6eb ad3d cd47 bd3d
00000320: 748a ff3a b7a3 823d 83bc 5f3d dfc0 fd3d
00000330: 3694 b03d b8a8 bf3d fd11 093e d5ca ce3d
00000340: 78b4 1cbe 8bc9 50bd 1176 e0bc ece8 65bd
00000350: 7200 8bbd 0688 62bd 2570 64bd 7e1b 03be
00000360: 3782 afba 3381 30bb 1608 d2bb 8540 52bc
00000370: 1f2b 03bb eae5 41bb d8b4 8d3b ecdc 5d3c
00000380: 13e9 e23b c8e9 36bc 7eec 29ba 2502 a2bb
00000390: 3e15 a4bb 6af0 d8bc 7b09 863b fb70 1fbc
000003a0: a9ce 81bc 2c4a 5bbc 90ba 57bb 2df7 0cbc
000003b0: f29e 18ba c922 4dbc 18e3 15bb ec7d 83bc
000003c0: 0ba9 88bb d404 78bb 1218 f33c 301e 413c
000003d0: 94f9 6a3b cb92 a53b 2291 5a3c 9d7d 8e3b
000003e0: 9f9e 40bb 09da 4a3b 484a d8bb 2e45 b3bb
000003f0: 3163 a5bb d4ed d4ba e73b 8d3b 296a 383c

linear1.bias f4 [108]
0.1830338 0.008176918 0.06666568 -0.0052635656 0.42395723 0.0067990087 0.06537853 -0.013466793
0.03343294 -0.014227722 0.28976926 0.3390929 0.33655074 0.17919797 -0.004218309 0.3200471
0.012147147 0.019321414 0.050822705 0.18327835 0.0010766719 0.085713804 0.03527825 0.003269169
0.0035889852 0.023867186 0.09462874 0.16104782 0.013257533 -0.012370231 0.018206192 -0.005303806
0.07111563 -0.007872758 0.0451059 -0.0016454076 -0.015744593 0.03448223 -0.004602876 0.03227123
0.02633578 0.24851437 0.02805661 0.019616654 0.12422823 0.008511123 0.13275939 0.039034672
0.16328014 0.0663186 0.16284196 -0.005411669 -0.0077695646 0.20540792 0.048008133 0.3304322
0.23862758 0.043293938 0.3733056 0.26841444 0.00072875124 0.17233662 0.0081337085 0.2478957
0.28266954 0.20920557 0.019385444 0.4057295 0.29607484 0.15903106 0.32456246 0.19126801
0.0031689992 0.014038985 0.039942753 0.017516905 0.1531527 0.21939875 0.29768893 0.005179616
0.0063165654 0.12176147 0.23365267 0.0064396663 0.07080719 0.20551431 0.012738568 0.045331538
0.0053631337 0.10304091 0.079312906 -0.0019627616 0.09015296 0.09077108 0.0969404 -0.019609274
0.26566112 0.114458896 0.05993847 0.014047789 0.00047014956 0.15237978 0.1188558 -0.018034616
0.03424089 0.014700397 0.14211278 -0.005928048
00000000: 366d 3b3e 7bf8 053c 0488 883d fd79 acbb
00000010: ec10 d93e 38ca de3b 2ee5 853d d3a3 5cbc
00000020: faf0 083d 641b 69bc a35c 943e 969d ad3e
00000030: 6150 ac3e ac7f 373e be39 8abb 37dd a33e
00000040: d404 473c f147 9e3c 782b 503d 52ad 3b3e
00000050: 1d1f 8d3a b88a af3d ed7f 103d 8e3f 563b
00000060: 2e35 6b3b 1e85 c33c b6cc c13d b8e9 243e
00000070: 2036 593c 82ac 4abc 2725 953c 8dcb adbb
00000080: 12a5 913d befc 00bc f7c0 383d b8aa d7ba
00000090: cefa 80bc 3d3d 0d3d b9d3 96bb d62e 043d
000000a0: 22be d73c 8d7a 7e3e fad6 e53c 1bb3 a03c
000000b0: 5f6b fe3d 3d72 0b3c 14f2 073e d2e2 1f3d
000000c0: e932 273e 0cd2 873d 0bc0 263e 5f54 b1bb
000000d0: d597 febb 7456 523e 2da4 443d 692e a93e
000000e0: ca5a 743e fc54 313d e921 bf3e 9e6d 893e
000000f0: ab09 3f3a 0379 303e 3f43 053c 5fd8 7d3e
00000100: 10ba 903e fc39 563e 39ce 9e3c c7bb cf3e
00000110: 1f97 973e 0ad9 223e 0d2d a63e c3db 433e
00000120: fcae 4f3b c503 663c 039b 233d 9d7f 8f3c
00000130: 10d4 1c3e 11aa 603e af6a 983e c5b9 a93b
00000140: 31fb ce3b 145e f93d a542 6f3e d603 d33b
00000150: 5c03 913d 5872 523e 6db5 503c 90ad 393d
00000160: 3abd af3b 1d07 d33d ce6e a23d ada1 00bb
00000170: 1da2 b83d 30e6 b93d b088 c63d a1a3 a0bc
00000180: bc04 883e 6d69 ea3d 0b82 753d b328 663c
00000190: 687e f639 7209 1c3e ab6a f33d 55bd 93bc
000001a0: 2d40 0c3d efd9 703c 0386 113e 1240 c2bb

linear2.weight f4 [1, 108]
0.8636985 -0.0045084925 0.18478167 0.0033193338 1.3860173 0.041517977 0.2888301 -0.0017239726
0.18509522 -0.014795963 0.85408413 1.0038035 0.9612068 0.55160505 -0.0006757526 0.944256
0.009021285 0.088139184 0.14200005 0.5544231 0.03187018 0.24984473 0.11199287 0.026883068
0.007349109 0.049073525 0.32260704 0.5829994 0.08020012 -0.0053604855 0.034124587 0.0077553634
0.27775273 0.009141798 0.10880801 -0.002391974 -0.0073121656 0.14079642 0.0015765729 0.060927406
0.07063718 0.8678137 0.044715546 0.049019072 0.39281145 0.032098856 0.40912172 0.09328011
0.45945975 0.21511495 0.5469398 -0.0056280266 0.0037893187 0.64152443 0.22038367 0.91950625
0.7732313 0.10981728 1.0861754 0.8043515 0.014697067 0.59763294 0.001758698 0.70930576
0.78999615 0.60357267 0.06542399 1.2213103 0.83559877 0.59248954 1.0083992 0.70942616
0.013337018 0.013775936 0.13887204 0.071497865 0.46905386 0.6232772 1.016842 0.027348941
0.039065935 0.37638396 0.78693765 0.00028584735 0.2606347 0.63263386 0.055483002 0.16497517
-0.004810666 0.34020382 0.2901787 0.00070126244 0.26894686 0.29473567 0.2807279 0.012623537
1.0140791 0.32367048 0.2565862 0.04833576 0.08714698 0.5024791 0.35670507 0.010005347
0.08100771 0.030979678 0.41417745 -0.00093612535
00000000: 581b 5d3f fabb 93bb 6837 3d3e 2e89 593b
00000010: 0469 b13f c10e 2a3d 8ae1 933e ecf6 e1ba
00000020: 9a89 3d3e c46a 72bc 42a5 5a3f a27c 803f
00000030: a611 763f fd35 0d3f fd24 31ba c3ba 713f
00000040: 03ce 133c 5182 b43d 7668 113e acee 0d3f
00000050: 4e8a 023d 4cd7 7f3e 855c e53d e139 dc3c
00000060: cbd0 f03b 5201 493d c02c a53e 733f 153f
00000070: f63f a43d 03a7 afbb 39c6 0b3d b420 fe3b
00000080: 9b35 8e3e 7bc7 153c bcd6 de3d aac2 1cbb
00000090: e49a efbb f02c 103e 02a5 ce3a 048f 793d
000000a0: 3aaa 903d 0a29 5e3f a627 373d 39c8 483d
000000b0: 951e c93e 177a 033d 6778 d13e a409 bf3d
000000c0: 4f3e eb3e 1847 5c3e 3f04 0c3f 4f6b b8bb
000000d0: 3856 783b f23a 243f 42ac 613e c364 6b3f
000000e0: 7df2 453f e2e7 e03d cc07 8b3f fbe9 4d3f
000000f0: f8cb 703c 79fe 183f 1d84 e63a 1095 353f
00000100: 303d 4a3f bd83 1a3f 03fd 853d e553 9c3f
00000110: cde9 553f 65ad 173f 3a13 813f f49c 353f
00000120: 8283 5a3c 77b4 613c 7934 0e3e 796d 923d
00000130: d427 f03e 188f 1f3f e127 823f e30a e03c
00000140: 9a03 203d 66b5 c03e bf74 493f c8dd 9539
00000150: e971 853e 4bf4 213f 2542 633d 40ef 283e
00000160: cba2 9dbb 322f ae3e 4d92 943e edd4 373a
00000170: 67b3 893e 98e7 963e 91bb 8f3e f4d2 4e3c
00000180: 58cd 813f 23b8 a53e 445f 833e b8fb 453d
00000190: 1e7a b23d 78a2 003f 0ca2 b63e 78ed 233c
000001a0: 5fe7 a53d 18c9 fd3c 110f d43e 4f66 75ba
