model_m5ALL_new_34000_126.pth (torch, 96075 bytes, 3 tensors)

linear1.weight f4 [108, 216]
000000 ab b3 50 3c b5 98 5f bb 19 2e 59 3c 1b 47 86 3a
       0.012738149 -0.003411812 0.013255619 0.001024458
000010 e4 fa 11 3c d4 c3 01 3c e7 1f 18 3b 61 35 1d 3c
       0.008909915 0.007920224 0.0023212375 0.009595246
000020 33 f4 de 3c d5 4b 69 bc 66 97 b6 3c 0f 5d eb 3b
       0.027216053 -0.014239271 0.02228899 0.0071827243
000030 75 df 0a 3c 5a 99 2f bb 3b 04 4a 3b b6 af 41 bb
       0.008476128 -0.0026794286 0.0030825275 -0.0029554195
000040 1f 58 8d 3c 25 71 21 3b 29 6d b7 3b 01 c3 91 bb
       0.017253933 0.002463409 0.0055977297 -0.004448295
000050 83 7c 38 3b d1 64 ed 3b dd 50 b3 3b 50 02 97 3c
       0.0028150387 0.0072446843 0.005472286 0.01843372
000060 83 6a 3d 3d 33 3b d4 bb 47 a5 32 bc eb df 9f 3a
       0.046244156 -0.0064767837 -0.010903663 0.001219747
000070 80 2e 6e 3c f2 25 fd ba c4 21 09 b7 df be 34 bb
       0.014537454 -0.0019313677 -8.173698e-06 -0.0027579588
000080 40 7a 21 3c 58 66 03 bc a8 0c 8b bc 9f da f6 3b
       0.009855807 -0.008020006 -0.016973808 0.007533386
000090 97 52 8b 3a a8 7d 02 ba f2 dd 9e 3c 88 ee 03 bc
       0.0010629472 -0.00049778307 0.019392941 -0.008052476
0000a0 49 75 17 bc 86 31 49 b8 9e 7b e8 3b bf ca 10 3c
       -0.009244272 -4.7968257e-05 0.0070948144 0.008837401
0000b0 c9 61 ba 3b 33 dd 77 3a c5 22 27 bb ea c8 0f 3b
       0.0056879264 0.00094552635 -0.0025502902 0.0021939822
0000c0 01 08 65 3c 69 95 20 3b 3e 75 5d bb 30 43 a3 ba
       0.013978959 0.0024503118 -0.0033791806 -0.0012455937
0000d0 df df a6 3a 77 2d cf ba 73 00 02 bc 57 3e 1b bc
       0.0012731514 -0.0015806396 -0.007934677 -0.009475312
0000e0 2e f7 58 3b fa 7a 9e bb e3 ec a3 ba 19 43 87 3c
       0.0033106315 -0.0048364373 -0.0012506511 0.016511487
0000f0 90 33 76 3c 0d 69 6c ba 38 c8 52 bb 4a 11 b4 3c
       0.015026942 -0.00090183393 -0.0032162797 0.0219809
000100 26 17 b4 3c 31 4f 0b ba 01 ee a8 3b e5 f4 c4 bb
       0.021983694 -0.00053142296 0.0051553254 -0.006010639
000110 ee 0b 98 bb c6 63 98 3b 39 2c a4 3c a6 38 00 bc
       -0.004640094 0.004650566 0.020040618 -0.007826006
000120 5e 3a 40 3c 55 96 62 bc b5 02 b8 3b 9b bd 82 bb
       0.011732666 -0.013829787 0.005615557 -0.003989888
000130 fb fe 45 3c dd 13 0b 3a 8c e5 32 3b d8 94 19 3b
       0.012084718 0.0005305389 0.0027297465 0.0023434665
000140 8e 60 65 bc a5 8e 09 3c 5d 98 6f 3b 69 50 ed 3b
       -0.014000071 0.0083958255 0.0036559321 0.0072422517
000150 46 45 85 3a 2b 24 e8 3a 81 7a 06 bc a9 d1 19 3c
       0.001016774 0.0017710974 -0.008207918 0.009388366
000160 46 d1 6a bb 6d 42 d9 3c 2b 09 a2 3b 18 f2 d3 3b
       -0.0035830303 0.026520932 0.0049449406 0.006468069
000170 a8 f2 0f bb 1a e4 dc 3b 57 ff b6 3b 0c 38 97 3b
       -0.0021964703 0.006741059 0.005584638 0.0046148356
000180 7d 6c 2f 3c 31 ed a5 3c c4 b3 cc 3b 2d bf 36 bc
       0.010707018 0.020254703 0.0062470157 -0.011153978
000190 63 27 35 3b 01 1e a0 3c c3 15 60 3b 35 0e a6 3b
       0.0027641885 0.019545557 0.0034192658 0.0050676116
0001a0 aa b2 8d bb e2 30 5c bb 67 39 86 3c 20 e2 74 3c
       -0.004324277 -0.0033598472 0.016384793 0.0149464905
0001b0 f3 59 76 bc 5b a1 e2 ba ec 4a 59 3c 81 bb 25 3c
       -0.015036094 -0.0017290519 0.013262492 0.010115505
0001c0 04 98 00 3c b4 b8 90 3a a5 24 ab 3b 59 b1 1d ba
       0.007848743 0.0011041374 0.005222874 -0.00060155016
0001d0 7f d2 45 bc 24 7c 8c 3a c2 dc b2 bb 37 5e 90 3c
       -0.012074112 0.0010718149 -0.0054584453 0.01762305
0001e0 be 9d 8b bc 9f 7d c2 bb 75 d0 45 bb e9 5d b9 bb
       -0.01704299 -0.0059353854 -0.0030184065 -0.005656947
0001f0 0f 6a f4 3b 14 da ad 3b 54 4b 38 bb 4e 4d 68 bb
       0.007458932 0.005305538 -0.002812107 -0.0035446468
000200 a0 79 f3 b9 19 6c d5 3b 0a 7d a1 3c 47 7e 5e 3c
       -0.0004643919 0.0065131304 0.019712944 0.013579912
000210 f8 7c 37 3c a9 49 a2 3b 97 48 40 3c f8 8f 95 bc
       0.011199228 0.0049526286 0.011736057 -0.018257126
000220 0f 27 3b bb 53 85 0c bb 51 83 e4 3b fc 8a 0f bc
       -0.0028557216 -0.0021441772 0.006973662 -0.008761164
000230 ee 12 36 3b ef 34 83 3c f7 da 30 3c 5b f6 58 bb
       0.002778228 0.016016452 0.010794393 -0.0033105824
000240 a9 a9 b1 bb f8 d9 03 3c f6 ac 82 bc c4 77 00 3c
       -0.0054218364 0.008047573 -0.015951615 0.007841054
000250 42 9e 27 3c 56 e4 c1 3c 37 ca a5 bc cd 9e bb 39
       0.010230603 0.02366845 -0.020238025 0.00035785735
000260 1b a6 50 3c eb 90 8f 3c 9f c3 13 3b fa 80 92 3c
       0.012734915 0.017525157 0.002254702 0.017883766
000270 4d b0 21 bc e0 5b 74 3b e5 e2 7d 3a e6 d7 2f bb
       -0.009868694 0.0037286207 0.0009684994 -0.0026831566
000280 89 52 60 ba 54 20 65 bb 0c 30 ec 3b c3 b9 5a bc
       -0.00085572206 -0.0034961896 0.007207876 -0.013349953
000290 83 ff 86 3c 47 5c dc 3c 96 f0 b2 3b f9 ef ab 3c
       0.01647926 0.02689947 0.005460809 0.020988451
0002a0 89 ec 99 3b 3f d5 18 3b 80 54 50 bc ea e4 f9 b9
       0.0046973866 0.0023320464 -0.012715459 -0.00047663535
0002b0 2f 55 06 bb 50 f5 2d 3c a7 b0 ee 3b 76 70 23 bb
       -0.002049755 0.010617569 0.007284242 -0.0024938858
0002c0 07 9e f7 bb dd d8 bc 3b c6 52 8e ba 65 88 00 bc
       -0.00755668 0.005763157 -0.0010858409 -0.007845019
0002d0 84 ec 80 bb 3e 8b b3 3c d5 9b b2 bb cd b8 b3 bb
       -0.003934445 0.021916982 -0.0054507055 -0.0054846765
0002e0 76 26 99 3c fd 4b 3b 3c 53 33 7c bc a8 ae 47 3c
       0.018695097 0.011431691 -0.015393096 0.012187637
0002f0 8e 65 b5 bb 99 07 1b ba 73 c9 a8 39 f7 7b d3 3b
       -0.005535788 -0.0005913913 0.00032193548 0.0064539867
000300 6b 58 4b 3b 2c 3d 0d bc 26 ea 22 3b e1 2f 77 3c
       0.0031028043 -0.008620542 0.0024858802 0.015087099
000310 d1 49 8d 3c 4e a8 c6 ba 95 20 06 3c 04 d4 55 3c
       0.017247112 -0.001515636 0.008186479 0.013051037
000320 82 e4 1d 3c 07 84 58 3b b5 a8 e6 3c 4e 60 f8 3b
       0.009637 0.0033037679 0.028156618 0.00757984
000330 9e 17 af 3a e2 6c a7 bb 42 a8 8c 3b 5d 1e cc 3b
       0.0013358479 -0.0051094154 0.004292519 0.0062292055
000340 62 8e 4a bc cc 59 da 3b 5b cd 28 3a 8d 84 23 bb
       -0.012363048 0.0066635367 0.0006439292 -0.0024950833
000350 3a 74 6a bc 2f 4f 93 3b d6 19 cd bb 7a 37 e4 bc
       -0.014309937 0.0044955234 -0.0062591834 -0.027858485
000360 1a be 1a bc 7b d0 8e bd 10 8a d1 bc 42 7e ab 3c
       -0.009444738 -0.06973358 -0.025578529 0.020934228
000370 9c 39 72 3c ef d7 c9 bc 15 f5 4a bd f8 a5 5f bd
       0.014784243 -0.024639098 -0.049550135 -0.05460164
000380 85 15 49 3e 11 2a 10 3d 94 7b 87 3c c4 d0 7b 3d
       0.19637115 0.035196368 0.016538419 0.06147839
000390 02 72 cd 3d 72 00 d5 3d c3 8a d0 3d 44 e0 44 3d
       0.10031511 0.104004756 0.10182717 0.04806544
0003a0 43 37 80 3d d4 18 ef 3c 34 0e 33 3d f6 b9 9c 3d
       0.0626054 0.029186644 0.043714717 0.07652657
0003b0 2e 30 c9 3d 08 4d 75 3d 6b b9 6b 3d 49 5e b0 3d
       0.09823643 0.059887916 0.057549875 0.086117335
0003c0 40 a5 91 3e ca ff bb 3c dd ef aa 3d 64 f7 cf 3c
       0.28446388 0.022949118 0.083465315 0.02538652
0003d0 35 60 45 3d 13 50 83 3d ee 3d 2d 3d 7a d7 0d 3e
       0.048187453 0.06411757 0.04229539 0.13851729
0003e0 d2 5f d2 3e a9 2a f8 3d 0d 06 86 3d 4b 3f e6 3d
       0.4108873 0.12117512 0.06544123 0.11242541
0003f0 d0 ef e2 3d 05 5d 01 3e a1 87 5e 3e 99 93 fc 3c
       0.11080897 0.1263314 0.21731426 0.030832099

linear1.bias f4 [108]
000000 28 77 45 3c 31 f8 59 3e 78 7d 92 3e 71 e3 bf 3c
       0.012052335 0.21286084 0.2861135 0.023423882
000010 45 e7 2e 39 a0 f1 e6 3d f5 87 44 bc a6 35 ed 3c
       0.00016680088 0.11276555 -0.011995305 0.028956246
000020 f6 c0 a9 3d ac 2c 75 bb ec 57 96 3b 5e 91 26 3d
       0.082887575 -0.003741066 0.004588118 0.040665977
000030 bb 6d c7 3d 4e e6 67 3e ca 74 1c 3c 45 d4 10 3c
       0.09737726 0.22646448 0.009549329 0.0088396715
000040 32 80 1b bc 82 33 20 3d 77 6c 1f bc 83 75 a5 3c
       -0.009491013 0.03911162 -0.00973045 0.020197636
000050 42 e8 9f bc 14 a5 55 3e a0 19 75 3c 79 03 67 bb
       -0.019519929 0.20863754 0.014959723 -0.0035249873
000060 41 0d 5c 3d da b3 09 bc 94 08 cf 3d dc 3f 99 3d
       0.053723577 -0.008404696 0.10109058 0.07482883
000070 a7 15 24 3e 7d 4a d4 3d 0a 0b cf b7 33 cf ac bc
       0.16023885 0.1036577 -2.4681463e-05 -0.021094894
000080 ba 29 29 bb 02 73 09 3d 5d 28 b5 3c 9f 6e ae 3e
       -0.0025812224 0.033556946 0.022113973 0.34068772
000090 42 37 c1 3c 9d cf a1 3d cc 4c cd 3c 63 cb 55 3d
       0.02358592 0.07900927 0.025061034 0.052195918
0000a0 79 bd 26 3e f3 54 6f 3c 3d 7a b8 3a 0f 08 cc 3e
       0.16283216 0.014607656 0.0014074516 0.39849898
0000b0 5b 5e c5 3c af 00 89 bc 74 fd 8f 3e 9d 53 74 3e
       0.024092844 -0.016723959 0.28123057 0.23860021
0000c0 92 78 1e 3d 78 64 92 3d e5 95 93 3d 9d 99 3b bc
       0.038689204 0.07148069 0.072063245 -0.0114501985
0000d0 5b 31 ac 3d 76 3e 8a 3d 91 9b 32 3c 6d ef 8f 3d
       0.08407851 0.06750195 0.010901348 0.07028089
0000e0 42 01 e6 bb 2f 86 7e 3e 8e 37 86 3d 54 85 3d 3e
       -0.007019193 0.24855874 0.06553565 0.18507892
0000f0 f2 fe 76 3d 72 b8 ed 3d 27 28 41 3e c7 37 b1 3c
       0.06030173 0.11607446 0.18862973 0.021633042
000100 56 d9 bc 3c 2d d3 ca 3d 29 20 98 3d 64 00 05 3e
       0.023052853 0.0990356 0.07428009 0.1298843
000110 66 5d 73 bc f9 e3 e2 bc 44 2b c5 3d 54 f6 8b ba
       -0.014853811 -0.027696596 0.09627393 -0.001067827
000120 4b 64 83 3b d9 e2 22 3c dd 77 55 3e e4 a1 e6 3d
       0.0040097586 0.00994178 0.20846505 0.11261347
000130 59 a0 2c 3e 09 60 7c bb d9 70 eb 3d 5a 02 cc 3d
       0.16858043 -0.003850939 0.11496133 0.09961386
000140 2f 5e 01 3d ab 0e 14 3c fb 8e a8 3c 3d 02 eb 3c
       0.03158396 0.0090367 0.02057599 0.02868759
000150 c5 7f 96 3c 89 a1 22 3d 9a a0 c8 39 d4 11 0d bc
       0.018371472 0.039704833 0.0003826663 -0.008610208
000160 d0 f9 8e 3e ad c9 92 3d f4 ff 02 3e cd cd 74 3d
       0.27924967 0.07167373 0.12792951 0.05976658
000170 cf a1 51 3a db 34 96 3d f0 00 ef 3c 52 47 09 3d
       0.00079968286 0.073343 0.029175252 0.033515282
000180 6e 46 92 3e 54 13 1e 3c 32 f0 e0 3d 8f f7 21 3b
       0.2856936 0.009648163 0.109833136 0.0024714207
000190 bf 5c 3b 3e 8c e0 1e 3d d6 50 bf 3d 51 19 24 bc
       0.18297099 0.038788363 0.0934159 -0.0100158015
0001a0 a0 3c 5d 3c 62 dc 05 bb 80 35 63 bc 8f 70 46 3c
       0.013503224 -0.0020425548 -0.013867736 0.012111797

linear2.weight f4 [1, 108]
000000 7a dc 24 3d 7c 08 61 3f 03 d2 93 3f bf fa e1 3d
       0.040249325 0.8790357 1.1548465 0.11034154
000010 42 cb a8 3c 08 de 2a 3f d5 64 67 3a b6 83 52 3d
       0.020604733 0.6674504 0.0008826976 0.05139514
000020 09 ed d2 3e 0c a7 87 3c 4d 19 88 3a e5 92 3c 3e
       0.41196468 0.016559146 0.0010383517 0.18415411
000030 9d e9 d0 3e 4a f5 71 3f 5f 27 02 3d 0e c7 1b 3d
       0.40803233 0.94514906 0.03177583 0.03803163
000040 80 f3 a4 bb 92 4d 5c 3e 91 f0 c4 3b 7a df 21 3e
       -0.0050339103 0.21513966 0.006010123 0.15807906
000050 af 7a c3 3b ee f9 62 3f 8e f0 95 3b d9 70 bc ba
       0.0059655528 0.8866261 0.0045757955 -0.0014376893
000060 89 9c 14 3e b0 80 cc bb d9 2e e7 3e 3e c5 96 3e
       0.14512838 -0.0062409267 0.4515293 0.2944736
000070 f3 09 10 3f 13 1a 03 3f 53 7b 08 3c 34 c9 39 3b
       0.5626518 0.5121166 0.008330184 0.0028348686
000080 33 8c 90 3b f2 6f a8 3d 1c 07 8b 3d da 9b ce 3f
       0.0044112443 0.08224477 0.067884654 1.6141312
000090 80 b0 f4 3d 17 bb b8 3e 15 6b 8e 3d f0 16 77 3e
       0.11947727 0.36080238 0.06954018 0.24129844
0000a0 1d 85 42 3f 3f 5b 31 3d ae 86 2b 3d 2b 26 df 3f
       0.75984365 0.04329991 0.041876487 1.7433523
0000b0 3e da c5 3d 0d 01 52 bc d8 3e 92 3f 44 2d 76 3f
       0.09660767 -0.012817633 1.1425428 0.9616282
0000c0 03 3c 3d 3e 5b 26 96 3e 67 4f b6 3e cb b0 e8 3b
       0.18479924 0.29326138 0.35607454 0.0071011535
0000d0 91 fe e3 3e 52 a9 8a 3e bf 6e 6e 3d 0e 85 6d 3e
       0.44530156 0.27082306 0.058211084 0.23195288
0000e0 50 ea b0 3c 83 71 6f 3f 47 54 80 3e 83 9d 32 3f
       0.021596104 0.9353258 0.250643 0.69771594
0000f0 1a d5 9a 3e 77 65 ea 3e 28 28 42 3f 45 2e 03 3e
       0.3024071 0.45780537 0.75842524 0.12810619
000100 98 a2 26 3d 5c 65 ae 3e e3 7d c9 3e 2f 6c 1b 3f
       0.040682405 0.34061706 0.39353856 0.6071195
000110 31 44 dc 3b 71 ae a0 ba 5c 2a c0 3e 22 37 54 3c
       0.0067219962 -0.0012259019 0.37532318 0.012952598
000120 59 28 5e bc 82 f9 a4 3d 26 37 5c 3f 57 9f 3b 3f
       -0.013559424 0.08055402 0.8602165 0.7329001
000130 5e dd 15 3f 6a 88 65 3d 4b 31 00 3f 83 f4 fb 3e
       0.58540905 0.056038298 0.50075215 0.49209985
000140 72 82 2e 3e 2e 09 2c 3c a7 82 a8 3d 96 ae 45 3d
       0.17041948 0.0105002355 0.08228045 0.0482622
000150 d4 b6 c8 3d ee 5c fb 3d 0e bb a5 3c ce dd 6e 3c
       0.09800497 0.12273584 0.020230796 0.01457925
000160 0e 8a 88 3f 8c 10 8d 3e 3b eb 14 3f 89 0d 83 3e
       1.0667131 0.27551687 0.58171433 0.25596264
000170 04 83 68 3c 9f a7 97 3e 2f 3a 9f 3d 83 b2 07 3e
       0.014191393 0.29620072 0.077747695 0.1325169
000180 50 ae 99 3f 59 a4 20 3d 54 fa f3 3e c1 93 dc 3a
       1.2006321 0.039219234 0.47651923 0.0016828702
000190 7f 86 3b 3f 30 97 1e 3e d9 c9 11 3f 3b 4a 38 3c
       0.732521 0.15487361 0.5694862 0.011248167
0001a0 c7 4f 66 3c 3b 26 50 bc c6 64 ac ba 39 92 ad 3c
       0.014057106 -0.012704427 -0.0013152591 0.021187888
