model_m5ALL_new_2000_805.pth (torch, 96069 bytes, 3 tensors)

linear1.weight f4 [108, 216]
0	0xbc3e1a55	-0.011602958
1	0xbbd9cfba	-0.0066470774
2	0xbbd045cc	-0.0063559767
3	0xbad22b7a	-0.0016034686
4	0x39b9d0b6	0.00035441451
5	0xbc368868	-0.01114092
6	0xbba710af	-0.0050984244
7	0x3c44df46	0.012016123
8	0xb8e522d5	-0.00010926059
9	0xbb272a14	-0.0025507258
10	0x3c2d6468	0.010583021
11	0xbc78492a	-0.015154162
12	0x3bb6ecb0	0.0055824146
13	0xbcc72f6d	-0.024314607
14	0x3a56d401	0.0008195043
15	0xbbe5ab83	-0.007008971
16	0x3c8277b0	0.015926212
17	0x3a0a5f27	0.0005278461
18	0x3c0cba6c	0.008589368
19	0xbb4cda07	-0.0031257884
20	0x3c0a505b	0.00844201
21	0xb9cffe26	-0.00039671472
22	0xbb799e4d	-0.003808874
23	0x3c194f1e	0.009357242
24	0xbc5a5216	-0.013325235
25	0xbb528f10	-0.003212873
26	0x3b4b387c	0.003100901
27	0x3c1fc379	0.009751194
28	0x3b3a811f	0.002845831
29	0x3c40a234	0.011757422
30	0x3c948c56	0.018133324
31	0xba7384e9	-0.00092895195
32	0xbb8f81f6	-0.004379506
33	0xbc007bb7	-0.007841996
34	0x3c2fca30	0.010729358
35	0x3b9712bb	0.004610387
36	0x3b43cd0d	0.0029876858
37	0x3c4e6988	0.012598403
38	0x3c4b4d2d	0.012408537
39	0x3c2180f4	0.009857405
40	0x3b86a8eb	0.004109492
41	0xba10d8a7	-0.0005525448
42	0xbbaf6c3b	-0.0053534782
43	0xbc76bee1	-0.0150601575
44	0xbaa73233	-0.0012756049
45	0x3c028005	0.007965093
46	0x3c7911d0	0.015202001
47	0x3c6b4ae3	0.014361116
48	0x3c2303bf	0.009949624
49	0xbbcc127a	-0.0062277885
50	0x3b67c4b2	0.0035365042
51	0xbb566878	-0.0032716077
52	0x3c0fd8eb	0.008779745
53	0x3c9f909f	0.01947814
54	0x3c57d09e	0.013172297
55	0x3a844b1a	0.0010093183
56	0xbbf68046	-0.0075226156
57	0xbca70fc9	-0.02039327
58	0xbc8b286a	-0.016987044
59	0xbbbdf38e	-0.0057968562
60	0xbc4e1b5d	-0.012579766
61	0x3b277e51	0.0025557468
62	0xbba9f248	-0.005186353
63	0x3c299ef2	0.010352837
64	0x3bb1f7f4	0.0054311696
65	0xb9a4ecd5	-0.0003145697
66	0x3c5c4814	0.013444919
67	0x3a5c004d	0.0008392379
68	0xbaaca12b	-0.001317059
69	0x3bb8c3a8	0.0056385584
70	0xbc93f253	-0.018059885
71	0x3c925152	0.017861042
72	0xbc258f50	-0.010104969
73	0x3c13fda2	0.009032639
74	0xbc461e05	-0.012092118
75	0x3a4fda76	0.00079289766
76	0x3ba23445	0.0049500787
77	0x3c379abc	0.011206325
78	0xbb3e0776	-0.0028996146
79	0xbc8835dc	-0.016627245
80	0x3c113b16	0.008864185
81	0x3b5ff0ac	0.0034170551
82	0xbc5e70b2	-0.013576673
83	0x394b5354	0.00019390631
84	0x3c9c2de8	0.019064859
85	0xbce579d3	-0.028012192
86	0x3c087ae6	0.0083300825
87	0xbc038f12	-0.008029716
88	0xbc104e98	-0.008807801
89	0x3ba17333	0.004927063
90	0xbbd9c14c	-0.0066453572
91	0xbb96fc8e	-0.0046077436
92	0x3c0625d7	0.008187733
93	0x3bd796c1	0.0065792506
94	0x3c8ced8b	0.017203113
95	0x3b958b7c	0.004563747
96	0xbc2f2bc8	-0.010691591
97	0xbbe22e1e	-0.0069024703
98	0xbc0c4f31	-0.008563803
99	0x3b8aed84	0.00423974
100	0xbc5e9fbc	-0.013587888
101	0xbc52766c	-0.012845617
102	0x3c285e8b	0.010276447
103	0x3ccdb3e9	0.025110202
104	0x3c1403eb	0.009034137
105	0x3c58e363	0.013237807
106	0x3c1f75ea	0.009732703
107	0x3a7d28a0	0.00096572377
108	0x399447f4	0.0002828237
109	0xbbdea660	-0.006794736
110	0xbc8c1430	-0.01709947
111	0x3bca56bb	0.00617489
112	0xbb15870b	-0.0022816088
113	0x3b8f814a	0.004379426
114	0xbba4147c	-0.0050073247
115	0xbadc9eaf	-0.0016831959
116	0xbbbe725b	-0.005811972
117	0x3b925857	0.0044660973
118	0x3c0d398a	0.008619675
119	0x3bf0f735	0.007353688
120	0x38883107	6.4941174e-05
121	0xbc245b1d	-0.010031489
122	0x3c2b33d7	0.010449371
123	0x3be8d55c	0.0071055125
124	0x3be477e6	0.006972301
125	0x3bbe0fa6	0.0058002053
126	0x3b67f9a6	0.0035396605
127	0x3c5545bd	0.013017115
128	0xbc1f3d09	-0.009719142
129	0x3c59c6f9	0.013292068
130	0xbb244765	-0.0025066969
131	0xb98495c0	-0.00025288574
132	0x3a93bae3	0.0011270907
133	0x3bed881c	0.0072488915
134	0xbaf87d40	-0.0018958226
135	0xb9ccdf8c	-0.00039076468
136	0x3c10108e	0.008793009
137	0xbb7c62d6	-0.003851106
138	0xbc3c4c65	-0.011492823
139	0x3c01dc98	0.007926129
140	0x3b901cdd	0.004397972
141	0x3b0d8296	0.0021592728
142	0xbc6df93f	-0.014524757
143	0x3ab698a7	0.0013930992
144	0xbae18869	-0.0017206791
145	0x3cadc0cd	0.021210099
146	0x3bc78dff	0.0060899253
147	0x3b6f2637	0.0036491284
148	0xbc94617c	-0.01811289
149	0xbc98ba4d	-0.018643523
150	0x3bba14e4	0.00567876
151	0xbc2e2a81	-0.010630251
152	0x3b7b4098	0.0038338061
153	0x3c0453fd	0.008076665
154	0x3c943d23	0.018095559
155	0x3c0919f3	0.008368003
156	0xbb7fc80c	-0.003902915
157	0x3b9ee1b7	0.0048486846
158	0x3af18831	0.0018427429
159	0x3b41028b	0.0029450979
160	0xbb9deb43	-0.004819305
161	0xbb773aa3	-0.003772416
162	0x3c52f220	0.01287511
163	0xbc1f8237	-0.0097356355
164	0xbc37990f	-0.011205926
165	0xba055842	-0.0005086699
166	0x3c55f0ba	0.013057882
167	0xbc0e9f3b	-0.008704956
168	0xbb823f31	-0.003974818
169	0x3c434d18	0.011920236
170	0xbc21b2fe	-0.009869335
171	0x3d00a54a	0.031407632
172	0xbbb9cd81	-0.00567025
173	0xbb0a78fb	-0.002112924
174	0x3c2cfd2f	0.010558411
175	0xbc20e528	-0.00982026
176	0xbc31915b	-0.010837878
177	0x3c875bcc	0.016523264
178	0x3bd409b1	0.006470882
179	0xbc18ddbf	-0.009330212
180	0xbc18b016	-0.009319326
181	0xbb540949	-0.0032354167
182	0x3bc81e9a	0.0061071636
183	0xbb14536e	-0.0022632736
184	0x3b4364f2	0.0029814807
185	0x3b15de51	0.0022868107
186	0xbb34ffc6	-0.0027618273
187	0xbc49764c	-0.012296271
188	0x3c0fdf4b	0.008781265
189	0x3c26c912	0.010179775
190	0xbc1a04ff	-0.009400605
191	0xbbdd5022	-0.0067539373
192	0x3aca886d	0.0015452035
193	0x3969c88f	0.00022295325
194	0x3b36dd0d	0.0027902753
195	0x3a5cfee2	0.00084303145
196	0xbc79fbc3	-0.015257779
197	0xbc02ce61	-0.007983775
198	0x3c28948e	0.010289324
199	0xbb329046	-0.0027246638
200	0xbc344497	-0.011002681
201	0x397b40bd	0.00023961342
202	0xbb0fdc55	-0.0021951396
203	0xbb37bcec	-0.002803619
204	0x3b43a163	0.0029850833
205	0x3bd5aaa4	0.006520586
206	0xbcdd692f	-0.027027695
207	0xbb8def41	-0.0043315
208	0x3af88689	0.0018960993
209	0x3c12324a	0.008923123
210	0x3c81bf5d	0.01583832
211	0x3c48d79b	0.012258436
212	0x3b416e28	0.002951512
213	0x3c975ab6	0.018475872
214	0x3c086ecc	0.008327197
215	0xbc513136	-0.01276808
216	0x3ca3380a	0.019924182
217	0x3b0bf49f	0.0021355522
218	0xbc0de330	-0.008660123
219	0xbba33994	-0.004981229
220	0xbc32a702	-0.010904076
221	0x39dd6ee7	0.00042235033
222	0x3aabc8eb	0.0013106143
223	0xbc71531a	-0.014729286
224	0x3d04950c	0.032368705
225	0x3c6e021d	0.014526871
226	0xbc088b2a	-0.008333961
227	0x3c374593	0.011186021
228	0xbb1c4b89	-0.0023848733
229	0x3b214d1e	0.0024612616
230	0x3c653894	0.01399054
231	0x3b63d966	0.003476703
232	0x3cdd541f	0.027017651
233	0x3c5e2536	0.0135586765
234	0xbc9a99aa	-0.0188721
235	0xbb26376e	-0.0025362629
236	0x3c5cfc2a	0.013487855
237	0x3c65b4f2	0.0140201915
238	0x3b95fb10	0.004577048
239	0xbbc70f14	-0.0060747955
240	0x3ca172c7	0.01970805
241	0x3c6c3b76	0.0144184735
242	0x3bb81aea	0.005618443
243	0xbac5383b	-0.0015046665
244	0x3c7b35fa	0.015332693
245	0xbc04549d	-0.008076814
246	0x3c12e3b7	0.008965424
247	0x3c0c9398	0.008580111
248	0x3c481c37	0.012213758
249	0xbb2cfa2d	-0.0026394234
250	0x3caa98f4	0.020824887
251	0x3c6786fb	0.014131303
252	0x3bb0de87	0.005397621
253	0x3cade142	0.021225575
254	0x3c725620	0.014791042
255	0x3c9568d1	0.018238457

linear1.bias f4 [108]
0	0x3c2c501d	0.010517147
1	0xbc123f89	-0.008926281
2	0x3d0b4fc9	0.034011636
3	0x3dcddcd4	0.10051885
4	0x3c0ffef2	0.008788811
5	0x3c560f1f	0.013065129
6	0x3d4c5d5e	0.04989373
7	0x3d07e056	0.033172928
8	0x3d43fc52	0.047848053
9	0x3e4d145d	0.20027299
10	0x3c4b2a78	0.012400262
11	0x3df1c123	0.11804416
12	0x3e15af8b	0.14617746
13	0x3c8276b3	0.01592574
14	0x3d7bf300	0.06151104
15	0x3c074160	0.008255333
16	0x3e9d1213	0.30677852
17	0x3d1793ad	0.03700607
18	0xbc5484c9	-0.012971112
19	0x3d30c780	0.043159008
20	0x3e02993c	0.12753767
21	0x3e1a0210	0.1503985
22	0x3eb28864	0.34869683
23	0xbb721b19	-0.003694242
24	0x3da154fd	0.07877538
25	0x3da00938	0.07814258
26	0x3d027354	0.031848267
27	0x3dadd609	0.084880896
28	0x3e12f379	0.1435069
29	0x3e434cf1	0.1907232
30	0x3ceef943	0.029171592
31	0x3e5eb3e2	0.21748307
32	0x3cf060d0	0.029343039
33	0x3c920488	0.017824426
34	0x3d2e843c	0.042606577
35	0x3db07b10	0.08617222
36	0x3d0c81dc	0.03430353
37	0xbc02e35a	-0.007988775
38	0x3daaa895	0.08332936
39	0x3e0d7061	0.138124
40	0x3c191799	0.009344005
41	0x3eca68ec	0.39533174
42	0x3cce23ba	0.02516352
43	0xbc9bebf2	-0.019033406
44	0x3a8b278f	0.0010616648
45	0x3d7d6be3	0.061870467
46	0x3d8d6f93	0.06906047
47	0x3dc5b477	0.096535616
48	0x3dc1f833	0.09471168
49	0xbb65ae51	-0.0035046528
50	0x3e0c27c3	0.13687043
51	0x3d98eeb5	0.07467405
52	0x3c9d4d3d	0.01920187
53	0xbb980e34	-0.004640365
54	0x3e4cfb41	0.20017721
55	0x3df7bac6	0.12096171
56	0x3e6dee87	0.23235522
57	0x3ea68991	0.3252683
58	0x3caecda3	0.02133829
59	0x3e32e36a	0.17469564
60	0x3cbed6ac	0.023295723
61	0x3e7ddc4c	0.24791068
62	0x3c03d104	0.008045439
63	0x3ca0442d	0.019563759
64	0x3d02676a	0.031836905
65	0x3cff5781	0.031169655
66	0xbc393180	-0.011303306
67	0x3e1fb99b	0.15598147
68	0x3e6d5bcc	0.23179549
69	0x3dd6c7f8	0.1048736
70	0x3d9976dd	0.074933745
71	0x3d3a0d68	0.04542294
72	0x3d7e1ebb	0.062041026
73	0xba559eb6	-0.0008148955
74	0x3e0127c8	0.12612832
75	0x3ceb73e4	0.028741784
76	0x3d3804e1	0.044926528
77	0x3e672877	0.2257403
78	0x3e001a25	0.12509973
79	0x3ee90b04	0.45516217
80	0xbba2ff39	-0.0049742726
81	0x3ab38dbe	0.0013698859
82	0x3def1a35	0.116749205
83	0x3e5ada76	0.21372399
84	0x3e50fe35	0.20409472
85	0x3bacdd23	0.005275385
86	0xbc50a4fa	-0.012734646
87	0x3ea875a0	0.3290224
88	0x3dea435e	0.114386305
89	0x3d0f7660	0.035025
90	0xbc1ab59f	-0.009442716
91	0x3ba34777	0.0049828845
92	0x3e97b5f6	0.29631013
93	0x3bdd5724	0.0067547727
94	0xbbac4c4e	-0.0052581197
95	0x3e74ac8b	0.23893945
96	0x3cb71d10	0.022352725
97	0x3cb5df53	0.022201216
98	0xbc368e69	-0.011142352
99	0x3cfb5543	0.030680304
100	0x3cf3e941	0.02977431
101	0x3d1d2f1f	0.038375016
102	0x3e2f2fe5	0.17108114
103	0x3c344392	0.011002438
104	0x3c0706e4	0.008241389
105	0x3df40aac	0.11916098
106	0x3cae6993	0.021290576
107	0x37d92d6a	2.5889563e-05

linear2.weight f4 [1, 108]
0	0x3cd5791f	0.026058732
1	0x3d82d1ce	0.06387673
2	0x3df9813c	0.121828526
3	0x3ea5a1c6	0.32349986
4	0x3d9d8ec3	0.07693245
5	0x3d72b16f	0.059251245
6	0x3e20c83e	0.15701386
7	0x3e011ef5	0.12609465
8	0x3e505ecc	0.20348662
9	0x3f2c984f	0.67419904
10	0x3d55bbbf	0.052181
11	0x3ebfd013	0.37463436
12	0x3f04d37f	0.5188522
13	0x3cbeb33f	0.02327883
14	0x3e61b85e	0.22042987
15	0xbb8e3b96	-0.0043405993
16	0x3f8ae54e	1.0851228
17	0x3de84698	0.1134159
18	0x3c55a10d	0.013038886
19	0x3e019811	0.12655665
20	0x3eb81892	0.35956246
21	0x3f1463c8	0.57964754
22	0x3f9566e1	1.1672021
23	0xbae0c2bc	-0.0017147879
24	0x3e99196e	0.29902214
25	0x3e641a86	0.22275743
26	0x3e144633	0.14479904
27	0x3ea2ec94	0.3182112
28	0x3f016cb7	0.5055651
29	0x3f363034	0.711673
30	0x3dbe191e	0.092821345
31	0x3f4941cb	0.7861602
32	0x3e088b00	0.13334274
33	0x3dbe8efe	0.09304617
34	0x3e1854cb	0.14876096
35	0x3e9b775d	0.30364504
36	0x3e1d1287	0.15339099
37	0x3c8cd2ea	0.017190415
38	0x3e94171f	0.2892389
39	0x3efd268a	0.49443465
40	0x3dc8537e	0.0978155
41	0x3fb1179c	1.383533
42	0x3d93a1a1	0.07208563
43	0xbb9ee091	-0.0048485477
44	0x3c591882	0.013250472
45	0x3e3e013c	0.18555158
46	0x3e6eda95	0.2332557
47	0x3ebf881d	0.37408534
48	0x3e8bf2c6	0.2733366
49	0xbbc3cf93	-0.0059756725
50	0x3ee96101	0.4558182
51	0x3e9a81c7	0.30177137
52	0x3db2e9be	0.08735989
53	0x3c000e6f	0.007815941
54	0x3f2f2577	0.6841654
55	0x3eb59d38	0.3547151
56	0x3f5d4c82	0.86444867
57	0x3f91da1e	1.1394689
58	0x3c450b74	0.012026656
59	0x3f158439	0.5840488
60	0x3d686ff8	0.056747407
61	0x3f63a817	0.8892836
62	0x3d619b92	0.055080004
63	0x3db1b4d8	0.08677071
64	0x3db3ab63	0.08772924
65	0x3da83c61	0.08214641
66	0xbc89dda0	-0.016829312
67	0x3f08f385	0.5349658
68	0x3f5998db	0.84998864
69	0x3ec1c1b4	0.37843096
70	0x3e95edfa	0.29283124
71	0x3e1d8ccc	0.15385741
72	0x3e64043f	0.22267245
73	0x3b959845	0.004565271
74	0x3ed3c4aa	0.4136098
75	0x3dae6a5b	0.085163794
76	0x3e38fb44	0.180646
77	0x3f41bdb0	0.75680065
78	0x3ecfd9c3	0.40595827
79	0x3fcaaa14	1.5833154
80	0xb82b7377	-4.0877112e-05
81	0x3b9cfde0	0.0047910064
82	0x3ecc3ba3	0.3988925
83	0x3f3f106c	0.7463443
84	0x3f33f0a2	0.7028905
85	0x3d752ca8	0.05985704
86	0x3b707745	0.0036692184
87	0x3f8a0540	1.0782852
88	0x3ecee99e	0.4041261
89	0x3d9617c5	0.073287524
90	0x3ba04cd7	0.0048919725
91	0x3d0e4fce	0.034744076
92	0x3f845b42	1.034035
93	0x3c577d16	0.013152381
94	0x3be0d05d	0.0068607763
95	0x3f43db43	0.7650644
96	0x3d21d8ce	0.0395134
97	0x3d81dca7	0.06340914
98	0xbb60b221	-0.003428586
99	0x3d25b014	0.040451124
100	0x3d5d02e8	0.05395785
101	0x3e1f4fdd	0.15557809
102	0x3f1bd344	0.6086924
103	0x3d42ab73	0.047526788
104	0x3d6a63c8	0.057224065
105	0x3ed9c6d0	0.42534494
106	0x3de855a6	0.11344461
107	0x3d3204e4	0.043461695
