model_m5ALL_new_66000_128.pth (torch, 96075 bytes, 3 tensors)

linear1.weight f4 [108, 216]
000000 f4 26 a4 3c d8 3c a5 3c e1 0a 51 bc 39 b6 83 bc
       0.020038106 0.020170614 -0.012758941 -0.016078101
000010 7a bf 1a bc 50 8f 15 bc 7d 23 26 3c 2c 96 02 3b
       -0.009445066 -0.009128407 0.010140297 0.0019925935
000020 33 12 37 bb 7d 9c b8 3b 90 94 df 3a 4c 77 ea 3b
       -0.0027934432 0.005633889 0.0017057825 0.0071553346
000030 e0 93 21 bb 98 42 36 bc 6c 5b 2c bc 0f 68 25 bc
       -0.002465479 -0.011124276 -0.010519844 -0.01009561
000040 86 2b ba bb e9 ff 38 bc cf 18 0d 3c db a0 b1 3c
       -0.005681458 -0.0112914825 0.008611872 0.021683147
000050 f6 a9 bf bb 83 37 99 3b db 58 04 3c c4 3a 37 bb
       -0.0058491183 0.004675807 0.008077825 -0.002795861
000060 32 0f 1c 3c 29 f5 31 bb 34 02 29 3c 7a 85 38 3b
       0.009525107 -0.0027154183 0.010315467 0.002815573
000070 6d 01 2d bc 91 a8 53 3b 20 13 74 bb e1 32 c5 bc
       -0.010559422 0.0032296518 -0.0037242845 -0.024072113
000080 ba 3a bd bb 91 3e b2 3b 65 57 ae 38 85 33 1f 3a
       -0.005774823 0.0054395874 8.313245e-05 0.00060730457
000090 b4 ad 01 bc fb 97 9a bc 45 02 72 bc 6d ef bb bc
       -0.007914949 -0.018871298 -0.014771049 -0.022941316
0000a0 f0 a1 8a 3c 1e ca 2f 3c 59 9c cc 3b db dc c6 3b
       0.016922921 0.010729341 0.006244224 0.0060688085
0000b0 d0 6e f2 3b 2b c8 ea 3b ba 01 dc 3b 2a ed f1 3b
       0.007398464 0.007164975 0.006714073 0.0073830085
0000c0 80 60 2e bc 7e 2b 12 bc 1b 43 c4 3b 50 e5 11 bc
       -0.010643125 -0.008921502 0.005989445 -0.00890477
0000d0 0a 10 49 3c 06 84 c8 ba 33 37 99 3c 41 86 82 38
       0.01227189 -0.0015298135 0.018703079 6.22389e-05
0000e0 6d 40 01 3c 57 bf 04 3c a5 58 10 bc bf 55 75 bc
       0.007888895 0.00810226 -0.008810197 -0.014974057
0000f0 6a 90 61 3c b0 57 d0 ba 3f 7f fa 3b 6f 6a ed 3c
       0.013767341 -0.0015895274 0.0076445634 0.028981416
000100 27 89 b3 3b b7 9f 47 3c 4e 09 30 3a 2e f1 02 39
       0.0054789963 0.012184075 0.00067152537 0.00012487613
000110 6a 1c 25 bc 9d 58 1c bc 07 4d 8e bc 4b 28 23 3b
       -0.010077575 -0.009542611 -0.017370714 0.0024895843
000120 bc fe dd 3b fa 39 1d 3c 89 c6 09 bc 3b 2a a4 3b
       0.0067747515 0.009596342 -0.008409151 0.005009917
000130 a5 4e 85 3b 2a 31 1b bd 59 2b 1e bc 84 ba 5c 3c
       0.004068213 -0.037888683 -0.00965389 0.013472203
000140 30 8f 09 3c 5e e5 b1 bb 11 32 0c bc 66 49 9f 3b
       0.008395955 -0.005428954 -0.008556859 0.0048610447
000150 69 22 36 bb 49 07 28 3c 56 bc 66 3b 06 de e0 3a
       -0.0027791506 0.010255643 0.0035207472 0.0017156012
000160 18 8b e2 3a f2 27 2a bc 06 8f 9b 3c 68 65 50 3c
       0.0017283885 -0.0103855 0.018989097 0.01271949
000170 41 3d 5b 3c 27 a0 ef 3b 42 b2 cc bb e7 a3 7d 3b
       0.013381303 0.007312793 -0.006246836 0.003870243
000180 38 ee 9c bc d6 79 2e 3c 8a d5 f6 bb 07 15 6b bb
       -0.01915656 0.010649165 -0.00753278 -0.0035870688
000190 0a cc b8 3c ca cb 84 bc d3 44 1d 3c b3 16 4f bc
       0.02255823 -0.016210455 0.0095989285 -0.012639689
0001a0 f5 3a 72 bc 4a bc a5 bb 04 11 5d 3c 7b fd 31 3c
       -0.014784564 -0.005057846 0.013492826 0.010863657
0001b0 fc 31 28 3c c0 48 2a 3c 4b a0 3e 3c 4f 81 dc 3a
       0.010265823 0.0103933215 0.0116348965 0.0016823205
0001c0 4e ab 25 3c 9c 3c 1d 3c 70 2c 4f bc b6 3e 44 3c
       0.010111643 0.00959697 -0.012644872 0.011977842
0001d0 5b a9 ca ba 56 c5 71 bb 00 5c b1 3b f2 c8 3a 3c
       -0.0015461849 -0.0036891303 0.0054125786 0.011400448
0001e0 15 09 19 ba d7 51 36 3c af 0a 68 bc 13 4f f2 3b
       -0.000583784 0.011127911 -0.014162703 0.0073946803
0001f0 40 e2 25 3c 30 1c 11 3c 5d b2 89 3b e3 74 63 ba
       0.010124743 0.008856818 0.0042021708 -0.000867678
000200 a4 51 31 bb 13 25 88 3c b1 dc 64 3c 1a dd 23 bc
       -0.0027056718 0.01661924 0.013968633 -0.010001445
000210 63 42 fc 3b 23 d2 64 3a 3a ff d1 3b f2 5b ec bc
       0.0076983436 0.00087288226 0.006408599 -0.028852437
000220 2c 75 cb bb 0a 42 ce b7 98 21 57 bc 58 a8 e9 3a
       -0.0062090363 -2.4587865e-05 -0.013130568 0.001782666
000230 bd 70 33 3c 63 fa 47 bc 27 e1 11 bc 5f ae 8e bb
       0.010952172 -0.012205693 -0.008903778 -0.0043542827
000240 22 c6 57 39 2e 66 38 3c 46 9d c6 ba e6 86 06 3c
       0.00020577808 0.01125483 -0.0015153072 0.008210873
000250 17 0a 2c 3b 6c 37 8b bb bb 18 0b bb 41 5e 99 3c
       0.0026251131 -0.00424855 -0.0021224457 0.018721702
000260 a2 67 31 bc c0 8a d5 3c 9e ca 12 bb 6a d3 2a bc
       -0.010827931 0.026067138 -0.0022398601 -0.010426382
000270 33 be 4b bb b1 9f a2 3b 92 f2 3d bc b6 fd 1a 3c
       -0.003108871 0.0049628844 -0.011593478 0.009459903
000280 88 1d b1 b9 eb 9f d3 3b ad 2e 1f bc a9 5b 3b bc
       -0.00033782073 0.0064582727 -0.009715718 -0.011435428
000290 fd 62 db 3a 66 c7 84 3b 00 e2 ae 3a ec a5 ba 3b
       0.0016737875 0.0040520905 0.00133425 0.005696049
0002a0 91 c2 31 3c 40 a3 0b bc f0 c9 fb 38 e7 c6 e8 3b
       0.010849611 -0.008522809 0.000120062265 0.007103789
0002b0 82 56 cd 3b 2d 63 22 3c f9 74 54 bb 01 ec c9 bb
       0.006266416 0.009911341 -0.0032418354 -0.006162167
0002c0 40 73 08 3a bd e8 70 bc 96 cb 8b bb 3d ca c0 ba
       0.0005205162 -0.014703927 -0.0042662127 -0.0014708709
0002d0 1f 7e 92 bc 58 c2 a5 bb bb ea 92 3b 3e 11 e0 3b
       -0.017882405 -0.005058568 0.0044835485 0.006837993
0002e0 0a 28 bc 3c 15 a5 5a bc 2c cb f4 bb d3 58 2a 3c
       0.02296831 -0.013345023 -0.007470509 0.010397154
0002f0 d7 98 e9 3b a1 eb 33 3b 04 64 20 3c 9d 7e 67 3c
       0.0071288156 0.0027453678 0.009789471 0.014129308
000300 55 94 ae bc 97 5d 3f bc ed a0 f4 3b 6b aa 4a bc
       -0.021310965 -0.011680028 0.007465473 -0.012369732
000310 df 4c c3 bb a1 14 66 3c e8 35 fa b8 9c 19 83 3c
       -0.0059600915 0.014043004 -0.0001193097 0.016003422
000320 7e aa 57 bb 23 da ae bb 18 9e 80 bc 6b 82 91 b9
       -0.0032908018 -0.0053360625 -0.015700385 -0.00027753724
000330 de 12 50 3b a6 29 38 3b ec 7d 22 bc ba 17 39 bb
       0.0031749527 0.0028100996 -0.009917717 -0.0028242902
000340 d1 fa b3 bc 85 fc 6e 3c 75 7f 03 bc 98 3d e5 bb
       -0.021970185 0.014586573 -0.008025994 -0.006995868
000350 c7 23 b7 ba df f0 e8 3a 58 aa 1b bc ae 7e 87 ba
       -0.0013972454 0.001777198 -0.009501062 -0.0010337436
000360 c4 6d d2 3b 93 da 64 bc 18 cd c6 3b 72 4c e5 3b
       0.0064217765 -0.013968128 0.0060669295 0.0069976384
000370 10 09 60 bc c2 57 a0 bc 85 4d 29 bd 4f 13 b5 bc
       -0.013674036 -0.019573096 -0.041333694 -0.022103934
000380 f9 98 92 3c 88 6d 11 bc 9c ab f5 bb 03 45 89 bc
       0.017895209 -0.008876212 -0.007497264 -0.01675654
000390 84 16 de 3b 50 8b 59 bc 59 8e f7 3b 87 e0 c3 3a
       0.0067775864 -0.013277844 0.007554811 0.0014944234
0003a0 ec 1f 52 3c 43 6f 96 3a fb 79 fa 3c c6 6b a7 3c
       0.012824994 0.001147725 0.030575743 0.020437133
0003b0 47 72 6f 3c c4 7e a6 3b 87 61 51 3c aa 79 85 bc
       0.014614648 0.0050810296 0.0127796 -0.016293366
0003c0 31 90 c6 3c 89 09 0b bc d9 28 8d 3c 68 fc 2b bc
       0.024238678 -0.00848616 0.017231392 -0.01049719
0003d0 04 58 83 3b 1c 21 be 3b 76 36 1a bc 50 31 b2 bb
       0.004008295 0.005802287 -0.009412399 -0.0054380074
0003e0 fc a9 41 3d b2 30 cd bb 48 54 74 3a 85 08 33 3c
       0.04728125 -0.0062619084 0.000932042 0.010927324
0003f0 8c dc 0f 3c 09 8a cc b9 c6 2f 82 bc 09 c7 35 b9
       0.00878061 -0.00039012756 -0.01589192 -0.00017335652

linear1.bias f4 [108]
000000 9c b9 f5 3b 26 61 a2 3c 68 42 1e 3e a4 74 34 bb
       0.007498933 0.019821715 0.1545502 -0.0027535344
000010 aa 9d 5d 3e f2 ee 0d 3e 3d 28 a8 3d 07 02 ad 3c
       0.21642175 0.13860682 0.082108 0.02111913
000020 d4 10 83 3d bf b4 f4 3d 8d 62 bb 3d 96 ee 24 3e
       0.06399694 0.11948537 0.091496564 0.16106638
000030 59 4a 33 3d a8 fa eb 3d 6e 35 c5 3d be 6e 14 3e
       0.043772075 0.11522418 0.096293315 0.1449537
000040 5e 12 0f 3e 4d c7 0d 3d 53 fb a1 bc 5e d7 16 3d
       0.1397185 0.034613896 -0.019773161 0.036826484
000050 0a b0 63 3d 6d 75 9a ba 17 fe 16 3d 76 84 b7 bb
       0.055587806 -0.0011784263 0.036863413 -0.0056005074
000060 27 01 00 3e 13 7d b7 3d de 2e 25 bb 46 92 58 3c
       0.1250044 0.08959403 -0.0025204937 0.013218468
000070 fd ff 48 3d 2d 63 36 3d 73 0b 27 bc 32 26 5b 3c
       0.049072254 0.044528175 -0.010195601 0.013375806
000080 ce b5 6c 3e ae 01 de 3d 2a 1f b8 3d 63 77 52 bc
       0.23116228 0.10840164 0.08990319 -0.012845847
000090 cb c4 d5 3c cc 1d df ba a4 2f 67 bc a7 4e 52 3d
       0.026094815 -0.001702243 -0.0141104795 0.05134454
0000a0 81 4e 50 3c bb b5 25 3d b0 2b bf 3b 50 7a 06 3c
       0.012714029 0.040456515 0.0058340654 0.0082078725
0000b0 9e cf 11 3e e0 d1 8b 3d 22 4b 60 3d 17 68 b4 3d
       0.14239356 0.0682714 0.054759152 0.08808916
0000c0 f1 f6 19 3e f2 ac 74 3c ba 98 50 3c ac 63 54 3d
       0.15035607 0.0149338115 0.012731725 0.051852867
0000d0 5a 57 db 3c 98 78 3d 3d 3e 7f ee 3c 99 02 83 3c
       0.02677505 0.046257585 0.029113408 0.01599245
0000e0 60 0a c4 bb 3e 4f 09 3c fc a2 ea bc 64 97 b9 3c
       -0.005982682 0.008380709 -0.02864217 0.022655196
0000f0 5d 3b 5a 3d ac 3f 56 3e 16 4e 61 3c 2c e6 ab 3c
       0.05327927 0.20922726 0.013751527 0.020983778
000100 18 90 17 3c 32 7a 46 bb 5e e6 a3 3d 56 b4 a1 bb
       0.009250663 -0.0030285236 0.080029234 -0.004934828
000110 f2 ae 73 bb 84 1b a7 3c b3 8a 02 3d 00 fd 66 3b
       -0.0037183133 0.020398863 0.031870555 0.0035246015
000120 7c b7 f5 3d cd 04 df 3a 17 6d 7b bb 8b 4a e5 bc
       0.119978875 0.001701498 -0.0038364583 -0.027989646
000130 59 98 c3 3c b8 a3 a9 3c d9 c3 b6 3d 79 19 04 3d
       0.023876356 0.02070795 0.08924074 0.032250855
000140 04 26 9c 3e 9e b9 82 3e bf c5 0b 3d 95 48 4b 3a
       0.30497754 0.2553224 0.034124132 0.0007754651
000150 57 c1 d8 3d 4d fe 39 3d a6 15 97 3c 99 b9 63 3d
       0.10583752 0.045408536 0.01844294 0.05559692
000160 b2 43 27 bc 52 ee 6d 3d f7 21 a1 3c 9c d8 04 3d
       -0.010209011 0.058088608 0.019669516 0.032433137
000170 42 86 9c 3e 58 e0 39 3c d4 12 2f 3e e4 02 19 3d
       0.3057118 0.011344992 0.17097026 0.037356272
000180 60 13 a4 ba 0f 12 e6 3d e6 6d 3a 3c e5 9d 02 3e
       -0.0012517981 0.11233913 0.011378741 0.12755544
000190 28 da 99 ba 69 aa 85 bc 84 16 44 3e c7 42 11 3e
       -0.0011737989 -0.01631661 0.19149214 0.1418563
0001a0 47 16 c5 3d f5 21 24 3e 84 1a 60 3d 26 1a 2c 3d
       0.0962339 0.16028579 0.054712787 0.042017125

linear2.weight f4 [1, 108]
000000 b2 11 dd 3c 7c fc b1 3d bc e3 1e 3f ea 45 e1 3c
       0.026985977 0.08690736 0.62066245 0.027499158
000010 7c 29 98 3f 5c b8 20 3f 6b a3 e8 3e a0 25 20 3e
       1.188766 0.6278131 0.45437178 0.15639353
000020 a3 bf bb 3e 4b 19 14 3f 4d 7e 06 3f 69 4f 23 3f
       0.36669645 0.57851094 0.5253647 0.63793045
000030 38 13 77 3e 1b 6e 2e 3f 1d e6 e9 3e 92 1b 4c 3f
       0.24128425 0.6813676 0.45683375 0.7972957
000040 cc 3b ff 3e 44 71 4e 3e 67 bd 88 3c 73 b0 a0 3d
       0.4985031 0.20160395 0.016691877 0.07846155
000050 c9 32 a5 3e c0 29 84 bc 85 7e 08 3e 92 58 0b bc
       0.32265308 -0.01613319 0.13329513 -0.0085050035
000060 74 5f 23 3f a9 1a aa 3e 74 10 9f 3b d1 73 bf bb
       0.63817525 0.33223465 0.0048542563 -0.005842664
000070 24 dd 04 3e 02 2a 83 3e 84 44 17 bc f7 20 b7 3d
       0.12974983 0.25617987 -0.009232644 0.089418344
000080 d4 a5 a2 3f 08 84 12 3f 79 5d 03 3f 7a 80 8a 3c
       1.2706857 0.57232714 0.513145 0.016906966
000090 c5 ed bf 3d 5e ed ad 3c d7 a7 aa bb 2f c4 63 3e
       0.09371523 0.02123135 -0.0052079963 0.22242807
0000a0 5b 56 09 ba 87 c2 d7 3d 6a d8 3c bc 8e f3 9f bb
       -0.0005239003 0.1053515 -0.0115262065 -0.004881329
0000b0 9f ca 36 3f 3b f5 5f 3e bd 94 a0 3e 3d 46 b5 3e
       0.71402925 0.21870892 0.31363478 0.3540515
0000c0 a7 b5 2a 3f c8 f9 92 3d 09 5b 26 3d 87 51 1b 3e
       0.6668343 0.07176548 0.04061416 0.15167819
0000d0 3c 1f d2 3d 0a 43 82 3e ce 39 b2 3d 4c 74 45 bc
       0.10259864 0.25441772 0.087024316 -0.012051653
0000e0 13 bf 4b bc a3 74 26 3d c9 42 20 bc de e1 b8 3d
       -0.012435692 0.040638577 -0.009781548 0.09027456
0000f0 2e ef 7f 3e ca 92 3f 3f 40 07 23 3d 1d 00 bc 3d
       0.24993584 0.7483336 0.039801836 0.09179709
000100 b0 7f 7e bb 39 15 72 39 8e 38 7d 3e 62 19 e2 bb
       -0.0038833432 0.00023086825 0.24728605 -0.0068999985
000110 dc f4 d6 38 24 46 08 3e 20 6c 48 3e a5 36 77 3d
       0.00010249924 0.13308007 0.19572496 0.060354847
000120 ce f6 22 3f 86 67 d3 3c 27 17 cb 3c ca c2 19 38
       0.63657844 0.0258062 0.024791313 3.6659454e-05
000130 2d c0 b0 3d 47 d2 6e 3e cb d9 27 3f 5c c5 3f 3e
       0.086304046 0.23322402 0.655667 0.1872763
000140 49 1a 9f 3f 69 2c 6d 3f b2 3b 63 3e ca 3e 88 3d
       1.2429897 0.9264589 0.2219074 0.06652601
000150 93 53 09 3f 53 02 8f 3e e1 a4 a7 3d f2 99 24 3e
       0.5364315 0.2793146 0.08185745 0.1607435
000160 93 08 33 bc c2 53 d7 3e 10 2c 86 3d 2e 04 a7 3d
       -0.010927337 0.4205609 0.06551373 0.08155094
000170 e3 8f d3 3f d1 4d 19 3d 41 f9 6a 3f c2 ba 7a 3d
       1.6528286 0.037427727 0.9178658 0.061213262
000180 94 d2 cd 3c 92 c7 0a 3f da 8a 0c 3e ee 0b 02 3f
       0.025124826 0.5421077 0.13724843 0.50799453
000190 27 ac 7b 3c b9 9f 42 3c 8e a2 99 3f 48 63 5a 3f
       0.015360869 0.011878901 1.2002733 0.8530774
0001a0 f0 59 fa 3e 00 0d 27 3f da 19 70 3e 2b 7e 6a 3e
       0.48896742 0.6525421 0.23447362 0.22899692
