model_m5ALL_new_12000_125.pth (torch, 96075 bytes, 3 tensors)

linear1.weight f4 [108, 216]
0	0x3ba4690a	0.0050174044
1	0xbc9ab155	-0.018883387
2	0xbb8c0374	-0.0042728726
3	0xbcb0e388	-0.02159287
4	0x3b72d739	0.0037054552
5	0xbc98ac26	-0.018636774
6	0xbc221f82	-0.009895207
7	0xbc27a773	-0.010232794
8	0x3d63b1fb	0.055589657
9	0x3ceb4864	0.028721042
10	0xb9e66448	-0.00043943734
11	0x3bdc85f8	0.0067298375
12	0x3d1bd929	0.038048897
13	0x3c3ac726	0.01140002
14	0x3c5da38c	0.013527762
15	0x3c77dcc0	0.0151283145
16	0x3d11e458	0.035618156
17	0x3b9f718b	0.0048658303
18	0x3bd9b127	0.0066434327
19	0x3c9f41f5	0.01944063
20	0x3c9f00e0	0.019409597
21	0xbb686806	-0.0035462393
22	0x378f15c6	1.7057067e-05
23	0x3cc8df1b	0.024520447
24	0x3d8e633b	0.069525205
25	0xbc8785e5	-0.016543338
26	0x3bbcece2	0.0057655433
27	0x3cae966c	0.021311961
28	0xbc10136b	-0.008793692
29	0x3c7b2587	0.015328771
30	0xbc95999b	-0.018261721
31	0x3d0918ee	0.03347104
32	0x3db6ee81	0.0893221
33	0x3cd092d1	0.025460633
34	0x3ab73acc	0.0013979315
35	0x3d1eb328	0.038745075
36	0x3cf98696	0.030459683
37	0x3d4885f7	0.048955884
38	0x3ce49a89	0.02790572
39	0x3c4190e8	0.0118143335
40	0x3d006085	0.03134205
41	0x3cd19731	0.025584789
42	0x3c9e4016	0.019317668
43	0x3cbaf44d	0.02282157
44	0x3cc08600	0.023501396
45	0x3c6ce6e3	0.014459345
46	0x3c851d1e	0.016249236
47	0x3c6b1952	0.014349299
48	0x3cceefb2	0.02526078
49	0x3bf84d21	0.007577554
50	0x3c7cba0c	0.015425216
51	0x3cfdf217	0.030999226
52	0x3cd74755	0.026279131
53	0x3c71d5fb	0.01476049
54	0x3bce749d	0.0063005225
55	0x3ba1c688	0.004936997
56	0x3d408707	0.047003772
57	0x3cc7a29e	0.024369534
58	0x3c865eec	0.016402684
59	0xbb03d125	-0.0020113674
60	0x3c10bc0e	0.008833898
61	0x3d18d9f5	0.037317235
62	0x3d1524f1	0.036412183
63	0x3c079f9c	0.0082778
64	0x3d011fa1	0.031524304
65	0xb9babcdc	-0.00035617396
66	0xbc335e0a	-0.010947714
67	0x3ce0fa29	0.027463036
68	0x3c98e86a	0.018665511
69	0x3bd02b46	0.006352815
70	0x3be3a18e	0.006946749
71	0x3b6471ab	0.003485779
72	0xbc89c49d	-0.016817385
73	0x3c2a8031	0.01040654
74	0xbb3b3f8f	-0.002857182
75	0x3d4013d5	0.046893913
76	0x3c6bb302	0.0143859405
77	0x3c82ccce	0.0159668
78	0x3c36c165	0.011154507
79	0x3c2712a2	0.0101973135
80	0xbcfbee90	-0.030753404
81	0x3ce719b9	0.028210508
82	0x3ce1a12b	0.027542671
83	0x3d0c64e4	0.034275904
84	0x3c2445e9	0.0100264335
85	0x3c7b8841	0.01535231
86	0x3c3cf705	0.011533503
87	0x3c385f9a	0.011253262
88	0x3b650960	0.0034948215
89	0x3c500f30	0.0126989335
90	0x3c6f811c	0.014618184
91	0x3c93f6d2	0.018062029
92	0x3cf5821d	0.02996927
93	0x3c935568	0.01798506
94	0x3b232be5	0.002489799
95	0x3d33507a	0.04377792
96	0xbc616b2e	-0.013758464
97	0x3d4de4de	0.050267093
98	0x3d0e8835	0.034797866
99	0xbbfb5232	-0.0076697106
100	0x3d07b2e5	0.03312959
101	0x3d0333ee	0.032031946
102	0x3c94a979	0.018147217
103	0x3d226f92	0.039657183
104	0x3d257be5	0.04040136
105	0x3d3b7ffd	0.045776356
106	0x3cafb738	0.02144967
107	0x3cbd57cb	0.023113152
108	0xbb62c842	-0.0034604226
109	0x3c3a1383	0.011357191
110	0x3c367c64	0.0111380555
111	0x3c280f99	0.010257625
112	0x3c1e5a47	0.0096650785
113	0x3d68c979	0.056832764
114	0x3d0690b3	0.03285284
115	0x3cd06693	0.025439536
116	0x3cecc5d1	0.02890292
117	0x3c18b10e	0.009319557
118	0x3c58ccdf	0.013232439
119	0x3c5b6c6d	0.01339255
120	0xbb7b3a6e	-0.0038334387
121	0x3cc5bdfa	0.02413844
122	0x3c6cfea3	0.014465007
123	0x3cdf3153	0.0272452
124	0x3c807bf0	0.015684098
125	0x3c6a12d8	0.014286719
126	0x3af340f9	0.0018558792
127	0x3c1ee7b6	0.009698799
128	0x3cd432ed	0.02590319
129	0x3cf818d4	0.030285276
130	0x3cab63ef	0.020921675
131	0x3c58b187	0.01322592
132	0x3c52dcff	0.012870072
133	0x3cd32300	0.025773525
134	0x3b7b76a3	0.0038370274
135	0x3c964010	0.018341094
136	0x3c865490	0.016397744
137	0x3c9588b5	0.018253664
138	0x3d226a4f	0.039652165
139	0x3d389e28	0.045072705
140	0x3cde61b9	0.027146207
141	0x3cc44316	0.02395777
142	0x3ce616a7	0.028086973
143	0xbba6ecf6	-0.005094166
144	0x3c113fa6	0.008865273
145	0x3a8ae5a5	0.0010597004
146	0xbbc515ba	-0.006014553
147	0xbbe6bd98	-0.0070416443
148	0x3cb9db7a	0.022687662
149	0x3caab708	0.02083923
150	0x3c7e7d4e	0.015532805
151	0xbb06f8f5	-0.0020595167
152	0x3d1c5d0b	0.03817467
153	0x3c8e085a	0.017337967
154	0x3c13e6d2	0.0090272
155	0x3cb12d75	0.02162812
156	0x3cfa3e13	0.030547177
157	0x3c524655	0.012834151
158	0x3c7ebea4	0.015548382
159	0xbc1bd299	-0.00951066
160	0x3c4e6c08	0.012598999
161	0x3c9f162d	0.019419754
162	0x3c808e60	0.01569289
163	0x3cddb202	0.02706242
164	0x3c5a99aa	0.0133423
165	0x3c3e60b2	0.011619734
166	0x3cd3da78	0.02586101
167	0x3cff0e2d	0.03113469
168	0x3c556057	0.0130234575
169	0x3cbe99b5	0.023266653
170	0x3cc6b528	0.024256304
171	0x3cd599fb	0.0260744
172	0x3cec8949	0.028874056
173	0x3ce3b798	0.027797505
174	0x3cb8215d	0.022476846
175	0x3d0ffdb4	0.03515406
176	0x3cfc27f3	0.030780768
177	0x3d202f29	0.039107475
178	0x3cc31fab	0.023818811
179	0x3c0c8b8b	0.0085781915
180	0x3caa805d	0.020813162
181	0x3bad8481	0.0052953367
182	0x3d2ef40b	0.042713206
183	0x3d0d3cf9	0.034481976
184	0x3cba2a8b	0.022725364
185	0x3ca27be3	0.019834464
186	0x3c692150	0.014229134
187	0x3cd02aa3	0.025410956
188	0x3ce17f2a	0.027526457
189	0x3c329966	0.010900831
190	0x39f8d8d3	0.00047463793
191	0x3caf0297	0.02136354
192	0x3ce34ba5	0.027746031
193	0x3b89c54f	0.004204429
194	0x3c93709b	0.01799803
195	0x3ca1bc3c	0.019743077
196	0x3c9ad0bf	0.018898366
197	0x3c1d6930	0.009607598
198	0xbc42e2e6	-0.011894917
199	0x3cca1f5a	0.024673153
200	0x3cf40530	0.02978763
201	0x3b263c68	0.0025365595
202	0x3c79141c	0.015202548
203	0x3caa6a49	0.020802634
204	0x3c9eafaf	0.019370882
205	0x3d0dec87	0.0346494
206	0x3d33c9a7	0.043893483
207	0x3c6f9085	0.0146218585
208	0xbd6aca13	-0.05732162
209	0xb921de01	-0.0001543686
210	0xbd034587	-0.03204873
211	0xbbb3de42	-0.0054891417
212	0xbc8b63b3	-0.017015314
213	0xbb7b0d8c	-0.0038307635
214	0x3c6feb95	0.0146435695
215	0xbcfae83b	-0.030628314
216	0x3d0e0c03	0.034679424
217	0xbc6629dc	-0.014048066
218	0x3b77ebf4	0.0037829848
219	0xbc8c9504	-0.0171609
220	0x3d8dcf81	0.06924344
221	0x3c5bf73d	0.013425645
222	0x3cd39ca9	0.025831537
223	0xbd4a5194	-0.049394205
224	0x3e95ee15	0.29283205
225	0x3d6e7906	0.058220886
226	0x3d416939	0.04721949
227	0x3d8839e6	0.06651668
228	0x3e21cda2	0.15801099
229	0x3de6316a	0.11239894
230	0x3db15a2d	0.08659778
231	0x3dd15d7d	0.102229096
232	0x3d9cb49d	0.07651637
233	0x3d7265d4	0.059179142
234	0x3da39129	0.079866715
235	0x3deb9dc6	0.11504702
236	0x3de93b80	0.11388302
237	0x3dc12e4f	0.09432661
238	0x3ddc1932	0.10746993
239	0x3e41352a	0.18867937
240	0x3ec1e1a3	0.3786746
241	0x3cb3385c	0.02187746
242	0x3e216981	0.15762903
243	0x3d9965a2	0.07490088
244	0x3d389573	0.0450644
245	0x3df3d5ad	0.1190599
246	0x3d0bbcfe	0.034115784
247	0x3e12bc9a	0.14329758
248	0x3f048470	0.51764584
249	0x3e249f68	0.16076434
250	0x3ce1c2c1	0.027558686
251	0x3e40479b	0.18777315
252	0x3e181fba	0.14855853
253	0x3e0da2b9	0.13831605
254	0x3e771bef	0.2413175
255	0x3d31df17	0.043425646

linear1.bias f4 [108]
0	0x3d8613c7	0.06546741
1	0x3edccb8a	0.43124038
2	0x3e17e7ce	0.1483452
3	0x3dfa590d	0.12224016
4	0xbc852df7	-0.01625727
5	0x3e3d0cc9	0.18461908
6	0x3d5f1bcc	0.05446987
7	0x3c962ccb	0.018331906
8	0x3e82aedd	0.25524035
9	0x3d27c2fd	0.04095744
10	0x3e0255cc	0.12728041
11	0x3e9e439f	0.30910966
12	0x3bffc343	0.0078052594
13	0x3c113015	0.008861561
14	0x3c444a3e	0.011980591
15	0xbb5cc6af	-0.003368776
16	0x3d12284c	0.03568296
17	0xbbe3eebe	-0.0069559505
18	0x3c6a701d	0.014308956
19	0x3e99f556	0.3006999
20	0x3e4e9435	0.20173724
21	0xbba25eca	-0.0049551474
22	0x3d04fadb	0.032465797
23	0x3d85999c	0.06523439
24	0x3eefceb8	0.468374
25	0x3def14f8	0.11673921
26	0x3ce65e21	0.028121056
27	0xbbeaf648	-0.0071704723
28	0x3cfd84b3	0.030947065
29	0x3dead758	0.11466855
30	0x3e4e356e	0.2013757
31	0xbbbeb207	-0.0058195624
32	0xba2abd1a	-0.00065131637
33	0x3e45c27a	0.19312468
34	0x3cd2b67c	0.025721781
35	0xbafab675	-0.0019127863
36	0x3c8ec2a2	0.017426793
37	0x3b89af57	0.0042018103
38	0xbad8156c	-0.0016485876
39	0x3c3328d4	0.010935027
40	0x3d83ee6e	0.06441961
41	0x3ea1dcb9	0.3161371
42	0x3e18c5b8	0.14919174
43	0x3bb59116	0.005540977
44	0x3b81a223	0.003956096
45	0x3c75f646	0.015012329
46	0x3c6bb34b	0.0143860085
47	0x3b67b656	0.0035356483
48	0x3e3b30d2	0.18280342
49	0x3b95dc0d	0.0045733512
50	0x3e44e386	0.19227418
51	0x3ee191fd	0.44056693
52	0xbb2850a2	-0.0025682827
53	0x3b403c27	0.0029332729
54	0xba74bd7b	-0.0009336096
55	0x3db7eefb	0.08981129
56	0x3c79ccc0	0.01524657
57	0x3d23a962	0.039956458
58	0x3b488a6f	0.003060009
59	0x3ddf81fa	0.10913463
60	0x3e979c60	0.29611492
61	0x3ea94e3c	0.330675
62	0xba88d3dd	-0.0010439117
63	0x3d5c6e3d	0.05381607
64	0x3d1f3182	0.038865574
65	0x3d9395a5	0.07206277
66	0xbca4c213	-0.020112073
67	0xbbeca319	-0.007221591
68	0xbc7692a8	-0.015049614
69	0x3d810898	0.06300467
70	0x3cda9f8a	0.026687402
71	0xbad5eba2	-0.0016320834
72	0x3efa25e5	0.48857036
73	0x3ea1a58c	0.31571615
74	0x3e0ed18b	0.13947122
75	0x3e1a5ad6	0.15073714
76	0x3c54f24c	0.012997221
77	0x3e285bc2	0.16441253
78	0x3e02768c	0.12740535
79	0x3dde84df	0.10865187
80	0x3e8449f1	0.25837663
81	0x3e92b0b2	0.28650433
82	0x3b16406e	0.0022926587
83	0x3e241cc5	0.160266
84	0x3dfd50ac	0.123689026
85	0x3d693454	0.05693467
86	0x3e14a0fd	0.14514537
87	0x3e683953	0.22678117
88	0xbb0ede6b	-0.0021800052
89	0xbbd85e0d	-0.0066030086
90	0x3cd747e9	0.026279407
91	0xbc9f4881	-0.019443752
92	0x3ed174ea	0.4090951
93	0x3da456c8	0.08024365
94	0xbc026f61	-0.007961125
95	0x3dbfc727	0.09364157
96	0x3dc4f7e6	0.096175954
97	0xbb8a2e96	-0.0042169793
98	0x3d443715	0.047904093
99	0xbacfc4a3	-0.0015851449
100	0x3cc78e72	0.024359915
101	0x3b4148a1	0.0029492753
102	0x3cb66ac8	0.022267714
103	0x3e709c2b	0.23497073
104	0x3e5a68a7	0.21328984
105	0x3ee6a378	0.45046592
106	0x3e195d7d	0.14977069
107	0x3e7afbac	0.24510068

linear2.weight f4 [1, 108]
0	0x3e764607	0.24050151
1	0x3fb1f75c	1.3903613
2	0x3ef1ca04	0.47224438
3	0x3ed6570f	0.41863295
4	0x3b626a38	0.0034548175
5	0x3f1f8388	0.62310076
6	0x3e2b2ae4	0.1671558
7	0x3dd8e272	0.10590066
8	0x3f5561be	0.8335227
9	0x3dd12146	0.102114245
10	0x3ef885dd	0.4853963
11	0x3f7983a7	0.9746651
12	0x3da3b52e	0.07993542
13	0x3d9ec862	0.07753064
14	0x3d74aae8	0.0597333
15	0x3bae2d57	0.0053154635
16	0x3e24ceb9	0.16094483
17	0xbc4fa50c	-0.012673628
18	0x3dec205f	0.11529612
19	0x3f805662	1.0026362
20	0x3f2990f1	0.6623679
21	0x3c7b67f4	0.015344609
22	0x3d9df6a2	0.07713057
23	0x3e686a1f	0.22696732
24	0x3fbfe352	1.4991248
25	0x3ef0aa92	0.47005135
26	0x3de7961b	0.11307927
27	0x3b15eb42	0.002287582
28	0x3e1875b9	0.14888658
29	0x3e941064	0.28918755
30	0x3f17825c	0.5918329
31	0xbb99f510	-0.004698403
32	0xbb68b806	-0.0035510077
33	0x3f656ec8	0.89622164
34	0x3d517620	0.051138043
35	0x3b40ee1b	0.0029438797
36	0x3ddd6fe1	0.10812355
37	0x3c10afd1	0.00883098
38	0x3d359a99	0.04433689
39	0x3cc95a61	0.024579229
40	0x3e4fde67	0.20299684
41	0x3f800935	1.000281
42	0x3f1f3df5	0.62203914
43	0x3d356511	0.044285838
44	0x3bcfb8fd	0.006339191
45	0xba8b0f6b	-0.0010609453
46	0x3ddf809e	0.10913204
47	0x3cd83f24	0.026397295
48	0x3f146454	0.5796559
49	0x3be52d3d	0.006993918
50	0x3f284d17	0.6574263
51	0x3fafd0a0	1.3735542
52	0x3cc4b3f0	0.024011582
53	0x3c84a84d	0.016193533
54	0x3c8bcc63	0.017065233
55	0x3e8e39c5	0.2777845
56	0x3d81475a	0.06312437
57	0x3e3bdfda	0.18347111
58	0x3c05641f	0.0081415465
59	0x3f02129d	0.5080965
60	0x3f7cccbc	0.987499
61	0x3f8ae8fc	1.0852351
62	0x3ba1b25b	0.0049345917
63	0x3e623ab2	0.22092703
64	0x3e36f465	0.17866667
65	0x3ea8ef11	0.32994893
66	0x3c1059b4	0.008810449
67	0xbbfa3b76	-0.007636483
68	0x3c42517f	0.0118602505
69	0x3e96ae58	0.2942989
70	0x3e0877df	0.13326977
71	0x3bc8d8d0	0.0061293617
72	0x3fc75a86	1.55745
73	0x3f845b62	1.0340388
74	0x3ee7d78c	0.45281637
75	0x3eff62ad	0.4987997
76	0x3d475080	0.048660755
77	0x3f011a8c	0.5043113
78	0x3f040b04	0.5157931
79	0x3ecd7b70	0.40133238
80	0x3f3f1844	0.746464
81	0x3f6e0939	0.9298282
82	0x3c9e963a	0.019358743
83	0x3f046e4f	0.5173082
84	0x3ec7f3a2	0.39053065
85	0x3e28bfe2	0.16479447
86	0x3ef338af	0.47504184
87	0x3f45f0ab	0.77320355
88	0x3c9dbdff	0.019255636
89	0x3c989d4a	0.018629689
90	0x3dc1cc92	0.09462847
91	0xbb0409e9	-0.0020147508
92	0x3fab7003	1.3393558
93	0x3e9894de	0.29801077
94	0x3d64e96f	0.055886682
95	0x3eba8613	0.36430416
96	0x3eab6719	0.33477095
97	0x3cdc5003	0.026893621
98	0x3e8f169f	0.27946946
99	0x3c800c98	0.015631005
100	0x3d32d17d	0.043656815
101	0x3cc500b6	0.02404819
102	0x3e0bab87	0.13639651
103	0x3f319649	0.6936994
104	0x3f6c7962	0.92372715
105	0x3fae5e83	1.3622593
106	0x3ee66be5	0.45004192
107	0x3f494ad9	0.78629833
