model_m5ALL_new_12000_127.pth (torch, 96075 bytes, 3 tensors)

linear1.weight f4 [108, 216]
000000 8f cb 32 3c 42 5a 7c bc 6e 81 db 3b a7 1a 83 bc
       0.01091279 -0.0154023785 0.006698779 -0.01600392
000010 d2 f6 8d bc 7e c0 45 bc 06 29 28 bd 38 52 89 bd
       -0.017329607 -0.0120698195 -0.041054748 -0.06705135
000020 01 48 2d 3e 69 96 4e 3d 33 de 85 3d a7 fc 80 3d
       0.16921999 0.05043641 0.06536522 0.062981896
000030 42 9a 96 3d 74 36 8b 3d db 24 99 3d 54 15 13 3d
       0.07353641 0.067974955 0.07477733 0.035909012
000040 ff 73 73 3d 35 97 06 3d 2e 66 c7 3d ea c1 aa 3d
       0.059436794 0.032859046 0.09736286 0.083377674
000050 d4 a0 81 3d 12 b2 69 3d 5e bf b8 3d cb 0a 01 3e
       0.06329504 0.057054587 0.090208754 0.12601773
000060 97 99 22 3e 92 73 59 3c c3 4d c0 3d 71 fb 78 3d
       0.15878902 0.013272183 0.09389832 0.06078667
000070 53 76 f3 3c 5b c9 48 3d 25 0b 36 3d 2f e4 d2 3d
       0.029719507 0.049020153 0.044444222 0.10297429
000080 37 12 70 3e 27 48 dd 3d d8 2a 99 3d f0 2a 13 3e
       0.23444448 0.108047776 0.07478875 0.14371848
000090 fa 7b d9 3d b5 a3 c4 3d f9 18 4d 3e 7d 99 ed 3b
       0.1061935 0.09601537 0.20029058 0.0072509632
0000a0 d5 87 11 3e 02 bd a4 3d 62 2e 22 3d b7 5a d8 3d
       0.14211972 0.08043863 0.039595015 0.105641775
0000b0 b4 80 83 3d da 8e 68 3d bb 2b 81 3d 50 3a 14 3e
       0.064210325 0.05677686 0.06307169 0.1447537
0000c0 0c 06 c9 3d 5c c4 2d 3d ac b1 64 3d dd 69 a3 3d
       0.098156065 0.04242359 0.055833504 0.07979176
0000d0 51 51 cd 3d 46 9f d4 3d 35 e9 c0 3d a0 1e 4d 3d
       0.100252755 0.103819415 0.09419481 0.050078034
0000e0 24 91 22 3e d0 ef 11 3d 17 8a 4b 3d 22 d6 88 3d
       0.15875679 0.035629094 0.04969224 0.066814676
0000f0 d4 b9 30 3d 1d a0 ff 3d c5 70 b0 3d e1 d7 07 3d
       0.04314597 0.12481711 0.08615259 0.033164863
000100 e4 d3 cd 3d 87 74 51 3d 31 71 39 3d 44 f5 90 3d
       0.100501806 0.05113652 0.045273963 0.07078031
000110 ac a1 d8 3d 76 b3 1a 3d c6 a9 7b 3d ce 3b e3 3d
       0.105777115 0.037768804 0.061441205 0.11095391
000120 c6 da 96 bb 13 14 84 3d b6 0a 52 3d 4a a6 f6 3d
       -0.0046037165 0.06449141 0.051279746 0.12043436
000130 31 a1 82 3d ff 9e a2 3d 8c a5 95 3d e2 3a fa 3c
       0.06378401 0.07940482 0.07306966 0.030545656
000140 33 0d 62 bd 66 ba ba 3d db 55 19 3e 99 98 a8 3d
       -0.05518837 0.09117584 0.14974158 0.08232231
000150 aa 21 39 3d dd 15 e4 3d ab a8 34 3d a0 fa a7 3d
       0.04519812 0.111369826 0.044106167 0.082021
000160 61 a2 10 3d 80 e2 82 3d 2f a1 a1 3d d7 49 9b 3d
       0.035311107 0.06390858 0.078920715 0.07582443
000170 01 5c cf 3d 23 21 ad 3d 01 e0 6a 3d 29 7d e7 3d
       0.1012497 0.08453586 0.057342533 0.11303169
000180 28 ca ee bc 26 ba 28 3e 71 4c 12 3e 12 0f 58 3d
       -0.02914913 0.1647726 0.14286973 0.052748747
000190 82 13 3a 3e 87 de b0 3d ff 48 97 3d 55 a9 15 3e
       0.18171504 0.08636194 0.0738697 0.14615376
0001a0 f3 23 89 3d 97 74 03 3e 99 ff cf 3d 43 f2 f2 3d
       0.0669631 0.12837444 0.10156173 0.11862614
0001b0 a1 8e 2e 3c 1e f6 56 3d 01 c2 a2 3d ad eb f9 3d
       0.010654123 0.05248081 0.079471596 0.12203155
0001c0 a5 fd b2 3c 8b 4d 07 3e 06 35 e8 3d ab 0f b4 3d
       0.021849463 0.13213174 0.113382384 0.08792051
0001d0 53 c3 11 3e cc d1 57 3d 02 e9 79 3d 23 5c 1a 3e
       0.14234667 0.052690312 0.06101323 0.1507421
0001e0 f3 92 e7 3c 67 ee 92 3d ee 7e fd 3d f8 c9 b8 3d
       0.028268313 0.07174378 0.123777255 0.090228975
0001f0 89 d9 d6 3d 82 70 27 3d ef e3 27 3d 33 af 9c 3d
       0.1049071 0.04087878 0.04098886 0.07650604
000200 39 6e 79 3d 98 9f 1f 3d 7c 30 97 3d 63 cd a1 3c
       0.060896132 0.03897056 0.073822945 0.019751256
000210 e1 e5 3e 3d 7d 42 8c 3d 17 59 12 3d ec 91 56 3d
       0.04660595 0.06848619 0.035729494 0.052385256
000220 c2 a7 88 3d f4 2e 64 3d b3 5d bc 3d 88 91 ad 3d
       0.06672622 0.05570884 0.09197559 0.084750235
000230 b9 70 b9 3d e0 d9 21 3e 43 da 9a 3d 87 21 ca 3d
       0.09054703 0.15805769 0.07561161 0.09869676
000240 c2 2b cc 3d 8f b9 d5 3d c6 09 64 3d 1b 5d 12 3d
       0.09969284 0.10435783 0.055673383 0.035733324
000250 72 75 90 3d a2 76 12 3d 44 f8 63 3d b3 20 d9 3c
       0.07053651 0.03575767 0.055656686 0.02650485
000260 ad 2a af 3d c3 b3 89 3d aa 32 a6 3d aa ac af 3d
       0.08553062 0.0672374 0.08115132 0.08577855
000270 08 cc 5e 3d a8 83 06 3e 06 da f0 3d 54 9f 83 3d
       0.054393798 0.1313616 0.11760335 0.06426874
000280 7d 29 15 3d f6 81 75 3d 5e b6 2a 3d cd cf d5 3d
       0.03641652 0.059938394 0.041677825 0.104400255
000290 0d b7 d8 3d 00 31 95 3d 21 0c 91 3d 83 81 cb 3d
       0.10581789 0.07284737 0.070823915 0.09936812
0002a0 4c cc 88 3d 32 d4 cf 3d aa 07 94 3d 04 a5 c0 3d
       0.066795915 0.10147895 0.07228024 0.09406474
0002b0 00 aa 9d 3d ba 8a 7b 3d 51 69 c8 3d 3d a1 b2 3d
       0.076984406 0.061411597 0.097857125 0.0872216
0002c0 d7 72 ea 3d f2 9c b2 3d c9 33 a0 3d 45 11 59 3d
       0.11447685 0.08721341 0.07822377 0.052994985
0002d0 9c d1 fa 3c ff 5c 9f 3d 26 18 f7 3d 8f 73 5a 3d
       0.030617528 0.077814095 0.12065153 0.05333286
0002e0 67 66 f8 3c b3 89 9a 3d 1a 65 f2 3c 35 f1 83 3d
       0.030322267 0.07545795 0.029589225 0.06442491
0002f0 7b d4 6a 3d d0 da e0 3c 41 3a 9d 3d b4 69 57 3d
       0.057331543 0.027448088 0.07677127 0.05259104
000300 96 3e d0 3d f2 3a af 3d 48 58 52 3d 84 4a 8c 3d
       0.10168187 0.08556165 0.051353723 0.0685015
000310 2e 16 ab 3c 13 ff a8 3d 39 13 b5 3d fd 52 bb 3d
       0.0208846 0.082517765 0.08841557 0.09146688
000320 b8 86 7e 3c 40 f3 c9 3d 45 55 9d 3d ac 38 a8 3d
       0.015535049 0.098608494 0.076822795 0.08213934
000330 c9 c2 99 3d e5 58 d6 3d 35 8a b0 3d 42 32 d6 3d
       0.075078554 0.10466174 0.08620111 0.10458805
000340 4e ec 39 bd 59 40 8c bc da 28 a0 bc bc 8c 88 bd
       -0.045391373 -0.017120527 -0.01955073 -0.06667468
000350 59 36 2d bd d8 c0 79 bc 43 8e 95 3c 75 d6 22 bd
       -0.042288158 -0.015243731 0.018256312 -0.039755303
000360 2c 25 47 ba 6b 52 1d bb b2 3e ca bb 23 d1 4d bc
       -0.00075967866 -0.0024005424 -0.0061720246 -0.012562069
000370 86 65 df ba 5d 57 21 bb 32 10 9f 3b f9 4a 64 3c
       -0.0017043806 -0.0024618723 0.0048542256 0.0139338905
000380 dc 46 e7 3b 07 61 38 bc 68 5c 2f ba 19 69 a3 bb
       0.0070580076 -0.011253602 -0.000668949 -0.004986894
000390 21 e4 a4 bb d0 d2 d9 bc df 2d 83 3b 71 f8 1c bc
       -0.005032078 -0.026589781 0.004003271 -0.009580717
0003a0 d6 94 81 bc 21 d5 5a bc 2b 9a 56 bb 6b b2 0c bc
       -0.01581804 -0.013356478 -0.00327457 -0.00858746
0003b0 ec 5b 20 ba 72 86 4c bc 31 e5 15 bb 03 62 83 bc
       -0.0006117213 -0.012483226 -0.0022872204 -0.016037947
0003c0 e1 a9 87 bb ad e9 76 bb 89 d9 f2 3c a1 1e 40 3c
       -0.004140124 -0.0037675903 0.029644744 0.0117260525
0003d0 37 b3 6a 3b 64 f9 a1 3b 2d cf 57 3c fc 9e 8f 3b
       0.0035812387 0.0049430598 0.013171953 0.004382966
0003e0 05 3a 3a bb 91 e0 47 3b 39 79 d7 bb 3d 06 b4 bb
       -0.002841593 0.0030498842 -0.00657573 -0.0054939077
0003f0 76 56 a6 bb 4e f6 d6 ba 93 1f 8c 3b b3 15 36 3c
       -0.005076225 -0.0016400309 0.004276225 0.011113572

linear1.bias f4 [108]
000000 46 0e 9d 3e b2 fe 05 3c 67 71 a4 3d cc ca ab bb
       0.30674952 0.0081784 0.08029442 -0.005242681
000010 ea cf 0b 3f f1 0b f1 3b 72 5a 8e 3d 5e dc 5c bc
       0.54614127 0.00735616 0.06950845 -0.013480274
000020 50 38 0d 3d 5b df 69 bc eb 98 b3 3e 6a d1 d2 3e
       0.034477532 -0.0142744435 0.35077605 0.41175395
000030 68 5e d0 3e 00 ba 5f 3e fe 81 88 bb 89 97 c6 3e
       0.40697026 0.21848297 -0.004165887 0.38787487
000040 b4 e2 4f 3c 7c 16 d8 3c 11 6b 58 3d 33 df 64 3e
       0.012688328 0.026377909 0.05283648 0.22350769
000050 5a b7 70 3a 86 1a d5 3d 9d 2c 0b 3d 38 3b 4b 3b
       0.0009182595 0.104054496 0.033978093 0.003101064
000060 6a 83 6d 3b cd b7 ba 3c 82 91 f1 3d 9a 41 81 3e
       0.003624166 0.022792721 0.117953315 0.25245363
000070 7c d7 b0 3c ff 15 50 bc d7 fa ac 3c f0 de ac bb
       0.021587126 -0.012700557 0.021115704 -0.0052755997
000080 63 59 9b 3d d8 74 e2 bb ac 88 5b 3d 21 74 db ba
       0.075854085 -0.0069109015 0.053597137 -0.0016742983
000090 fb ce 81 bc 92 f1 35 3d f9 55 94 bb 3e 08 17 3d
       -0.015845766 0.044419833 -0.0045268503 0.036873095
0000a0 3c 1e 0c 3d 26 72 9c 3e 31 ae 01 3d bd fa 93 3c
       0.03420852 0.30555838 0.031660262 0.018063897
0000b0 74 22 24 3e 25 50 3c 3c 5d 9c 25 3e d2 e7 18 3d
       0.16028768 0.011493717 0.16172929 0.037330456
0000c0 4d 6c 4a 3e 45 ad a6 3d 76 9f 2c 3e 5f 98 ba bb
       0.19767876 0.08138517 0.16857705 -0.0056944336
0000d0 1d 12 ff bb 3b 70 80 3e db b0 9c 3d 57 25 cb 3e
       -0.0077841417 0.25085625 0.0765092 0.39676926
0000e0 f0 52 9a 3e 9e ab 36 3d 4f 6a e8 3e c0 cf a6 3e
       0.301414 0.04459726 0.45393607 0.32580376
0000f0 77 f6 b5 3a 53 44 6d 3e e0 b6 05 3c 47 be 98 3e
       0.0013882656 0.23170595 0.008161277 0.2983267
000100 f0 f5 ad 3e a9 87 85 3e a0 30 d1 3c 06 82 fc 3e
       0.33976698 0.26080063 0.025535882 0.4931795
000110 76 8c b6 3e 7c 31 2c 3e 73 be a7 3e 17 8c 80 3e
       0.35654038 0.16815752 0.3276249 0.2510688
000120 c9 7d 8b 3b d4 40 72 3c 1b cf 2e 3d 9c 7c 9b 3c
       0.004256938 0.014785964 0.04267798 0.018980317
000130 05 57 3f 3e 03 88 87 3e 5e 0b 9f 3e 73 b3 99 3b
       0.18685539 0.26470956 0.3106336 0.0046905815
000140 33 f4 9d 3b be 72 18 3e 74 7b 79 3e dc 95 dc 3b
       0.0048203706 0.1488752 0.243635 0.006731732
000150 de cc d1 3d c2 54 80 3e 1a 67 8b 3c 45 c2 3e 3d
       0.102441534 0.25064665 0.017016936 0.04657199
000160 12 b2 ad 3b 0c a1 01 3e 35 cc aa 3d 23 34 ee ba
       0.0053007687 0.12659091 0.08339731 -0.0018173497
000170 46 db e1 3d fd f1 eb 3d 55 6e f4 3d 60 46 a1 bc
       0.11028151 0.11520765 0.11935107 -0.019686878
000180 27 98 b4 3e d3 8f 0c 3e ce 64 c7 3d 28 df 59 3c
       0.35272333 0.1372674 0.09736024 0.0132978335
000190 d2 be 00 bb 2e 51 42 3e 7b d2 13 3e 98 8b 90 bc
       -0.0019644988 0.1897628 0.1443576 -0.017644688
0001a0 f8 ef 09 3d 15 53 93 3c 20 d5 2f 3e 72 23 c1 bb
       0.033676118 0.017983953 0.17171144 -0.005894118

linear2.weight f4 [1, 108]
000000 01 a9 4d 3f de 75 ea 3a 02 e3 3b 3e e1 d3 7a 3b
       0.80336004 0.001788791 0.18348315 0.0038273262
000010 fa 58 ac 3f 07 cb 23 3d 59 58 94 3e 75 68 d1 3a
       1.3464653 0.039988544 0.28973654 0.0015976565
000020 ff 16 3c 3e 12 8c 73 bb 40 b6 59 3f 23 ed 81 3f
       0.18368147 -0.0037162346 0.85043716 1.0150493
000030 ba 96 7b 3f 24 35 0d 3f 73 81 b8 3a 30 67 75 3f
       0.98276865 0.5515921 0.0014076665 0.95860577
000040 5c e0 56 3c d7 84 ba 3d 88 d4 12 3e 48 34 10 3f
       0.013115015 0.091073684 0.14338887 0.56329775
000050 98 3e e3 3c 70 b2 80 3e 90 d8 e5 3d 17 5b ad 3c
       0.027739808 0.25136137 0.11222947 0.0211616
000060 64 06 06 3c f3 f3 2c 3d 3f ae a2 3e 01 ab 18 3f
       0.008180235 0.042224836 0.31773564 0.5963593
000070 3e 50 9c 3d e8 ef 24 3a 7a 83 16 3d 27 49 fd 3b
       0.076324925 0.00062918523 0.03674648 0.0077296677
000080 06 72 8c 3e 9a 4e 19 3c bb 08 e1 3d 35 a8 12 bb
       0.27430743 0.009357119 0.10987993 -0.0022378091
000090 17 65 d3 bb 81 f5 0e 3e e8 85 42 3b 57 bc 6e 3d
       -0.00645126 0.1396084 0.0029681865 0.058285084
0000a0 c0 c7 9b 3d 5e cb 4b 3f c3 1b 46 3d be 50 2e 3d
       0.07606459 0.7960719 0.04836632 0.04255747
0000b0 e8 c9 be 3e 6e bd 0a 3d 2d 1b ce 3e f6 47 b9 3d
       0.37263417 0.03387206 0.40255108 0.090469286
0000c0 3b ec ef 3e 46 f3 5c 3e de 4e 0d 3f bf 91 09 bb
       0.46859917 0.21577176 0.55198467 -0.0020991412
0000d0 4e 97 6c 3b 6a 1a 25 3f 64 2a 51 3e cf 09 6f 3f
       0.0036100927 0.6449343 0.20426327 0.9337434
0000e0 15 6e 3d 3f 47 fb e4 3d a2 89 8e 3f d0 97 4e 3f
       0.73996097 0.1118074 1.1135752 0.807004
0000f0 f0 65 7a 3c 3c f9 0d 3f 9b ce 7c 3b 56 96 36 3f
       0.015283093 0.55458426 0.0038575295 0.71323144
000100 ac 5e 4c 3f f7 d1 18 3f a7 2f 87 3d 91 ad 9d 3f
       0.7983196 0.5969538 0.06600886 1.2318593
000110 ea 12 59 3f 28 b4 15 3f b9 6a 7a 3f e1 09 27 3f
       0.84794486 0.5847802 0.97819096 0.6524945
000120 69 dd 7b 3c 3c 1c 84 3c 35 c8 0f 3e 15 fc 78 3d
       0.0153726125 0.016126744 0.14041217 0.06078728
000130 97 ff f3 3e 15 40 21 3f ad d4 82 3f 03 bc c2 3c
       0.47655937 0.62988406 1.0221153 0.023771292
000140 f6 7d 0d 3d 5a c8 c2 3e 3c b6 46 3f cd 25 91 3b
       0.034543954 0.3804348 0.7762182 0.004429555
000150 75 90 7d 3e 5f cb 23 3f 3f e6 6e 3d 7f 23 29 3e
       0.24762137 0.63982195 0.05832505 0.16517447
000160 8f ae 6f bb fa 41 ab 3e 4f 9d 91 3e 97 de 11 3b
       -0.003657255 0.33448774 0.2844033 0.0022257918
000170 73 19 8b 3e 91 42 94 3e 41 2d 93 3e d8 5c 4c 3c
       0.27167854 0.28957036 0.28745463 0.012473308
000180 91 66 6f 3f 16 93 a4 3e 56 8f 6f 3e 11 61 34 3d
       0.9351588 0.32143468 0.23394522 0.044037882
000190 8a 06 88 3d f1 f8 01 3f 11 c0 b8 3e ce 2a 35 3c
       0.06641872 0.5077048 0.36084035 0.011057569
0001a0 15 a4 9f 3d a8 01 15 3d 0d a2 d3 3e c5 57 bd 3a
       0.07794968 0.036378533 0.41334572 0.0014445713
