model_m5ALL_new_40000_805.pth (torch, 96075 bytes, 3 tensors)

linear1.weight f4 [108, 216]
000000 e0 62 42 bc 57 75 fe bb 27 74 9d bb 65 c8 81 3a
       -0.011864394 -0.007765453 -0.004805106 0.0009901641
000010 d1 bf 1c 3b 49 00 78 bc 3b 19 20 bc e1 30 11 3c
       0.0023918042 -0.015136787 -0.00977164 0.008861751
000020 96 cf a2 3a 3f 8f 11 bb f5 f6 b2 3b 6a d4 6b bc
       0.0012421485 -0.0022210625 0.0054615685 -0.014393905
000030 f9 d4 fe 3b 12 ce c3 bc a1 e3 b8 3a 98 f7 0b bc
       0.007776853 -0.023901973 0.0014105925 -0.008542918
000040 c8 bf 81 3c 1c 09 74 39 8c d5 0b 3c 59 ad 3d bb
       0.015838519 0.00023273047 0.0085348 -0.0028942435
000050 3c 7e 0b 3c 26 02 02 ba 1c e6 a7 bb 76 05 26 3c
       0.008513983 -0.00049594266 -0.0051238667 0.010133138
000060 2e 69 39 bc 7f 9a a0 ba 39 5a 83 3b 7d 62 8d 3b
       -0.011316581 -0.0012253075 0.004008558 0.0043147192
000070 f9 f9 24 3b 29 d4 51 3c 06 75 9b 3c 6f b4 77 3a
       0.002517341 0.012806931 0.0189767 0.0009449189
000080 da a4 35 bb 56 b1 e9 bb 6c ad 3b 3c f0 2a ab 3b
       -0.0027716667 -0.007131736 0.011454921 0.0052236244
000090 19 09 90 3b 0a a1 62 3c ea 7a 5f 3c 2f 52 1c 3c
       0.004395616 0.01383234 0.013640145 0.0095410785
0000a0 30 00 d2 3b 4d ce 34 39 ae f5 a6 bb 0d 08 75 bc
       0.0064087138 0.0001724299 -0.0050952053 -0.014955533
0000b0 9e 83 58 ba 42 d2 0a 3c 8e 4d 7a 3c 93 b0 7d 3c
       -0.00082593586 0.008472981 0.01527728 0.015483993
0000c0 df e2 28 3c c4 34 c9 bb 5b 45 7b 3b 0c e3 53 bb
       0.0103079965 -0.0061403234 0.00383409 -0.0032331375
0000d0 67 48 17 3c 3d 0c a2 3c a7 09 60 3c bf 96 bb 3a
       0.009233571 0.019781226 0.013674176 0.0014311894
0000e0 56 fe d7 bb 3e 25 a6 bc 17 a8 87 bc 96 d9 b6 bb
       -0.0065915985 -0.02028143 -0.016559644 -0.0055801375
0000f0 61 a6 44 bc 6a 26 54 3b 4c 38 9b bb 88 73 36 3c
       -0.012002558 0.003237153 -0.0047369357 0.011135943
000100 4f 66 cd 3b ff 09 83 ba 63 ab 56 3c 62 fd 4d 3a
       0.0062682997 -0.0009997486 0.013102385 0.00078578864
000110 3e 24 34 ba 82 c5 9b 3b 37 81 96 bc 44 7a 85 3c
       -0.00068718556 0.0047537694 -0.018372161 0.016293652
000120 d6 96 2d bc ea 83 ec 3b 94 81 22 bc b5 e1 0c 3b
       -0.010595044 0.007217874 -0.009918589 0.0021496837
000130 a5 83 ce b9 d5 8a 26 3c 7b 06 03 bb 2c 48 83 bc
       -0.00039389465 0.010164936 -0.0019992876 -0.016025625
000140 25 0e 30 3c c8 34 a2 3b a3 ab 5a bc 0b 7d 4c 3a
       0.01074556 0.0049501397 -0.013346585 0.0007800615
000150 1d 85 9a 3c 67 25 dc bc fa 66 25 3c 4c d8 fb bb
       0.018862301 -0.026873304 0.010095352 -0.0076856967
000160 46 b2 16 bc 7e bb b5 3b 73 a0 d6 bb 8a 95 69 bb
       -0.009197777 0.0055460325 -0.0065498888 -0.003564211
000170 92 8b 01 3c 65 1a e2 3b f2 02 90 3c ce ca a9 3b
       0.007906811 0.006900119 0.01757953 0.005181647
000180 01 45 4c bc 2a 39 d2 bb c2 c4 e9 bb 25 97 6f 3b
       -0.012467624 -0.006415506 -0.007134051 0.0036558595
000190 ea bf 57 bc 91 6b 3d bc 29 0b 31 3c e6 48 d9 3c
       -0.0131683145 -0.01156129 0.010805883 0.026524018
0001a0 bd b4 09 3c 64 1e 5b 3c 79 7c 10 3c 05 4a e3 3a
       0.008404908 0.013373945 0.008818739 0.0017340785
0001b0 42 d8 1f 3a df e5 c6 bb 10 6e 77 bc 15 85 f7 3b
       0.00060975936 -0.0060698832 -0.015101925 0.0075537064
0001c0 89 b9 1a bb 23 9a cd 3b 55 96 6a bb c7 82 a5 ba
       -0.0023609123 0.006274478 -0.0035795171 -0.0012627476
0001d0 53 fb 9d bb 7b 4a 9d 3b 07 5e 22 3c b0 a3 1d 3c
       -0.00482122 0.0048001385 0.009910113 0.009621546
0001e0 f0 52 5f 39 a8 41 13 bc c7 70 3b 3c 62 82 f7 3b
       0.00021297834 -0.008987822 0.011440462 0.0075533846
0001f0 33 33 f5 3b 64 41 cd 3b d4 44 8a 3b 61 8a 60 3c
       0.00748291 0.0062638987 0.0042196307 0.013704867
000200 01 7d 17 bc 9d 0a 69 3c a7 bc c6 ba a9 06 70 39
       -0.009246112 0.014223722 -0.0015162424 0.00022890665
000210 6a 28 f1 3a 54 1d 02 3c 88 9b b0 ba 3d 9e 8f 39
       0.0018398885 0.007941563 -0.0013474086 0.00027392982
000220 95 5f 08 3c 01 da 67 bb 89 17 2f bc 99 d7 0e 3c
       0.00832357 -0.0035377743 -0.010686764 0.008718395
000230 2a cb 91 3b f5 97 3e 3b 0e c0 71 bc a0 6a eb 3a
       0.004449268 0.0029082273 -0.014755262 0.0017960854
000240 95 8a 06 bb b5 15 a8 3c f5 ff c2 3b 53 27 83 3b
       -0.0020529379 0.020518163 0.0059509226 0.0040024905
000250 9b 75 97 bc 41 ad 9b bc 6f 82 b5 3b 58 4c 30 bc
       -0.018488696 -0.019003512 0.0055392305 -0.010760389
000260 2b da 83 3b 5e cc 04 3c 67 a7 95 3c 01 18 0c 3c
       0.0040238104 0.008105366 0.0182683 0.008550645
000270 f2 64 4b bb e7 7f b2 3b c0 01 0e 3b 17 73 3e 3b
       -0.003103551 0.005447376 0.0021668524 0.0029060298
000280 9d 2f 9e bb f8 62 73 bb e3 94 55 3c ea 2f 19 bc
       -0.0048274533 -0.0037137847 0.013035986 -0.0093498025
000290 60 8a 32 bc 62 a3 bf b8 f4 60 5f 3c 62 9a fc bb
       -0.010897249 -9.138022e-05 0.013633955 -0.0077088336
0002a0 28 a2 7d bb 29 b4 43 3c a1 10 17 bc 85 6f 01 3d
       -0.003870139 0.011944809 -0.009220273 0.031600494
0002b0 e0 12 af bb cb 1d b8 ba e4 1c 30 3c 4b f6 1a bc
       -0.0053428262 -0.0014046965 0.010749076 -0.009458135
0002c0 df 57 18 bc b5 58 90 3c bf 08 ee 3b 0d 0a 13 bc
       -0.009298294 0.017620424 0.007264226 -0.008974564
0002d0 8a b8 0e bc 37 75 b4 ba ac 10 02 3c 80 92 1e bb
       -0.00871099 -0.0013767843 0.007938545 -0.0024196208
0002e0 f3 e5 47 3b 1f da 20 3b d4 a5 32 bb 3c 2e 3d bc
       0.003050205 0.0024544073 -0.0027259486 -0.011546668
0002f0 34 7d 17 3c 1c 57 29 3c 3d a2 13 bc 85 5e da bb
       0.009246159 0.01033571 -0.009010849 -0.0066640996
000300 2a a7 e3 39 42 0d 3b ba fb d2 1e 3b 99 ba 8e 3a
       0.0004342136 -0.00071354595 0.002423464 0.0010889351
000310 70 09 7f bc 25 e8 02 bc e1 c3 22 3c 40 33 32 bb
       -0.015566215 -0.007989918 0.0099343965 -0.0027191192
000320 b8 25 36 bc 43 c9 30 3a 7d b4 17 bb af b8 09 bb
       -0.011117391 0.00067438575 -0.002314835 -0.002101462
000330 2d c4 90 3b 94 ab f7 3b a1 29 e3 bc 5c e3 3e bb
       0.004417917 0.0075582955 -0.027729811 -0.0029127216
000340 73 84 50 bb 92 7d 9a 3b db 6b 40 3c 95 a9 fb 3b
       -0.0031817227 0.004714676 0.011744465 0.007680128
000350 83 e1 03 bb 2a a4 57 3c 65 ea 80 3b 91 b2 9c bc
       -0.002012343 0.013161698 0.003934192 -0.019128116
000360 e2 c1 6a 3c 37 25 80 bb 34 c3 3f bc 86 a9 74 bc
       0.014328452 -0.0039106864 -0.011704255 -0.014932996
000370 01 ca 9e bc 1f 67 b7 bc 29 28 9b bc 0c 5b ed bc
       -0.019383432 -0.02238804 -0.018940048 -0.028974079
000380 3f dd 17 3d 67 b1 10 3a a0 7c 41 bc 1e a3 cc 3a
       0.03707623 0.0005519599 -0.011809498 0.0015612578
000390 41 f8 d3 b9 ff c6 98 bb 16 54 49 3b b0 be c4 39
       -0.0004043002 -0.004662394 0.0030720285 0.00037526106
0003a0 4f 28 e4 3c fc 3b 6d 3c e0 ac 91 bc a6 51 e3 ba
       0.027851252 0.014479633 -0.017782629 -0.0017343059
0003b0 33 53 77 3c 33 bd 5e 3c 48 4c c3 3a 39 31 03 bc
       0.01509552 0.013594913 0.0014900053 -0.008007341
0003c0 07 0b f7 3c 22 9f 53 3a 5a fc e3 3b 33 57 1c bc
       0.030156625 0.0008072724 0.006957573 -0.009542274
0003d0 a2 3c 06 3b fd ea 23 bc a1 77 36 b9 aa ff 38 3b
       0.0020482917 -0.010004756 -0.00017401438 0.002822856
0003e0 04 c0 e1 3c 84 08 69 3b 03 81 1a 3b df 78 a8 3c
       0.02755738 0.0035558054 0.0023575432 0.020565448
0003f0 15 9c 69 3c 5c 50 b0 3c 74 58 af 3c 9c 39 4f 3c
       0.014258404 0.021522693 0.021404482 0.0126480125

linear1.bias f4 [108]
000000 d8 6a 25 3c 4a 14 15 bc bb 39 0a 3d d1 32 8d 3d
       0.010096274 -0.009099076 0.033746462 0.06894458
000010 48 c0 1c 3b e8 dc 13 3c 40 e0 4e 3d 8a 4e ec 3c
       0.002391832 0.009024836 0.05050683 0.028846044
000020 23 5f 46 3d 2a 5c 09 3e 00 3d 5b 3c 72 9d a7 3d
       0.048430573 0.13414064 0.013381243 0.08184327
000030 9d 20 0c 3e 51 28 91 3c 3a 9a 60 3d 25 ff 22 3c
       0.13684316 0.01771942 0.054834582 0.0099485265
000040 db b7 4a 3e 8f 96 11 3d be f1 5a bc ca 0e d3 3c
       0.19796698 0.035543974 -0.0133633 0.025763888
000050 3e 49 da 3d fa 78 08 3e fd 0a 6c 3e fb 09 4f bb
       0.10658501 0.13327399 0.23051067 -0.0031591642
000060 77 20 46 3d c4 56 63 3d 48 a5 86 3c 7d 95 98 3d
       0.048370805 0.055502668 0.016436234 0.074503876
000070 42 00 05 3e d5 f1 ee 3d 11 02 a5 3c a2 09 0f 3e
       0.1298838 0.116672195 0.020142587 0.13968518
000080 99 a3 7a 3c d5 e0 87 3c 4d c6 e1 3c d3 26 b4 3d
       0.015297794 0.0165867 0.027560377 0.08796468
000090 08 2e 15 3d 3a 3d 23 bc ae 7c 60 3d 77 fd b1 3d
       0.036420852 -0.009963328 0.054806404 0.08690923
0000a0 18 e3 0c 3c d7 52 82 3e 88 48 a7 3c 0e 0d 9d bc
       0.008599065 0.25453827 0.020420328 -0.019171264
0000b0 96 ed f2 38 00 d9 2d 3d 6a 64 3d 3d 5c e1 71 3d
       0.00011583713 0.042443275 0.04623834 0.05905281
0000c0 fa 41 8a 3d c7 99 67 bb ae c1 b9 3d 71 fb 34 3d
       0.06750865 -0.0035339461 0.090701446 0.044185106
0000d0 f9 bb 8c 3c 70 20 9d bb cf c7 2b 3e 3c cf b1 3d
       0.017179476 -0.0047951266 0.1677544 0.08682105
0000e0 82 37 15 3e 88 48 86 3e 73 76 9f 3c 02 2e 27 3e
       0.14571956 0.26227212 0.01946566 0.16326144
0000f0 23 53 b3 3c 6e 73 5f 3e a5 80 28 3c fc 54 5b 3c
       0.021890229 0.21821377 0.0102845775 0.013386961
000100 a1 c6 f3 3c 69 54 eb 3c f3 bf 3b bc 26 37 d5 3d
       0.0297578 0.028726773 -0.0114593385 0.10410909
000110 f4 33 17 3e 80 90 89 3d 37 34 32 3d f1 0b fc 3c
       0.14765912 0.06717014 0.043506827 0.030767413
000120 37 5e 25 3d 6c d5 65 ba 41 e5 ac 3d 28 2e d9 3c
       0.040373053 -0.0008767459 0.08442164 0.026511267
000130 71 d7 da 3c 79 0b 18 3e a0 60 b0 3d 56 b9 8f 3e
       0.026714059 0.14848126 0.0861218 0.28071088
000140 19 2a 97 bb df 75 86 3a 30 5a 9a 3d 1d f2 0f 3e
       -0.0046131727 0.0010258517 0.07536733 0.14057203
000150 3a fd 09 3e b3 3e f4 3b d6 88 4a bc ac 9d 63 3e
       0.13475505 0.0074537634 -0.012361726 0.22228116
000160 25 dd 91 3d be 83 ff 3c e8 48 1f bc 3e 09 b7 3b
       0.07122258 0.03119075 -0.009721972 0.0055858186
000170 8a 76 3f 3e 8a e8 7d 3b 5c 09 c6 bb 1a 61 57 3e
       0.18697563 0.003874334 -0.006043596 0.21033135
000180 61 7e ae 3c 31 67 a7 3c 73 51 26 bc 76 23 fc 3c
       0.021300497 0.020434948 -0.010151255 0.030778628
000190 0b 36 c9 3c 67 43 c5 3c e6 a0 23 3e e2 d9 33 3c
       0.024561903 0.024079992 0.15979347 0.01097724
0001a0 3f 63 85 3b 95 ef d2 3d 0f 68 5e 3c 99 8f 53 bb
       0.004070669 0.10299603 0.013574614 -0.0032281636

linear2.weight f4 [1, 108]
000000 79 05 a3 3c a0 57 a1 3d 86 b0 14 3e e8 ed 9d 3e
       0.01990007 0.07878041 0.14520463 0.3084557
000010 ef cb 94 3d 85 1e 39 3d 20 6b 31 3e 81 ee 3e 3e
       0.0726546 0.04519512 0.17326021 0.1864567
000020 06 90 82 3e d3 73 27 3f 85 3b 8d 3d 22 91 b5 3e
       0.25500506 0.6541111 0.06896118 0.3546229
000030 b0 71 25 3f 4c 3d ce 3c 99 85 8d 3e 0f c3 84 bc
       0.646266 0.025175713 0.2764099 -0.016206292
000040 a6 a5 86 3f b0 68 09 3e 7c c5 4a 3c 72 dc 15 3e
       1.0519302 0.13418841 0.0123761855 0.14634874
000050 77 39 d1 3e 00 95 30 3f 7a c8 91 3f 4c b9 fe bb
       0.40864155 0.68977356 1.1389306 -0.007773554
000060 3d 74 99 3e a9 a4 5a 3e a2 7d 12 3e 54 66 c3 3e
       0.29971495 0.21351875 0.14305738 0.38164008
000070 67 9c 14 3f dc 8a 34 3f d9 a9 a2 3d 77 f6 43 3f
       0.5805115 0.7052438 0.07942552 0.7654795
000080 ca 51 05 3e 26 f8 fe 3d de 37 18 3e 68 24 c2 3e
       0.13019481 0.12449674 0.14865062 0.379184
000090 5f 83 3b 3e 23 a5 21 3c 12 d2 8e 3e 80 8e f5 3e
       0.18311833 0.009866032 0.27894646 0.4796028
0000a0 85 fa c9 3d 83 c7 ad 3f 55 b0 ba 3d e2 b1 82 bb
       0.09862236 1.3576511 0.09115664 -0.0039884904
0000b0 30 78 9b 3c 26 8d 42 3e f8 e0 67 3e 09 8b b8 3e
       0.018978208 0.18999156 0.22644413 0.36043575
0000c0 f0 ab 97 3e 39 75 b8 bb d0 56 e9 3e 9a 64 97 3e
       0.29623365 -0.0056292084 0.45574045 0.2956894
0000d0 98 a9 db 3d f7 2b ba 3c db fb 4b 3f ab a3 ad 3e
       0.10725707 0.022726042 0.79681176 0.3391393
0000e0 89 71 57 3f a2 1a a5 3f 99 ad 6d 3b 1a a0 33 3f
       0.84157616 1.2898753 0.0036266802 0.7016617
0000f0 90 8b b1 3d d3 0c 80 3f 1f c5 b7 3d 8d be b4 3d
       0.086691976 1.0003914 0.08973145 0.08825407
000100 0d 70 d6 3d 19 c7 b7 3d 99 c8 87 bc f3 0f 02 3f
       0.10470591 0.08973522 -0.016575145 0.50805587
000110 c3 a0 50 3f b8 c9 bb 3e 6d 92 8f 3e ab de 11 3e
       0.814953 0.36677337 0.28041402 0.14245097
000120 53 65 56 3e 98 1f 90 3b 72 69 d1 3e 6b bc fa 3d
       0.2093709 0.0043982975 0.4090076 0.12242969
000130 d9 90 33 3e 48 3f 3d 3f c6 84 c3 3e a0 fc c4 3f
       0.17535724 0.73924685 0.38187236 1.5389595
000140 f4 6a 27 bc fd 98 80 3b cc bd cc 3e 35 7d 37 3f
       -0.010218371 0.0039244876 0.39988554 0.71675426
000150 8f c8 2c 3f 95 de 97 3d 53 29 e0 3b ef 56 87 3f
       0.6749353 0.07415501 0.0068408637 1.0573405
000160 94 10 d5 3e 18 fd bd 3d 86 63 7d 3b 58 2b 1e 3d
       0.4161421 0.092767894 0.0038664057 0.038615555
000170 f1 e3 81 3f 48 70 c1 3c 34 cb aa 3b d4 0a 65 3f
       1.0147687 0.02361311 0.005212212 0.8946965
000180 9d 56 27 3d 5a 31 8e 3d 17 64 8f bc 58 c5 6f 3d
       0.040854085 0.06943007 -0.017503781 0.05853781
000190 14 06 5e 3d 95 7c 0d 3e f0 99 32 3f 4c 43 7d 3d
       0.054205015 0.13817056 0.6976614 0.061831757
0001a0 2b de 8d 3d 34 69 f9 3e 0a d9 ee 3d 9a 39 00 3d
       0.06927141 0.48713076 0.11662491 0.031304933
